model/AT_200K.pth (torch, 847445 bytes, 48 tensors)

weight f4 [14, 128]
000000 a0 10 16 bc f2 63 17 bd 67 8d 53 3a f2 42 c3 bc
       -0.009159237 -0.03696055 0.0008070082 -0.023835633
000010 2f 3f c7 3b 7f 75 34 bb 61 dd f7 3c 82 8a 3e bc
       0.00608053 -0.0027535853 0.030256929 -0.0116297025
000020 d1 e0 1c bc a0 1f 20 3d 1c cf 04 bd 1a 2c f2 3b
       -0.009575085 0.03909266 -0.032424077 0.007390511
000030 03 27 c6 3c 2c 2e 02 3c 78 76 3f 3b 3e ec bf 3c
       0.024188524 0.007945579 0.00292149 0.023428079
000040 fc 81 1d 3c 40 bb a9 3c 6a 08 f2 bc 65 dc a1 bc
       0.00961351 0.02071917 -0.029545028 -0.019758413
000050 26 f0 8f bc 32 47 a9 3c db 94 99 3c e6 b3 1f 3c
       -0.017570566 0.020663831 0.018747738 0.009747481
000060 42 47 32 3c 0b 82 7e bc 92 c4 ba bb df 61 95 bb
       0.010881247 -0.015533934 -0.0056997025 -0.0045587863
000070 53 94 1c bc 4e cd 89 bc d3 a0 d3 3c f8 03 43 bc
       -0.009556848 -0.01682153 0.025833523 -0.011902802
000080 ec 92 18 bb 4b 6b 4d 3c 79 ad a6 bc af 56 6f 3c
       -0.0023280932 0.012537788 -0.02034639 0.014608069
000090 43 b3 f3 3b 18 9b 2e 3b 4c 48 e0 3c 30 4b bd bc
       0.007437141 0.0026642736 0.027378224 -0.023107141
0000a0 f7 44 b1 3c 2e a5 01 bd 21 35 b1 3c 19 9e 66 3c
       0.02163933 -0.03165167 0.02163178 0.014075779
0000b0 2a 6b a1 bb f2 ba 5b 3b 25 42 18 3d ed 6e 57 3c
       -0.004926105 0.0033528176 0.037172455 0.013149005
0000c0 a7 14 b5 3c c8 d0 ad 3c 1c 43 e7 3c f9 1b 8d 3c
       0.022104574 0.021217719 0.028230242 0.017225252
0000d0 f1 c9 90 bb 79 20 eb 3b 73 75 ec bb ee 47 43 bc
       -0.0044186045 0.007175502 -0.0072161495 -0.011919005
0000e0 0b 2d 32 3d 9b 58 3b 3c cd 6d fd bc c4 eb 58 3c
       0.043499988 0.011434699 -0.030936146 0.013239805
0000f0 61 fe 6b bc ac 27 dd 3b 4a d3 a5 3c 9d e7 f0 bc
       -0.01440391 0.006749114 0.020242352 -0.029407317
000100 f1 c3 76 bc c7 85 f9 bc 3d f0 e5 3b 81 95 8e 3c
       -0.0150613645 -0.030459298 0.007017164 0.017405273
000110 67 79 bf bb c3 c2 65 3c cc 20 ed ba 0b ee ab bc
       -0.0058433297 0.014023486 -0.0018091439 -0.020987531
000120 4d cf 07 3c 5e c3 4b 3a 07 e8 05 3c bb 25 b4 3c
       0.00828917 0.00077729474 0.008172995 0.021990648
000130 b6 6b b5 bc 14 cd 8c bc 9d 21 42 3b cb dc ba bb
       -0.022146087 -0.017187633 0.0029622086 -0.00570259
000140 ee 3a 14 bd 51 b2 61 3b 7e fb 23 bd 02 cf 06 3c
       -0.036189012 0.003443856 -0.040034764 0.008228065
000150 ce 3a c5 bc 53 0b 0c ba 88 cb 71 3c 8a f6 9c 3b
       -0.024075892 -0.00053422636 0.014757998 0.004790132
000160 66 f0 ee 3c 81 2b 5d bc e9 9d 52 3c 19 d4 ae bc
       0.029167365 -0.013499142 0.0128550315 -0.02134137
000170 2e 09 a0 3b 79 da e9 3c 51 75 ce bc e2 6b 40 ba
       0.004883907 0.028546559 -0.025202425 -0.00073402945
000180 ba 5e bb 3c 61 59 93 3c 08 a7 5c bc 5d 83 e9 bc
       0.022872318 0.017986955 -0.013467558 -0.028505022
000190 ab 32 94 bc 94 03 43 3b a3 6c 9b bc 63 c0 93 3c
       -0.018090567 0.0029756771 -0.0189727 0.018036073
0001a0 e3 44 12 bd 3b dd ab 3b 30 25 92 bc f4 47 f2 bc
       -0.035710227 0.0052448786 -0.017839998 -0.029575326
0001b0 f3 bb 18 3c 7e 56 1f bc 89 74 ef bc a7 de 30 bb
       0.009322154 -0.009725211 -0.029230373 -0.002698818
0001c0 9d b6 01 3c b8 75 39 3c f5 9d b6 bc c6 ba 58 bc
       0.007917074 0.01131957 -0.022292117 -0.013228124
0001d0 fc 11 a2 3c 82 02 9c 3c a5 41 36 bc 16 6b af 3a
       0.019783966 0.019044165 -0.011124049 0.0013383355
0001e0 21 25 a1 3b 65 69 b5 bc 01 d6 43 bb 72 c5 0e bc
       0.004917756 -0.022144983 -0.0029882195 -0.008714067
0001f0 84 64 e5 3c c0 ac 3a 3d 6e 99 99 bc ef cd ed 3c
       0.028002031 0.045574903 -0.018749919 0.02902886
000200 d8 41 8d 3c 67 95 35 3c af b1 39 bc 36 6d 99 bb
       0.01724331 0.011082984 -0.011333867 -0.0046822084
000210 9f 72 22 3d 7e 05 d8 3c 14 5f 8e ba 71 f9 39 bc
       0.039660092 0.026369806 -0.0010862076 -0.011350975
000220 a5 89 cd 3c b8 58 dc 3a 29 a5 0c bd 12 9a 48 bb
       0.025090048 0.0016811108 -0.034337196 -0.0030609411
000230 ef 64 13 bd 25 a5 1c bd dd a3 f5 3c a8 1b d2 3b
       -0.03598493 -0.03824343 0.029985363 0.0064119883
000240 24 c2 ab 3c 90 f8 cd 3c e6 96 3f 3c d7 48 0a 3c
       0.020966597 0.025142938 0.011693692 0.008440218
000250 d4 60 26 3d ae b5 40 bc 93 49 b3 ba 9e b0 c6 3c
       0.040619686 -0.011762066 -0.0013678543 0.02425414
000260 2f 2f 01 bd 33 75 44 bd 3b 00 a7 bb 93 3f ff 3c
       -0.03153914 -0.047963332 -0.005096463 0.031158244
000270 d9 7d 6a bc f4 69 b4 3c 10 24 8c bb 1a 66 8a bc
       -0.014312231 0.022023179 -0.00427676 -0.016894389
000280 a1 68 38 bd c4 24 e9 3c fe 76 09 3d 3f 3c 21 3d
       -0.045021657 0.028459914 0.033560745 0.039364096
000290 c6 f7 09 3c de 93 d1 bc 0b d0 61 3c ca fd d2 bb
       0.00842089 -0.025583204 0.013782511 -0.0064389454
0002a0 63 ea ae b9 25 3b 27 3d c3 a2 71 bb d9 07 e0 3c
       -0.00033362498 0.04082789 -0.0036870695 0.027347492
0002b0 42 db 1d bd 4e f3 b1 bc a5 83 ae 3b f0 37 7a bb
       -0.03853918 -0.021722462 0.005325752 -0.0038180314
0002c0 92 68 0b bd 1e 7d 88 bb 2c 14 08 3c c7 42 17 3d
       -0.034035273 -0.0041653058 0.008305591 0.03692892
0002d0 2c a0 17 3d b3 c9 fa 3c c7 e1 06 3d 04 75 a7 3a
       0.037017986 0.030613756 0.03293016 0.0012775962
0002e0 6f 0f fb 3b ca 16 8b bc 8a 0a c9 bc 94 7b c3 3b
       0.007661752 -0.01697864 -0.024541158 0.0059656594
0002f0 92 04 77 bc 12 3d 21 bd 55 81 f6 3c 06 aa 55 3d
       -0.015076773 -0.03936488 0.030090967 0.0521641
000300 05 8c 1b bc 7a 13 1b bc 80 97 f4 3c 1a 89 37 3c
       -0.0094938325 -0.009465093 0.029857397 0.011202121
000310 11 d8 ac bd d8 a6 29 3b e7 70 a9 bc f5 05 08 bd
       -0.08439649 0.00258868 -0.020683719 -0.033208806
000320 62 4b 5c 3c e4 5e 8a 3c b2 58 28 bc 3b fd 29 3d
       0.013445707 0.01689095 -0.010275053 0.041501265
000330 7c df 67 3b 98 47 02 bd 2d 86 33 bc 59 77 8f bb
       0.003538101 -0.03180656 -0.010957283 -0.004378241
000340 66 f7 1d 3c ea 8e 0c bd 43 49 03 3d 2b b9 fb bb
       0.009641504 -0.03431598 0.03205229 -0.007681986
000350 a3 39 1f bc 8d 9b 1e bd 24 0b ef 3c 5e ee 03 bc
       -0.0097183315 -0.038722564 0.029180117 -0.008052437
000360 51 df 9f 3b 8d dc 09 bd 86 41 9e 3b b1 c6 a3 bb
       0.0048789163 -0.0336576 0.0048295883 -0.004998051
000370 f2 14 30 3c d7 4d ea 3b 7e ba 15 bc 32 d6 8d 3c
       0.010747181 0.0071503925 -0.0091387015 0.01731405
000380 0d a6 dd bc e2 9b 22 3d 69 eb da bc 83 14 cc bb
       -0.027056718 0.039699443 -0.02672358 -0.006228031
000390 4c 1d 3d bd 6e 36 24 bc 60 a1 9b 3d 6c fb 4d bc
       -0.046170518 -0.010022743 0.07599139 -0.012572151
0003a0 30 0b 07 bd 46 e8 1f bc 98 08 ae 3c 42 b0 a2 3c
       -0.032969654 -0.009759968 0.021244332 0.019859437
0003b0 79 c8 d5 3b 14 5f 73 bc 4a dc 82 bd ae 5d b6 bc
       0.0065241423 -0.014854211 -0.06389673 -0.022261467
0003c0 b9 7a 02 3d 56 53 6a 3c 97 43 90 3c f5 fe bd bc
       0.03185532 0.014302095 0.017610354 -0.023192862
0003d0 bb 07 9c 3c 8f f2 e3 3c b0 66 b2 3c 63 e9 b5 3c
       0.019046655 0.027825622 0.02177748 0.022206014
0003e0 60 41 25 3d 0a f3 e0 3c fe 23 96 3d 02 62 b6 3c
       0.04034555 0.02745964 0.07331084 0.02226353
0003f0 c4 ef 0b 3c ca fc 7f 3c d2 0e 37 bc 13 9b e0 3c
       0.008541051 0.015624234 -0.011172967 0.027417695

weight f4 [14, 128]
000000 40 41 4e 3c 32 9e 3d bb 8b a7 fc bc b0 a1 0a 3b
       0.012588799 -0.0028933403 -0.03084161 0.0021153502
000010 e3 2f 4b 3b da e3 15 3d 1c 58 ef bc 4f f7 4e bc
       0.0031003885 0.03659425 -0.029216819 -0.012632205
000020 bf 52 0b bc 02 4a 08 3d a1 3f 41 bc 49 e3 ac b9
       -0.008503615 0.033273704 -0.0117949555 -0.00032975737
000030 c1 14 bc bc 91 9d 3a bc 4f b4 51 bc 12 90 ed bc
       -0.022959115 -0.011390106 -0.012799337 -0.028999362
000040 ea 7b a4 bc 72 5a a8 3c ee b5 3a 3d 12 a9 01 3d
       -0.020078618 0.02055094 0.045583658 0.03165538
000050 48 e6 dd 3c 25 28 ec 3b 78 63 9d 3b 02 47 4b ba
       0.027087346 0.007206934 0.0048031174 -0.00077544164
000060 b2 d3 3e bb 3b 16 02 ba 2d e2 2f 3c 01 43 7a 3c
       -0.002911788 -0.0004962419 0.010735077 0.015274764
000070 b8 73 58 bc 5e 7e ea 3c 94 22 0e 3d 31 00 a9 bc
       -0.013211183 0.02862471 0.034700945 -0.020629974
000080 9c 66 c8 bb ca 0c 03 3c 4d 22 71 3c d8 cc 91 3c
       -0.0061157476 0.007998655 0.014717651 0.017797872
000090 e5 0e 1a 39 df 4e bf bc 93 61 a7 bc 5d 8c 04 bc
       0.00014692133 -0.023353038 -0.02043227 -0.008090106
0000a0 fd 07 2a 3c 73 24 36 3d 45 ce 13 3d 48 08 6d bc
       0.010377881 0.044468354 0.036085386 -0.014467306
0000b0 71 51 ce bc 12 be 92 3b 00 44 c9 3b 53 d0 6e bc
       -0.025185319 0.0044782246 0.0061421394 -0.014576036
0000c0 db 83 08 bd e5 ad 3b 3d 34 e9 d3 bc 48 a8 7b 3d
       -0.033328872 0.045820136 -0.025868036 0.061439782
0000d0 3a 68 e2 bb fd 01 3c 3b fc d6 e1 3c a0 54 6e bc
       -0.0069093974 0.0028687709 0.027568333 -0.014546543
0000e0 5c 75 7e 3c 91 86 0f bb 28 ac b3 3c ea 44 1d 3b
       0.01553091 -0.0021900276 0.021932676 0.0023997375
0000f0 a8 8e e9 3c ee c8 b4 3c 84 e0 d6 bc db e2 e2 3b
       0.028510407 0.022068467 -0.026230104 0.006924016
000100 88 bc c2 bb 38 47 1a 3c de 08 08 3d ce 06 91 3c
       -0.005942885 0.009416394 0.03321158 0.01770344
000110 88 42 20 3b 18 30 d3 bb 6c 98 43 bd c2 ed 58 bd
       0.0024453718 -0.006444942 -0.047752783 -0.05296112
000120 4b 9a 1f 3d 3d 78 f4 3b 3b 96 db bc 4c 5d ce bb
       0.038965505 0.0074606226 -0.026805034 -0.006297743
000130 32 1d 21 bd 8e f9 a9 3b 84 5d d6 bc c5 ed 91 bb
       -0.039334483 0.00518722 -0.026167639 -0.004453393
000140 b4 9c 17 3c 03 f6 61 3b a3 1c de 3b fd 80 a9 3c
       0.0092536695 0.003447891 0.006778316 0.02069139
000150 df a9 0f 3c 4a 2c 66 bc 6a e6 00 bb 29 fa 95 bc
       0.008768528 -0.014048645 -0.0019668587 -0.018307762
000160 0f e4 23 3c 9d 9a 0a bd 8c 8c 87 3c eb 69 20 bd
       0.010003104 -0.033838857 0.01654651 -0.03916351
000170 2c 04 2a 3d 81 ad 3e 3c 0e 50 59 bc 9b c7 80 bc
       0.041507885 0.011638046 -0.013263715 -0.01572018
000180 60 d4 96 bc b4 22 bf bb 31 3e 69 3c 20 11 1b bc
       -0.018411815 -0.0058329944 0.014236019 -0.009464532
000190 d9 25 d9 bc 8c 1a 3e bc 43 12 f7 3b b8 ee 41 bd
       -0.026507305 -0.011603009 0.0075400188 -0.0473468
0001a0 dd 9c f5 bc 1a f4 c8 3c 9d a3 86 bc 19 e5 13 3a
       -0.029982025 0.02453046 -0.016435439 0.0005641743
0001b0 5c 78 c6 3c c0 c6 1a 3c ed 7c 53 3c 0f cc ab bc
       0.024227314 0.0094468 0.012908203 -0.020971326
0001c0 0a 00 5b bc 01 6c 30 3c 4b 16 27 bd 5b 0e ee bc
       -0.0133667085 0.010767938 -0.040792745 -0.02905958
0001d0 d0 dc 71 3c f9 65 84 bc 9a cf 64 3c 26 6a 2f 3d
       0.014762118 -0.016161906 0.013965512 0.04282584
0001e0 94 6c 46 3d f2 07 12 3b e3 d2 66 3c 11 9b 9e bc
       0.048443392 0.0022282568 0.014088365 -0.01936105
0001f0 eb 68 bd bc 5c 83 0a bc cd b2 98 3c 70 df d2 3c
       -0.023121318 -0.00845417 0.018639946 0.025741309
000200 a2 41 1b bc 20 e9 fb 3a 5c 2d 9d 3c 32 08 f8 bc
       -0.009476097 0.0019219257 0.019186668 -0.030277345
000210 3e 85 06 bb ff 2b 1c bd d0 11 dd bb a7 2c 91 3c
       -0.0020526196 -0.038127895 -0.006746508 0.017721487
000220 63 47 42 3d 65 be d4 3c 3d 09 1e 3d 76 11 c5 3c
       0.04743136 0.025969693 0.03858303 0.024056178
000230 af 3b 46 3c 44 91 fc bb 9b 82 70 bc c4 3c 04 3c
       0.012099191 -0.0077077467 -0.014679576 0.008071128
000240 e2 aa c4 3a 9a 4a a8 b6 16 88 de 3a ba 32 c8 3c
       0.001500454 -5.015475e-06 0.0016977813 0.02443825
000250 1d b5 88 ba 71 77 ee 3b bf 22 bd 3c 17 c5 f1 bc
       -0.0010429953 0.007277422 0.023087857 -0.029512925
000260 8c 7c 5d bc 2e a4 99 bb 0b 06 21 bd f5 42 9f 3b
       -0.013518464 -0.004688761 -0.039312404 0.004860277
000270 ea 2a 40 3d 8e e5 4c 3d e2 0e 44 bc 22 62 82 3c
       0.046915926 0.050023608 -0.011966439 0.015915934
000280 e1 6d ca bc f2 46 ca bc 5c ce 24 3d 40 1b 58 ba
       -0.024710597 -0.024692032 0.040235862 -0.00082438067
000290 3a 31 33 3c f2 c8 78 3c fb 56 3c 3c d9 4f 3b bc
       0.0109370295 0.015184628 0.011495347 -0.011432611
0002a0 cf 1f 44 3c a8 f7 74 bc bc 04 07 bd bc 38 02 3a
       0.011970474 -0.014951624 -0.0329635 0.00049675605
0002b0 d0 e6 d6 3c e6 2f 06 3c 23 0b c8 3c 9a 6b a7 bc
       0.026233107 0.008190131 0.024419373 -0.02043705
0002c0 45 be d1 3c ae f3 0d bd d3 a5 c1 bc 0a 33 c6 3b
       0.025603423 -0.03465622 -0.023638641 0.006048565
0002d0 23 19 d7 bc 14 53 8e ba 7f 7c 84 3b 38 bc 71 bc
       -0.026257103 -0.00108585 0.0040431614 -0.0147543475
0002e0 a6 80 ca 3b a1 80 05 3c 4b df 02 3a 7c 54 1b bd
       0.006179887 0.008148343 0.00049923797 -0.037922367
0002f0 fc 9c 7f bc f9 8a 80 bb 20 0f f9 bb 61 c1 5c bc
       -0.015601393 -0.003922817 -0.00760068 -0.0134738395
000300 7a 35 d7 3c d3 48 38 bb e8 2b 97 3b c8 d3 1d bc
       0.026270617 -0.0028119578 0.0046133883 -0.009633012
000310 78 d1 8c bc 71 89 88 3c b3 78 df 3c 4f c8 a8 bc
       -0.017189726 0.0166671 0.027279234 -0.020603327
000320 97 7a 0e bd 3d ed 91 bc 2a 8e fc 3c 91 fc fc 3c
       -0.03478488 -0.01781332 0.030829508 0.030882152
000330 de ac 77 3b 49 cc 32 3b 31 7b 3c bd 17 52 99 bd
       0.0037792246 0.0027282408 -0.046015922 -0.074863605
000340 4e 3b 1e bd 79 50 76 bb bf 8b 15 bd 94 5d 30 bd
       -0.038630776 -0.0037584587 -0.036510225 -0.043057993
000350 ad 75 81 3c 47 c1 dd bb 14 f8 ae 3a 80 bd 87 bc
       0.015803182 -0.006767425 0.001334908 -0.016569853
000360 4c 6f 95 bb d6 17 9c 3c 56 d6 1f bd b2 1f 2f 3d
       -0.0045603868 0.019054335 -0.039022766 0.042754836
000370 b4 b8 0f bd 8b ff a9 bb d8 63 9e 3c 48 32 99 bc
       -0.035088256 -0.005187934 0.019334719 -0.018700734
000380 ef 38 df 3c 57 06 d3 bc 1d 85 f4 bb e1 6d 30 3a
       0.027248828 -0.025759859 -0.0074621574 0.00067302404
000390 f3 e7 53 ba 70 47 42 bd f3 78 e5 3b 3d ab 98 bc
       -0.00080835744 -0.04743141 0.0070029437 -0.01863634
0003a0 f4 b1 b3 bc 7f 86 17 3c 89 11 e6 3a 87 66 8e 3c
       -0.02193544 0.009248375 0.0017552833 0.017382873
0003b0 25 15 53 b9 f1 47 4c bc 30 65 29 bc 26 87 0f 3a
       -0.00020130405 -0.012468324 -0.010339066 0.0005475156
0003c0 29 12 1f 3d e4 61 2e bc b8 6b 88 b9 58 e0 14 3c
       0.03883568 -0.010643456 -0.00026020198 0.009086691
0003d0 22 c7 11 bc 1e 63 bc 3b de 3e 34 3b 26 0e 98 3b
       -0.008897575 0.0057491204 0.0027503292 0.0046403585
0003e0 58 c5 c3 bc 54 2c 8f 3d a6 56 e3 3c 5e b8 d7 bb
       -0.023897812 0.06990877 0.027751278 -0.0065832576
0003f0 7a 47 85 3c 28 db eb bc b4 04 64 3c 63 24 26 bd
       0.016269434 -0.028791025 0.013917137 -0.040562045

tril f4 [14, 14]
000000 00 00 80 3f 00 00 00 00 00 00 00 00 00 00 00 00
       1.0 0.0 0.0 0.0
000010 00 00 00 00 00 00 00 00 00 00 00 00 00 00 00 00
       0.0 0.0 0.0 0.0
000020 00 00 00 00 00 00 00 00 00 00 00 00 00 00 00 00
       0.0 0.0 0.0 0.0
000030 00 00 00 00 00 00 00 00 00 00 80 3f 00 00 80 3f
       0.0 0.0 1.0 1.0
000040 00 00 00 00 00 00 00 00 00 00 00 00 00 00 00 00
       0.0 0.0 0.0 0.0
000050 00 00 00 00 00 00 00 00 00 00 00 00 00 00 00 00
       0.0 0.0 0.0 0.0
000060 00 00 00 00 00 00 00 00 00 00 00 00 00 00 00 00
       0.0 0.0 0.0 0.0
000070 00 00 80 3f 00 00 80 3f 00 00 80 3f 00 00 00 00
       1.0 1.0 1.0 0.0
000080 00 00 00 00 00 00 00 00 00 00 00 00 00 00 00 00
       0.0 0.0 0.0 0.0
000090 00 00 00 00 00 00 00 00 00 00 00 00 00 00 00 00
       0.0 0.0 0.0 0.0
0000a0 00 00 00 00 00 00 00 00 00 00 80 3f 00 00 80 3f
       0.0 0.0 1.0 1.0
0000b0 00 00 80 3f 00 00 80 3f 00 00 00 00 00 00 00 00
       1.0 1.0 0.0 0.0
0000c0 00 00 00 00 00 00 00 00 00 00 00 00 00 00 00 00
       0.0 0.0 0.0 0.0
0000d0 00 00 00 00 00 00 00 00 00 00 00 00 00 00 00 00
       0.0 0.0 0.0 0.0
0000e0 00 00 80 3f 00 00 80 3f 00 00 80 3f 00 00 80 3f
       1.0 1.0 1.0 1.0
0000f0 00 00 80 3f 00 00 00 00 00 00 00 00 00 00 00 00
       1.0 0.0 0.0 0.0
000100 00 00 00 00 00 00 00 00 00 00 00 00 00 00 00 00
       0.0 0.0 0.0 0.0
000110 00 00 00 00 00 00 00 00 00 00 80 3f 00 00 80 3f
       0.0 0.0 1.0 1.0
000120 00 00 80 3f 00 00 80 3f 00 00 80 3f 00 00 80 3f
       1.0 1.0 1.0 1.0
000130 00 00 00 00 00 00 00 00 00 00 00 00 00 00 00 00
       0.0 0.0 0.0 0.0
000140 00 00 00 00 00 00 00 00 00 00 00 00 00 00 00 00
       0.0 0.0 0.0 0.0
000150 00 00 80 3f 00 00 80 3f 00 00 80 3f 00 00 80 3f
       1.0 1.0 1.0 1.0
000160 00 00 80 3f 00 00 80 3f 00 00 80 3f 00 00 00 00
       1.0 1.0 1.0 0.0
000170 00 00 00 00 00 00 00 00 00 00 00 00 00 00 00 00
       0.0 0.0 0.0 0.0
000180 00 00 00 00 00 00 00 00 00 00 80 3f 00 00 80 3f
       0.0 0.0 1.0 1.0
000190 00 00 80 3f 00 00 80 3f 00 00 80 3f 00 00 80 3f
       1.0 1.0 1.0 1.0
0001a0 00 00 80 3f 00 00 80 3f 00 00 00 00 00 00 00 00
       1.0 1.0 0.0 0.0
0001b0 00 00 00 00 00 00 00 00 00 00 00 00 00 00 00 00
       0.0 0.0 0.0 0.0
0001c0 00 00 80 3f 00 00 80 3f 00 00 80 3f 00 00 80 3f
       1.0 1.0 1.0 1.0
0001d0 00 00 80 3f 00 00 80 3f 00 00 80 3f 00 00 80 3f
       1.0 1.0 1.0 1.0
0001e0 00 00 80 3f 00 00 00 00 00 00 00 00 00 00 00 00
       1.0 0.0 0.0 0.0
0001f0 00 00 00 00 00 00 00 00 00 00 80 3f 00 00 80 3f
       0.0 0.0 1.0 1.0
000200 00 00 80 3f 00 00 80 3f 00 00 80 3f 00 00 80 3f
       1.0 1.0 1.0 1.0
000210 00 00 80 3f 00 00 80 3f 00 00 80 3f 00 00 80 3f
       1.0 1.0 1.0 1.0
000220 00 00 00 00 00 00 00 00 00 00 00 00 00 00 00 00
       0.0 0.0 0.0 0.0
000230 00 00 80 3f 00 00 80 3f 00 00 80 3f 00 00 80 3f
       1.0 1.0 1.0 1.0
000240 00 00 80 3f 00 00 80 3f 00 00 80 3f 00 00 80 3f
       1.0 1.0 1.0 1.0
000250 00 00 80 3f 00 00 80 3f 00 00 80 3f 00 00 00 00
       1.0 1.0 1.0 0.0
000260 00 00 00 00 00 00 00 00 00 00 80 3f 00 00 80 3f
       0.0 0.0 1.0 1.0
000270 00 00 80 3f 00 00 80 3f 00 00 80 3f 00 00 80 3f
       1.0 1.0 1.0 1.0
000280 00 00 80 3f 00 00 80 3f 00 00 80 3f 00 00 80 3f
       1.0 1.0 1.0 1.0
000290 00 00 80 3f 00 00 80 3f 00 00 00 00 00 00 00 00
       1.0 1.0 0.0 0.0
0002a0 00 00 80 3f 00 00 80 3f 00 00 80 3f 00 00 80 3f
       1.0 1.0 1.0 1.0
0002b0 00 00 80 3f 00 00 80 3f 00 00 80 3f 00 00 80 3f
       1.0 1.0 1.0 1.0
0002c0 00 00 80 3f 00 00 80 3f 00 00 80 3f 00 00 80 3f
       1.0 1.0 1.0 1.0
0002d0 00 00 80 3f 00 00 00 00 00 00 80 3f 00 00 80 3f
       1.0 0.0 1.0 1.0
0002e0 00 00 80 3f 00 00 80 3f 00 00 80 3f 00 00 80 3f
       1.0 1.0 1.0 1.0
0002f0 00 00 80 3f 00 00 80 3f 00 00 80 3f 00 00 80 3f
       1.0 1.0 1.0 1.0
000300 00 00 80 3f 00 00 80 3f 00 00 80 3f 00 00 80 3f
       1.0 1.0 1.0 1.0

weight f4 [16, 128]
000000 ef 26 5a 3d 88 da a5 bc f5 49 a8 3c 22 f8 05 3d
       0.053259786 -0.020245805 0.020543078 0.03270734
000010 6a f8 ab 3c 70 a9 6e bd c2 f0 57 bd ce d3 48 3c
       0.020992476 -0.058267057 -0.05271984 0.012257529
000020 e2 f2 b6 3c 86 86 04 bd 67 f2 09 3b e2 6d 2f bc
       0.022332612 -0.032354854 0.0021049024 -0.01070735
000030 3b c6 23 bd 78 a0 31 3d 0a 83 8c bc d8 d1 c9 bc
       -0.03998397 0.043365926 -0.017152328 -0.024636194
000040 bc db 43 3c 18 78 10 3d 8c c0 8c bc c6 2c 60 bc
       0.011954244 0.03527078 -0.017181657 -0.01368255
000050 fd 44 37 bd 1c c1 cd 3c a4 80 17 bd a1 76 05 3d
       -0.044743527 0.025116496 -0.036987916 0.032583836
000060 41 54 22 bc f2 60 ca bc 73 00 4d bd b3 3d 89 3c
       -0.009907783 -0.02470443 -0.050049257 0.016753053
000070 8a 27 83 3d 68 20 4d 3d ce 01 cf bc 1d 3f 42 3c
       0.06404026 0.050079733 -0.025269415 0.011855868
000080 b8 29 92 ba 8e f0 76 3c 33 c0 86 bd 7d 0d 46 bc
       -0.0011151349 0.015072001 -0.06579628 -0.012088177
000090 00 4e 10 bd be a6 90 bd 97 f3 2e 3d c4 49 56 3d
       -0.035230637 -0.070630535 0.042712774 0.052316442
0000a0 cb c8 5e 3c 1d 49 a7 ba 10 02 54 3c 47 18 73 bc
       0.013597677 -0.0012762878 0.012939945 -0.014837331
0000b0 bd 5a 4d 3c bd 75 93 bb 64 2c 89 bc d3 d4 74 3d
       0.012533841 -0.0045001195 -0.0167448 0.059773277
0000c0 c7 13 51 bd 18 21 bf bc 0e aa 73 3c ed 38 4f bd
       -0.05104425 -0.02333121 0.014872087 -0.050591398
0000d0 45 1b a2 3d d1 7f cb 3a f7 12 b1 bd df 09 4e bc
       0.079153575 0.0015525763 -0.086461954 -0.012575596
0000e0 81 08 05 3d 9c 6a 25 b8 cd 06 d1 3c f0 6e 97 3d
       0.032478813 -3.9438353e-05 0.025515938 0.073942065
0000f0 17 bb 0f 3d 5f 43 29 bc 33 e9 51 3d 51 73 65 bd
       0.035090532 -0.010331004 0.051247787 -0.056018177
000100 7b ae 86 bd af ab 51 3d 90 20 45 3d 92 b2 af 3c
       -0.06576248 0.05118912 0.048126757 0.021447454
000110 de 4c 26 3c f7 de 81 bd 96 32 9e bc 68 cb 19 3d
       0.0101501625 -0.06341355 -0.01931123 0.0375475
000120 e5 57 98 3d eb 1e 41 3d 73 ae 4d bc b9 50 da bc
       0.074386396 0.047148626 -0.012553799 -0.02664982
000130 a1 30 0d bc e5 7d 2e bd f8 e6 03 3d 11 09 52 3d
       -0.008617551 -0.04260053 0.03220269 0.051278178
000140 53 70 2e 3d 4d da ae 3c d5 a9 32 bb f7 b9 2f 3c
       0.04258759 0.021344328 -0.0027261872 0.01072549
000150 02 5a 8a bd 11 33 ba 3c 48 60 13 bd 69 37 a2 bc
       -0.06755449 0.022729428 -0.035980493 -0.019801812
000160 8e 8f 17 3d 5d a8 84 bd b3 c6 29 bc 3b aa 7b 3c
       0.03700214 -0.06477425 -0.010362315 0.01536041
000170 57 43 c0 3b 10 92 d6 bb 39 8a ed bb f8 a8 25 bc
       0.0058674025 -0.0065481737 -0.0072491434 -0.010111086
000180 d0 d1 3e b7 f8 ad 59 3b 89 71 ee 3b e5 5d 0f 3c
       -1.1373733e-05 0.0033215266 0.007276718 0.008750414
000190 f3 e0 cc bc b2 c4 96 3d b2 a0 7a bc fc 28 f5 3c
       -0.025009608 0.073617354 -0.015297102 0.02992677
0001a0 8f d9 e8 3b ee c8 93 3b 65 0d 94 3d 1e 18 a6 bd
       0.007106013 0.0045100367 0.07229117 -0.08110069
0001b0 32 49 1e bd ff ed 04 bd fb 91 9f bc a0 e1 ac 3c
       -0.038644023 -0.032453533 -0.019478789 0.02110368
0001c0 73 06 69 bd 6d c7 16 39 37 8a 74 3d 9a 58 a9 bb
       -0.056890916 0.00014379407 0.059702124 -0.005168033
0001d0 55 05 bb 39 2d 2a 9c 3c 9d 0d c7 bc 36 5c 6f bc
       0.00035671392 0.01906308 -0.024298484 -0.014609387
0001e0 ac 2d 21 3b 00 64 73 3a 62 46 b0 bc be 36 06 3d
       0.0024593873 0.00092846155 -0.021517936 0.03276705
0001f0 fc e6 8b bc a4 fd b1 bc e6 c0 4c bd ac ca aa bc
       -0.017077915 -0.02172739 -0.04998865 -0.020848595
000200 a6 38 e8 bd 88 6c 88 3c 16 0f 5b 3c 3c ad df 3d
       -0.1133893 0.016653314 0.013370296 0.10921714
000210 7a b9 48 3d 35 da 0a 3e 3e 5d d0 3d 46 bc 34 bc
       0.04900501 0.13559802 0.101740345 -0.011031216
000220 f2 78 13 be 35 77 35 bc 29 b0 13 bd 35 12 1f bd
       -0.14401606 -0.011075784 -0.03605667 -0.038835723
000230 13 f8 32 bd 13 bc 15 be c1 f7 04 3d 4a 73 00 3c
       -0.043693613 -0.14622526 0.03246284 0.007839987
000240 12 80 c8 bd ec f5 57 3d 06 50 d1 3c 4c bb 13 3d
       -0.097900525 0.052724764 0.025550853 0.036067292
000250 c7 87 af 3d e3 fa a8 3b 80 8d a1 bd 6f 63 63 bc
       0.08570819 0.005156861 -0.07888317 -0.013878687
000260 5c 53 81 3d 24 40 1d be 3d 34 8c 3d 2e 05 4b bd
       0.06314728 -0.15356499 0.06845901 -0.049565487
000270 0f 6e 01 be e4 f1 3f be d2 42 c6 3d 9b ba c9 bd
       -0.1263964 -0.18744618 0.09680714 -0.09850045
000280 5d 7f 24 3e ef 5e 4f 3d f6 b2 48 3d fa df a9 3d
       0.1606421 0.050627645 0.048998795 0.08294673
000290 21 75 dc 3c 55 71 ab 3d 18 9a 19 be ad 76 75 3c
       0.02691132 0.08371226 -0.15000188 0.014981908
0002a0 f6 ec 60 bd f7 22 82 3d 0b f5 6b 3d 21 11 98 3d
       -0.054913484 0.06354325 0.057606738 0.07425142
0002b0 a5 c0 12 bd ce 3a 47 3d 05 47 fa bc 9e 55 d8 bb
       -0.03582825 0.048640065 -0.030551443 -0.0066020032
0002c0 af 15 a1 3d 2d 21 7a 3d c0 fc 49 3b 04 ce 1e bd
       0.07865464 0.061066795 0.0030820817 -0.03877069
0002d0 b8 9a ba bd 31 5a 53 bd aa c6 d2 3d 18 f6 0e be
       -0.091115415 -0.051599685 0.102917984 -0.13961065
0002e0 71 83 10 be e9 b0 25 bd 67 44 b7 3c d3 92 7f bc
       -0.14112641 -0.040451918 0.022371484 -0.01559897
0002f0 68 44 01 3d 87 36 ef 3c ff 3e df bd 95 eb 81 3d
       0.031559378 0.029200805 -0.109006874 0.06343762
000300 23 00 17 3e 83 aa 91 3d d7 78 51 bd d6 3e 1c bd
       0.14746146 0.07112601 -0.051140632 -0.038145863
000310 96 8d f1 3c 2a ce 0e 3e 6d e3 b5 3b 38 59 c9 3d
       0.029486459 0.13945833 0.005550793 0.0983147
000320 a9 37 71 3c 38 c2 74 3d fe c8 21 3d c5 7f 68 3d
       0.014722743 0.059755534 0.03949832 0.056762476
000330 7b 65 39 be 1f 8f 3d bd e9 0b 90 bd d1 30 80 bd
       -0.18105118 -0.04627907 -0.07033522 -0.06259311
000340 71 97 f6 3c eb 41 e7 bc a2 39 cb 3d 6e 4d 79 bd
       0.03010151 -0.028229674 0.09923102 -0.06086486
000350 69 5e 47 3d 60 45 a3 3c f1 d5 36 3d de 81 74 3d
       0.04867402 0.019930542 0.044637624 0.059694164
000360 d8 dd 9a 3c 09 bf b8 3d c1 f8 de 3d 08 82 ce bd
       0.018904611 0.09020812 0.1088729 -0.10083395
000370 6a 7c 0c 3d 6f b2 ba bc d5 64 f6 3b 06 ca 1d 3c
       0.034298338 -0.022790162 0.0075193443 0.009630686
000380 81 95 c8 bd df 9d 82 3d 46 32 b4 bc 81 de 37 3d
       -0.097941406 0.06377768 -0.021996628 0.04488993
000390 06 b3 37 3b 1d 08 5d 3e 70 8b 76 3c 29 c8 ee 3d
       0.002803029 0.21585126 0.015047893 0.11659271
0003a0 f9 d6 04 3d ee 91 08 bd e9 61 4e 3c 84 dd 3f 3c
       0.032431576 -0.033342294 0.012596586 0.011710528
0003b0 e6 1c 18 bc 77 00 dc bc 77 14 b7 3d 99 50 78 bc
       -0.009284234 -0.02685569 0.0893945 -0.015155935
0003c0 c8 55 fb bd 46 92 16 3d 94 1c ac 3d bb 94 cc bd
       -0.12272221 0.03676059 0.08403888 -0.099893056
0003d0 c4 c1 1c 3e 57 9e 2d bc cd 90 08 3d 1c e7 10 be
       0.1530829 -0.010596833 0.033341218 -0.14150661
0003e0 bb da 99 3d 2f cd 82 bd 5c bc bd bd 18 3b 9d bd
       0.07512423 -0.06386792 -0.09264442 -0.07677287
0003f0 c1 2b c3 3c 28 2b bb 3c 6f 11 f1 bd 5f 03 65 bd
       0.023824574 0.022847727 -0.11770903 -0.055911418

weight f4 [16, 128]
000000 13 c1 da bb 49 ec 01 bb d7 8f 75 bb 14 e3 98 bc
       -0.0066758483 -0.0019824675 -0.0037469768 -0.018662967
000010 a1 d0 b9 bd d4 16 6f 3d 5b ca 55 bd 20 24 2e bb
       -0.09072996 0.05837138 -0.052194934 -0.0026571825
000020 b1 33 17 bd 3b 02 4c bd 27 cf 96 3c f4 13 21 3d
       -0.03691453 -0.049806815 0.018409325 0.03932567
000030 e6 a3 2a 3c 0c 75 59 3c e2 78 93 3d 83 d9 84 3b
       0.010415053 0.013272535 0.07200791 0.0040542497
000040 c1 b6 c7 3b 7a d5 17 bd db c4 3e bc 39 33 90 3d
       0.006094784 -0.03706882 -0.011643614 0.0704102
000050 dc a6 51 3d 7d 79 58 3c 5d 08 b9 3b fb 39 bb bc
       0.05118452 0.013212559 0.005646749 -0.022854796
000060 3d 31 a9 3b 14 c1 d6 3c 11 45 5a 3d 3c 9d ad bc
       0.0051633404 0.026215114 0.053288523 -0.02119314
000070 c7 1a 7c bc d3 db 58 3b 06 c8 2c bd 57 af f3 ba
       -0.015387244 0.003309001 -0.042182945 -0.0018591684
000080 62 ea 9b 3d 26 b4 ac bd d3 80 36 bd 46 11 79 3c
       0.07613064 -0.08432798 -0.04455645 0.015201872
000090 95 1c d6 bc 7f c1 6e 3d d8 ee 83 bb 53 ca 67 bc
       -0.026136676 0.05829 -0.004026275 -0.014147359
0000a0 6a 9e f0 bc 37 b5 45 3d 8c 3b e4 3b 32 af 8e bd
       -0.029372413 0.048268523 0.0069651064 -0.069670096
0000b0 8b a9 f5 3c 32 23 cc bb d6 a2 5a 3c 78 cb 47 b9
       0.029988071 -0.0062297815 0.013344487 -0.00019053917
0000c0 ae db 34 bd 4e 77 01 3d a3 91 66 3c da 1e 98 bc
       -0.044154815 0.03160792 0.014072808 -0.018569399
0000d0 fd b1 c7 3c 05 6e 84 3b 4e 11 4a 3d 13 2d 8b bd
       0.024376864 0.0040414357 0.04933291 -0.067957066
0000e0 f4 9c a3 3d e6 0a 49 3d 22 28 4f bd 2b 16 52 bd
       0.07988921 0.04908266 -0.050575383 -0.051290672
0000f0 6e 2e fa 3c 28 f8 24 bd 54 6f 14 bd d1 92 61 3d
       0.030539718 -0.040275723 -0.036238983 0.055071656
000100 aa fd 20 3d 6b 28 cd 3c 09 de f6 bc 2a cd 3a bc
       0.039304413 0.025043687 -0.030135171 -0.011401454
000110 5f e4 f0 3c da df 0d 3c a6 58 44 3d 6f af 81 bc
       0.02940577 0.008659327 0.047936104 -0.015830724
000120 1f 66 05 bd 88 58 34 3c 8a f4 3c bd 1d 87 f9 bc
       -0.032568093 0.011007436 -0.046131648 -0.030459935
000130 e5 52 98 3a 2d a4 ec 3c 11 f7 e8 bc 1d 22 80 3d
       0.0011621384 0.028886879 -0.028438123 0.062565066
000140 c7 0a b7 ba 12 74 6d bd 4e 87 ae bc a8 5c 65 bc
       -0.0013965004 -0.05797202 -0.021304753 -0.013999142
000150 2f a3 75 bb 09 8e 97 bd a4 ec 8d 3a ff 08 bc 3c
       -0.0037481298 -0.07400138 0.0010827971 0.022953508
000160 d0 7a 00 3d 0e 13 df bb 5d 3a 18 bc ad a4 84 3a
       0.031367123 -0.0068076914 -0.009291259 0.0010119878
000170 de 3f ed 3c 3c f4 4c bd 0f dd 94 bd ed 1c fa bb
       0.028961118 -0.050037608 -0.07268726 -0.0076328428
000180 1e 78 9d bd 8e 84 47 3c f5 24 6c bc 43 63 fd bc
       -0.07688926 0.0121776 -0.014413108 -0.03093112
000190 62 9a 68 bc 23 0b 69 3c b7 06 30 3d c3 05 30 bd
       -0.014196964 0.014223847 0.042975154 -0.042974245
0001a0 44 76 3d bd 4e dd 9b bd 6c 95 7c 3d 68 7a 28 3c
       -0.046255365 -0.0761057 0.061665937 0.01028309
0001b0 c7 64 8a 3c c5 0b 84 3b 49 ef 5d 3c 2e 02 29 3d
       0.016893758 0.0040297233 0.01354582 0.041261844
0001c0 35 a5 37 bd e8 38 d6 3b 6b 37 3a 3d e3 a6 26 bd
       -0.044835288 0.0065375455 0.045463007 -0.0406865
0001d0 d0 4b 41 bd aa cb 4e bd bd 69 4a bd 9a c7 a3 3d
       -0.04719144 -0.050487198 -0.049417246 0.07997055
0001e0 0d 7f 39 3d 50 55 fd bc 85 fc 36 3d 3a a6 8e bc
       0.04528718 -0.03092447 0.044674415 -0.017413247
0001f0 4e c3 1a bd 5d a9 11 bb 26 67 83 3d d3 a0 74 3d
       -0.037783913 -0.0022226193 0.064161584 0.059723686
000200 fd 47 a6 bd ee 4c fb 3c 4a b6 99 bd 6b bc 84 bc
       -0.081191994 0.030676331 -0.07505472 -0.016203126
000210 df 2e fc 3d 72 8c 1a bd ab d0 c7 3d 3a 29 b3 bd
       0.123136275 -0.037731595 0.09756597 -0.08748098
000220 63 d2 a3 3d 3e d8 39 3e 05 52 a5 3d ee d4 a3 bb
       0.079991125 0.18148896 0.080722846 -0.0049997484
000230 da 8e f6 bd 5e c5 06 3e 71 d4 00 be 75 3e a7 3d
       -0.120389655 0.13161227 -0.1258104 0.081662096
000240 a7 8f d8 3a 4a 7f b6 3d b6 3c 15 bd 54 4e 32 bd
       0.0016522304 0.08910997 -0.03643485 -0.04353173
000250 ee 0a 79 bd 8b b5 39 bd 92 37 95 3c fd 90 db bb
       -0.06080144 -0.04533915 0.018214975 -0.0067006336
000260 ad 90 1e bd aa c8 82 3d ec 5d 4d bd e8 65 d1 bc
       -0.038712192 0.0638593 -0.0501384 -0.025561288
000270 71 a4 ae bd 07 46 ed 3d 0f 04 07 bd ba 51 1a 3e
       -0.085274585 0.11585622 -0.032962855 0.15070239
000280 20 95 d0 bd 1c 2e c7 3d bb 4f bb 3d 09 cb a4 bd
       -0.10184693 0.097255915 0.09146067 -0.080465384
000290 bb 2e f8 bd 5b 56 da bd 66 64 ef 3d 68 97 29 3e
       -0.12118288 -0.10661002 0.11689071 0.16561663
0002a0 24 86 a0 3d e0 22 f3 bc 48 8a f4 bd be a9 43 3e
       0.07838085 -0.029679716 -0.119404376 0.1910772
0002b0 ce 16 3c bd cb 5e cd bd 53 e5 b9 bc ce d3 d0 3c
       -0.045920186 -0.10027846 -0.022692358 0.025491621
0002c0 cf f5 60 3e f7 02 2f bc de ba 2b be 0e 77 1e bd
       0.21968769 -0.010681859 -0.16770503 -0.03868776
0002d0 62 18 3d 3e b9 6f ca 3c 1d 20 23 bc 0d 5f 21 3e
       0.18466333 0.024711477 -0.009956387 0.15758915
0002e0 52 6b 14 bd 6b 79 aa bd d5 3f bc 3c db d3 b3 3d
       -0.03623516 -0.0832394 0.022979656 0.087806426
0002f0 ac f2 75 b9 2a e0 85 bd a1 e6 5b 3e 5b 93 1c be
       -0.00023455423 -0.065368965 0.21474697 -0.15290587
000300 08 71 b2 bc 91 1e ba bd e0 ed 41 bd 44 df f2 bd
       -0.021782413 -0.09087861 -0.047345996 -0.11858991
000310 0f e9 14 be 0d db c3 bd cb a4 26 bd be 98 69 bd
       -0.1454203 -0.09563265 -0.040684503 -0.057030432
000320 9e bf 76 3c 56 06 6b bd 7b 94 a3 3d 0b 38 4e 3d
       0.015060334 -0.05737909 0.07987305 0.050346415
000330 62 7b df 3d d6 24 11 3d e1 3e 76 3c 50 5c bb bd
       0.10912205 0.03543552 0.01502964 -0.091484666
000340 fe 40 7c 3d ab a7 d2 3c 7c a4 9c bd c9 6e 2e 3e
       0.06158542 0.025714716 -0.076485604 0.17034449
000350 cb 31 03 be 91 07 80 bd 0a f6 48 3c c1 76 ab bd
       -0.12811963 -0.06251443 0.0122656915 -0.0837226
000360 c4 cd 7e bd 8d 38 9d bb d1 6e 26 3d 67 4c e5 bd
       -0.062207952 -0.004798001 0.040633027 -0.11196213
000370 35 c3 8e 3c f8 86 88 bd d2 da ce 3d c7 3b 6a bd
       0.017427066 -0.06666368 0.101003304 -0.057185914
000380 fb 63 5c 3e 1c e2 05 3e 76 97 24 3d 03 01 3e bd
       0.21522515 0.13074535 0.040183507 -0.046387684
000390 be a3 c7 3d 2f 0a 5a bc 18 6a 11 3e b4 6c 81 3c
       0.09748028 -0.013308092 0.14200628 0.015798904
0003a0 0a 93 57 bd b5 bc 3d 3e 52 d4 43 3a 96 fb 66 3c
       -0.05263046 0.18529017 0.0007470298 0.014098069
0003b0 0e e0 30 be e2 8c 8c 3d 59 6b 32 bd 77 d2 01 bd
       -0.1727297 0.06862809 -0.043559406 -0.031694856
0003c0 dd 87 7e bd 32 8c 92 3c 63 41 f7 bd f5 80 2b 3e
       -0.062141288 0.017889116 -0.120730184 0.16748412
0003d0 10 7c 6e 3c 2a 8c 50 3b 54 d1 1d bc b6 8d a9 3b
       0.014555946 0.0031821826 -0.009632427 0.005174364
0003e0 31 ac c0 ba 1c ae 82 bd a8 ca 04 bb 00 f6 6c bd
       -0.0014699755 -0.06380865 -0.0020262394 -0.05785179
0003f0 5c 6f 65 bd 24 7b 9e bd d3 21 f6 bc 8d ff 56 3d
       -0.056014404 -0.07738331 -0.030045426 0.052489806

weight f4 [16, 128]
000000 63 81 61 3c 4c e5 92 bb 2f 10 83 bc cf 82 39 3c
       0.013763758 -0.0044829007 -0.015998928 0.011322691
000010 7e a5 22 3c 25 fb 96 3c e5 03 97 bc 2b d1 9c 3b
       0.009927152 0.018430302 -0.018434474 0.004785677
000020 bb 1b 8b bc 84 8d ab 3b 32 6d e6 3a 94 e2 ee ba
       -0.016980996 0.005235376 0.001758015 -0.0018225485
000030 d3 81 2e 3c 2a 1a 20 3b 90 0d 27 bd d0 c8 6d 3d
       0.01065107 0.0024429657 -0.04078442 0.058052838
000040 70 53 f7 3c 02 4c d5 3b c4 17 38 bd 71 d7 ca 3b
       0.030191153 0.006509305 -0.04494454 0.0061902334
000050 1a 63 e4 bc 48 9a 0a 39 2e a1 53 3c 6b 74 0d bd
       -0.027879287 0.0001321818 0.012916846 -0.034534853
000060 0c 47 01 3d 07 d3 e8 bb f2 e2 06 bd e9 e6 e5 3c
       0.031561896 -0.0071052345 -0.032931276 0.028064208
000070 76 00 82 bc 7b 07 c5 3b 58 b4 9a 3c 74 8b 06 ba
       -0.01586936 0.0060128546 0.018884823 -0.00051324745
000080 d6 0e 0c bb 6d fa 6c bb 40 bf e9 3c 54 20 54 bc
       -0.0021371148 -0.0036160008 0.028533578 -0.012947161
000090 58 de 86 bc 38 66 7c bd fc fc 82 bc 92 e6 94 3c
       -0.016463444 -0.06162092 -0.015989773 0.01817635
0000a0 c1 ab bd b9 bd 39 1a bd 0e fb 09 bc 68 1f 16 3c
       -0.00036176856 -0.03765272 -0.0084216725 0.009162761
0000b0 92 e9 36 bc 4f 73 35 b9 d3 f4 9b bc 60 cd c1 bb
       -0.011164086 -0.00017304461 -0.01903764 -0.005914375
0000c0 46 9a 08 bd 7e db 62 bb 89 ac e1 bc a7 c4 b9 bb
       -0.03335025 -0.003461569 -0.027548091 -0.0056691947
0000d0 a3 08 39 bc df bf 83 bc ac 0c e0 3c 37 05 c9 bb
       -0.011293563 -0.016082702 0.027349792 -0.006134655
0000e0 33 25 f8 39 80 1d d8 3b 33 f6 ef 3b fe 36 43 bc
       0.00047329962 0.0065953135 0.0073230504 -0.011914967
0000f0 bc b7 71 bc f1 f3 9a bc 02 af 9a ba 92 46 34 bd
       -0.014753278 -0.018915148 -0.0011801424 -0.044012614
000100 be c6 73 3d da f6 91 3b 1c 38 c2 bc 2b d4 f1 3c
       0.059515707 0.004454476 -0.023708396 0.029520115
000110 3e 2a 87 bc dd 4b 9b bc c7 4c 4d 3c 1f 2d 93 3c
       -0.016499635 -0.018957073 0.012530512 0.017965851
000120 34 23 6c 3c cd f7 3e bc c0 ba 76 bc 30 13 82 bc
       0.01441269 -0.01165576 -0.015059173 -0.01587829
000130 a2 8c e4 bc 97 8e 81 3b 73 f1 a7 3c 99 b6 5c 3c
       -0.02789909 0.0039537656 0.020500874 0.013471269
000140 fd 50 0a 3c 5e c8 5a bc da 60 3d 3c 92 0e e1 bc
       0.008442161 -0.013353435 0.011558736 -0.027472768
000150 da 58 76 bb c0 66 8a bc 24 c7 75 bb 83 a4 d7 bc
       -0.003758958 -0.016894698 -0.003750273 -0.026323562
000160 87 76 8b 3c f3 83 cc bb 8f 35 17 3c 0b f7 d1 3b
       0.017024292 -0.0062413155 0.009229078 0.0064076236
000170 9c 08 45 ba b9 cd 0a 3d 15 7a 9a bb 01 ee b0 bc
       -0.00075162365 0.0338876 -0.0047142603 -0.021597864
000180 89 e8 a7 ba c0 22 b7 3c a6 b4 f0 bc 21 5f 6f 3c
       -0.001281039 0.022355437 -0.029383015 0.014610083
000190 f2 57 af 3b 1e 35 ad bc f8 be 85 3c 84 2d 13 3d
       0.00535106 -0.021143492 0.016326413 0.03593208
0001a0 f3 33 87 b8 d1 ca a5 b9 5e ff a5 bc bc 7b 3c bd
       -6.446978e-05 -0.00031622362 -0.02026337 -0.04601644
0001b0 68 c6 af bb ed 47 54 bb 71 b8 af 3c 81 ea 1e bd
       -0.005364228 -0.0032391504 0.021450253 -0.03879786
0001c0 a1 db fe 3c fd 67 2d bc 24 cd 64 3c 27 41 55 3c
       0.031110587 -0.010583875 0.013964925 0.013016022
0001d0 83 36 2e bc 49 51 db 3c b9 42 a9 bc 0f 12 ea bb
       -0.010633114 0.026772158 -0.020661699 -0.007143266
0001e0 e6 c2 2f bc eb ca 63 3c 0c 0f 8b bc a6 c3 3e 3c
       -0.01072762 0.01390336 -0.016974948 0.011643326
0001f0 0a 74 4f bc 53 ce 46 3c 6b 54 e4 bc d4 de b1 3c
       -0.012661943 0.012134152 -0.027872285 0.021712698
000200 bf 03 f0 bc d7 55 1b bd 18 80 eb 3a 1b e0 ed 3b
       -0.029298661 -0.03792366 0.0017967252 0.0072593815
000210 53 7d a2 bc 09 e8 24 39 ed 92 30 3c 4e ec e8 3c
       -0.01983515 0.00015726699 0.010777217 0.028432991
000220 13 11 a6 3c 7b eb 61 bc 12 35 85 3b 3d 15 b4 bc
       0.020271813 -0.013789053 0.0040651644 -0.021982783
000230 14 c4 a9 3c 4a 54 82 bc fd e9 e4 3c 01 d9 e9 3c
       0.02072338 -0.015909333 0.027943606 0.028545858
000240 4d ac 7c bc 54 6f 6b bc 12 d1 f8 3b f5 43 58 3c
       -0.015421939 -0.014369804 0.0075932825 0.013199796
000250 b0 5a 1f 3c be 02 ad 3b 92 ef 90 3c c2 85 6a bc
       0.009726211 0.005279868 0.017692361 -0.014314117
000260 08 df 02 3c c5 43 c6 bc 58 5d 91 3c a3 14 b1 bc
       0.007987745 -0.024202237 0.017744705 -0.021616286
000270 ed d2 aa bc 35 7e 67 bd 3a 7f ef 3b ef b2 07 3c
       -0.02085253 -0.056516845 0.0073088678 0.008282407
000280 ef 07 4f bb f1 19 a4 3c bd dd 61 39 91 eb 60 bc
       -0.0031590422 0.020031901 0.00021540276 -0.013728038
000290 40 d8 0a 3c 90 f6 37 bc d8 43 e5 3b e1 4d 37 3d
       0.00847441 -0.011228219 0.006996613 0.044752005
0002a0 2f 7d 28 3d db 95 86 bc e8 19 12 3d 4a 02 07 3c
       0.04113501 -0.016428879 0.035669237 0.008240292
0002b0 a5 38 ab b9 62 6f 08 bb bf d5 23 bc 7f 9f 2c 3c
       -0.00032657865 -0.0020818342 -0.0099996915 0.010536074
0002c0 6f c3 57 3c 92 55 0f 3d 57 54 c5 3c 3a 00 f0 bc
       0.013169154 0.034993716 0.024088068 -0.029296983
0002d0 e0 20 8d ba cd 59 61 bb cb 22 7a bc 3c 00 81 3c
       -0.0010767244 -0.00343858 -0.015267084 0.015747182
0002e0 69 fa f0 bb f1 d9 4d bd 18 c3 6d 3c 12 33 7d 3c
       -0.00735407 -0.050256673 0.014511846 0.015454071
0002f0 ef e7 72 3c 6d 9e 6e bc 3c 68 db 3c ff 22 db 3c
       0.014825805 -0.014564139 0.026783101 0.026750086
000300 97 42 e0 bc 0e b5 33 bc ce 99 55 3c e7 c1 00 bd
       -0.027375503 -0.01096846 0.013037158 -0.03143492
000310 69 e1 97 bc 8f 32 45 bd 29 dd 84 bc af b7 84 bc
       -0.018540101 -0.04814392 -0.016218739 -0.016200868
000320 71 85 8c 3c 54 15 0e 3c a0 ad 1d bd 21 52 29 3c
       0.017153474 0.008672077 -0.03849566 0.010334522
000330 a0 4d af bb f6 df a6 bb b1 32 24 bb 30 ba 05 bd
       -0.00534983 -0.005092616 -0.0025054628 -0.032648265
000340 9d 94 89 bc bc 6c db 3c b2 32 3e 3c 6b 8f 40 bc
       -0.016794497 0.026785247 0.011608766 -0.0117529435
000350 29 51 9b bc 98 b5 d5 3c 83 7e 1d bc 2b b4 00 3b
       -0.018959599 0.026087567 -0.009612682 0.0019638638
000360 01 08 b6 3b 4a b8 85 bc 4e b1 b7 3c e5 05 16 bd
       0.0055551534 -0.016323227 0.022423413 -0.036626715
000370 7d de 23 bd 13 84 a0 bc 61 b2 93 3c bd 0e 9a 3c
       -0.040007103 -0.019594228 0.018029394 0.018805856
000380 f6 9b 41 bb dd 16 26 bd 9f 4d 6d bc a8 61 a5 3b
       -0.0029542423 -0.040549148 -0.014483838 0.005047042
000390 49 b7 dc bc 62 7b 37 3c fe 75 c8 3c 5e f7 c7 3c
       -0.026942866 0.01119885 0.024470326 0.024409946
0003a0 43 a9 5e bc 3f aa 17 bc 63 0f cc bc 1e 42 d0 3b
       -0.01359016 -0.009256898 -0.02490968 0.006355538
0003b0 42 19 90 3c 65 07 1a bb 3f 06 ae 3c c0 68 0b 3c
       0.017590169 -0.0023502943 0.021243213 0.008508861
0003c0 54 56 02 3d 50 73 c8 3c 85 1a 17 3d 55 eb ef bc
       0.03182061 0.024469048 0.036890525 -0.02928702
0003d0 99 fc 00 bb df 7a 1e bc 5d b0 55 bb 3c 20 6e bc
       -0.001968181 -0.009672849 -0.0032606341 -0.014534052
0003e0 ec b8 ce bb 9a 25 45 bb 40 42 2c bc 02 9b 04 3d
       -0.0063086655 -0.0030082227 -0.010513842 0.03237439
0003f0 4e ed ad 3b 4e 54 ca bc 15 d6 be ba 8c dd 86 3c
       0.00530783 -0.024698403 -0.0014559651 0.016463064

tril f4 [14, 14]
000000 00 00 80 3f 00 00 00 00 00 00 00 00 00 00 00 00
       1.0 0.0 0.0 0.0
000010 00 00 00 00 00 00 00 00 00 00 00 00 00 00 00 00
       0.0 0.0 0.0 0.0
000020 00 00 00 00 00 00 00 00 00 00 00 00 00 00 00 00
       0.0 0.0 0.0 0.0
000030 00 00 00 00 00 00 00 00 00 00 80 3f 00 00 80 3f
       0.0 0.0 1.0 1.0
000040 00 00 00 00 00 00 00 00 00 00 00 00 00 00 00 00
       0.0 0.0 0.0 0.0
000050 00 00 00 00 00 00 00 00 00 00 00 00 00 00 00 00
       0.0 0.0 0.0 0.0
000060 00 00 00 00 00 00 00 00 00 00 00 00 00 00 00 00
       0.0 0.0 0.0 0.0
000070 00 00 80 3f 00 00 80 3f 00 00 80 3f 00 00 00 00
       1.0 1.0 1.0 0.0
000080 00 00 00 00 00 00 00 00 00 00 00 00 00 00 00 00
       0.0 0.0 0.0 0.0
000090 00 00 00 00 00 00 00 00 00 00 00 00 00 00 00 00
       0.0 0.0 0.0 0.0
0000a0 00 00 00 00 00 00 00 00 00 00 80 3f 00 00 80 3f
       0.0 0.0 1.0 1.0
0000b0 00 00 80 3f 00 00 80 3f 00 00 00 00 00 00 00 00
       1.0 1.0 0.0 0.0
0000c0 00 00 00 00 00 00 00 00 00 00 00 00 00 00 00 00
       0.0 0.0 0.0 0.0
0000d0 00 00 00 00 00 00 00 00 00 00 00 00 00 00 00 00
       0.0 0.0 0.0 0.0
0000e0 00 00 80 3f 00 00 80 3f 00 00 80 3f 00 00 80 3f
       1.0 1.0 1.0 1.0
0000f0 00 00 80 3f 00 00 00 00 00 00 00 00 00 00 00 00
       1.0 0.0 0.0 0.0
000100 00 00 00 00 00 00 00 00 00 00 00 00 00 00 00 00
       0.0 0.0 0.0 0.0
000110 00 00 00 00 00 00 00 00 00 00 80 3f 00 00 80 3f
       0.0 0.0 1.0 1.0
000120 00 00 80 3f 00 00 80 3f 00 00 80 3f 00 00 80 3f
       1.0 1.0 1.0 1.0
000130 00 00 00 00 00 00 00 00 00 00 00 00 00 00 00 00
       0.0 0.0 0.0 0.0
000140 00 00 00 00 00 00 00 00 00 00 00 00 00 00 00 00
       0.0 0.0 0.0 0.0
000150 00 00 80 3f 00 00 80 3f 00 00 80 3f 00 00 80 3f
       1.0 1.0 1.0 1.0
000160 00 00 80 3f 00 00 80 3f 00 00 80 3f 00 00 00 00
       1.0 1.0 1.0 0.0
000170 00 00 00 00 00 00 00 00 00 00 00 00 00 00 00 00
       0.0 0.0 0.0 0.0
000180 00 00 00 00 00 00 00 00 00 00 80 3f 00 00 80 3f
       0.0 0.0 1.0 1.0
000190 00 00 80 3f 00 00 80 3f 00 00 80 3f 00 00 80 3f
       1.0 1.0 1.0 1.0
0001a0 00 00 80 3f 00 00 80 3f 00 00 00 00 00 00 00 00
       1.0 1.0 0.0 0.0
0001b0 00 00 00 00 00 00 00 00 00 00 00 00 00 00 00 00
       0.0 0.0 0.0 0.0
0001c0 00 00 80 3f 00 00 80 3f 00 00 80 3f 00 00 80 3f
       1.0 1.0 1.0 1.0
0001d0 00 00 80 3f 00 00 80 3f 00 00 80 3f 00 00 80 3f
       1.0 1.0 1.0 1.0
0001e0 00 00 80 3f 00 00 00 00 00 00 00 00 00 00 00 00
       1.0 0.0 0.0 0.0
0001f0 00 00 00 00 00 00 00 00 00 00 80 3f 00 00 80 3f
       0.0 0.0 1.0 1.0
000200 00 00 80 3f 00 00 80 3f 00 00 80 3f 00 00 80 3f
       1.0 1.0 1.0 1.0
000210 00 00 80 3f 00 00 80 3f 00 00 80 3f 00 00 80 3f
       1.0 1.0 1.0 1.0
000220 00 00 00 00 00 00 00 00 00 00 00 00 00 00 00 00
       0.0 0.0 0.0 0.0
000230 00 00 80 3f 00 00 80 3f 00 00 80 3f 00 00 80 3f
       1.0 1.0 1.0 1.0
000240 00 00 80 3f 00 00 80 3f 00 00 80 3f 00 00 80 3f
       1.0 1.0 1.0 1.0
000250 00 00 80 3f 00 00 80 3f 00 00 80 3f 00 00 00 00
       1.0 1.0 1.0 0.0
000260 00 00 00 00 00 00 00 00 00 00 80 3f 00 00 80 3f
       0.0 0.0 1.0 1.0
000270 00 00 80 3f 00 00 80 3f 00 00 80 3f 00 00 80 3f
       1.0 1.0 1.0 1.0
000280 00 00 80 3f 00 00 80 3f 00 00 80 3f 00 00 80 3f
       1.0 1.0 1.0 1.0
000290 00 00 80 3f 00 00 80 3f 00 00 00 00 00 00 00 00
       1.0 1.0 0.0 0.0
0002a0 00 00 80 3f 00 00 80 3f 00 00 80 3f 00 00 80 3f
       1.0 1.0 1.0 1.0
0002b0 00 00 80 3f 00 00 80 3f 00 00 80 3f 00 00 80 3f
       1.0 1.0 1.0 1.0
0002c0 00 00 80 3f 00 00 80 3f 00 00 80 3f 00 00 80 3f
       1.0 1.0 1.0 1.0
0002d0 00 00 80 3f 00 00 00 00 00 00 80 3f 00 00 80 3f
       1.0 0.0 1.0 1.0
0002e0 00 00 80 3f 00 00 80 3f 00 00 80 3f 00 00 80 3f
       1.0 1.0 1.0 1.0
0002f0 00 00 80 3f 00 00 80 3f 00 00 80 3f 00 00 80 3f
       1.0 1.0 1.0 1.0
000300 00 00 80 3f 00 00 80 3f 00 00 80 3f 00 00 80 3f
       1.0 1.0 1.0 1.0
