model/AT_220K.pth (torch, 972119 bytes, 90 tensors)

weight f4 [14, 96]
0	0xbca0c044	-0.01962293
1	0xbc532db3	-0.0128893135
2	0x3b998a75	0.004685695
3	0x3d18f9c7	0.03734758
4	0x3c46b59e	0.012128262
5	0xbb1743b6	-0.002308113
6	0x3c933478	0.017969355
7	0xbc9dfdc5	-0.019286046
8	0xbce723f4	-0.028215386
9	0x3a74e67f	0.0009342208
10	0xbcbdb969	-0.0231597
11	0xbc94f935	-0.018185237
12	0x3c8ae94b	0.016956946
13	0xbbd292a4	-0.0064261723
14	0xbc1d15b8	-0.009587698
15	0xbc1a25c4	-0.009408418
16	0xb99e1d65	-0.0003015801
17	0x3bd7d788	0.0065869726
18	0xbc3829fc	-0.011240479
19	0x39af4454	0.0003342951
20	0x3d3c5f73	0.045989465
21	0xbc4efd85	-0.012633686
22	0x3bb95799	0.0056561944
23	0x3c30eebb	0.010799105
24	0x3ba38de2	0.004991279
25	0xbcf8db3c	-0.030377977
26	0xbc34792c	-0.011015218
27	0xbd32a47d	-0.0436139
28	0x3add8287	0.0016899862
29	0xbcd949cd	-0.026524449
30	0x3c2e364e	0.010633064
31	0xbc3162f4	-0.010826815
32	0x3d13f02f	0.03611773
33	0xbccaf4a1	-0.024774851
34	0x3c531ef3	0.012885797
35	0x3cc012f2	0.023446534
36	0x3d42f40c	0.047596022
37	0x3b8cc69c	0.004296137
38	0xbd18a4c1	-0.037266497
39	0xbaf693ed	-0.0018812396
40	0xbc6bad27	-0.014384544
41	0x3b2fd415	0.0026829292
42	0x3d20f28b	0.039293807
43	0x3d31c7a5	0.043403286
44	0x3d1e41b2	0.03863687
45	0x3c15c564	0.0091413
46	0x3c8a1499	0.016855525
47	0xbba8562b	-0.005137225
48	0x3d15482b	0.036445778
49	0x3c6ce481	0.014458776
50	0x3c86c832	0.016452882
51	0x3bea6b8b	0.0071539334
52	0x3b90336b	0.0044006607
53	0xbd0dd6cb	-0.03462867
54	0x3bcca9dc	0.0062458348
55	0x3bbd6eb4	0.005781019
56	0x3cc64137	0.024201019
57	0x3cd71475	0.026254872
58	0x3c5a991a	0.013342166
59	0xbc35476e	-0.011064393
60	0xbd0b4070	-0.033997
61	0xbcd3e7cc	-0.025867365
62	0x3b8a4b07	0.0042203697
63	0x3ccbb65f	0.024867235
64	0x3c883430	0.016626447
65	0xbc4b42cc	-0.012406062
66	0xbd043296	-0.032274805
67	0x3d773def	0.0603618
68	0xbce0a221	-0.02742106
69	0xbce04c20	-0.02738005
70	0xbb75c688	-0.0037502367
71	0x3ccda702	0.02510405
72	0x3b150a36	0.0022741682
73	0xba9743de	-0.0011540612
74	0x3a35e4b2	0.00069386803
75	0xbc1afea1	-0.009460122
76	0xbc7e9425	-0.01553825
77	0x3bc4374a	0.0059880363
78	0xbb2554ee	-0.0025227624
79	0x3afd6d9f	0.0019335038
80	0xbbf2de3f	-0.0074117477
81	0xbc510e96	-0.012759825
82	0x3c1ee7c6	0.009698814
83	0xbc8e6ceb	-0.01738592
84	0x3d262380	0.0405612
85	0x3ca6a862	0.020343963
86	0xbbe6413c	-0.0070268195
87	0x3d09fda6	0.033689164
88	0xbcb7520d	-0.022377992
89	0xbbfcb1df	-0.0077116336
90	0x3d43158f	0.04762798
91	0x3c8685aa	0.016421158
92	0x3c82e0f4	0.015976407
93	0x3cf19c14	0.02949337
94	0x3d0b5bb0	0.034022987
95	0x3c947167	0.01812048
96	0x3bedf419	0.0072617647
97	0x3c3636f2	0.011121498
98	0x3d353400	0.044239044
99	0x3cb1dc69	0.021711545
100	0x3cd240d8	0.025665686
101	0x3bad3433	0.0052857636
102	0xbac648c4	-0.0015127887
103	0x3bf7cc82	0.007562221
104	0xba71a1c8	-0.00092175277
105	0xbc451439	-0.012028747
106	0xbc751bb0	-0.0149602145
107	0x3c362b98	0.011118792
108	0x3c3d6b4f	0.011561229
109	0xbcceacd5	-0.025228897
110	0x3c9123e0	0.017717302
111	0xbd1e629b	-0.038668256
112	0xbd188155	-0.037232716
113	0xbc3e0e43	-0.01160008
114	0x3cc6efd5	0.024284283
115	0x3c96db95	0.018415252
116	0x3c78e4ae	0.01519124
117	0xbc7da649	-0.01548154
118	0xbc8c92f8	-0.017159924
119	0x3c77826f	0.015106781
120	0xbd11780a	-0.03551487
121	0x3ba05331	0.0048927297
122	0xbcb6a3c6	-0.02229489
123	0xbd485653	-0.04891045
124	0x3c0b79b1	0.0085129
125	0x3c071249	0.008244106
126	0xbd038ca1	-0.032116536
127	0x3cb9ac98	0.022665307
128	0x3b63b304	0.0034744153
129	0xb9d4bf1f	-0.00040578187
130	0x3c472c1f	0.012156515
131	0x3cffa5a9	0.031206923
132	0x3cb03fe6	0.021514844
133	0x3cc389a6	0.023869347
134	0xbca67508	-0.020319477
135	0xbd3b413e	-0.045716517
136	0x3d03413e	0.03204464
137	0xbc8e390e	-0.01736119
138	0x3a59845a	0.0008297615
139	0xbd152b29	-0.036418114
140	0x3a104b13	0.0005504351
141	0x3c549f77	0.0129774725
142	0xbc89ef33	-0.016837692
143	0xbcba414c	-0.022736214
144	0x3c125307	0.008930928
145	0x3d03fe19	0.03222475
146	0xbcbb1df6	-0.022841435
147	0x3beb6b46	0.007184419
148	0xb9912748	-0.00027685822
149	0xbb88f01f	-0.0041790153
150	0xbc417401	-0.011807443
151	0xbbcb1654	-0.00619773
152	0x3d1a741b	0.037708383
153	0x3b9c47ec	0.004769316
154	0x380a935d	3.3039007e-05
155	0xbacfa8ae	-0.0015843117
156	0x3cb22642	0.021746758
157	0x3d55b3f3	0.052173566
158	0xbd9b1a31	-0.07573355
159	0x3c397f91	0.011321918
160	0xbcfa42c3	-0.030549413
161	0xbc31d810	-0.010854736
162	0xbcf12714	-0.02943758
163	0x3d47d11e	0.048783414
164	0x3cf3b43b	0.029749027
165	0xbd54f23c	-0.051988825
166	0x3ba990be	0.0051747253
167	0xbd670cb7	-0.05640861
168	0xbb8c31f4	-0.004278416
169	0xbc913683	-0.017726189
170	0xbd8533c5	-0.06504015
171	0xbaa26fb0	-0.0012392905
172	0x3a076934	0.0005165518
173	0xbabdeea8	-0.0014490681
174	0x3d270b70	0.040782392
175	0xbc5a0ace	-0.01330824
176	0x3cba6722	0.022754256
177	0xbba72e1d	-0.0051019327
178	0xbbcb436b	-0.006203105
179	0x3c01bb4c	0.00791819
180	0xbbbd0afb	-0.0057691312
181	0x3c813641	0.01577294
182	0xbc356225	-0.011070763
183	0x3cb2d002	0.021827701
184	0x3c9610b9	0.01831852
185	0xbd5543df	-0.05206668
186	0xbd497ba3	-0.049190175
187	0x3b7781ba	0.0037766532
188	0x3c690f6e	0.01422487
189	0xbc22231f	-0.009896069
190	0x3c67354a	0.014111826
191	0xbb923616	-0.004462014
192	0x3c21dd06	0.009879356
193	0x3ce63377	0.028100712
194	0x3cc88ffe	0.024482723
195	0x3d17c66a	0.037054457
196	0xba27ef39	-0.00064061914
197	0x3ccebcd5	0.025236527
198	0x3d0ebee0	0.03485
199	0x3cd37d98	0.025816724
200	0xbc5b9bc4	-0.013403837
201	0xbbc7cd8c	-0.006097501
202	0x3bbede32	0.0058248276
203	0x3cb73a0c	0.022366546
204	0xbd500a33	-0.050790977
205	0x3d08951f	0.033345338
206	0xbcaadebe	-0.020858165
207	0x3c08e0f1	0.008354411
208	0xbd29dba2	-0.041469224
209	0xbb754241	-0.0037423524
210	0xbd089337	-0.03334352
211	0x3d093c81	0.033504967
212	0x3d95497d	0.072894074
213	0xbc97a7d1	-0.018512638
214	0x3bb6daa0	0.0055802613
215	0xbc535e7b	-0.012900944
216	0x3d734bc6	0.059398435
217	0x3c916dbd	0.017752523
218	0x3ce7bc9a	0.028288174
219	0xbc7f721c	-0.015591171
220	0x3d3c2340	0.045932055
221	0x3bbec33f	0.005821615
222	0xbc199cc1	-0.009375752
223	0x3ca6575b	0.020305326
224	0x396efb30	0.00022791023
225	0xbcf2caac	-0.029637657
226	0xbb603477	-0.003421096
227	0xbce3714f	-0.02776399
228	0x3cb56b53	0.022145903
229	0x3d2b94ad	0.041889835
230	0xbcd86913	-0.02641729
231	0xbc80b2ff	-0.015710352
232	0xbd3e4243	-0.04644991
233	0x3c51a0a8	0.012794651
234	0x3daee1cf	0.08539163
235	0xbc07971e	-0.008275775
236	0x3ccb6e24	0.024832793
237	0xbcc367e2	-0.023853246
238	0x3d2801ec	0.041017458
239	0xbba66cf9	-0.0050789085
240	0xbcdfef9d	-0.027335936
241	0xbb062947	-0.002047138
242	0x3ca637d4	0.020290293
243	0x3920444a	0.00015284229
244	0x3cd8d687	0.026469482
245	0xba0ad0af	-0.00052953785
246	0xbcf39558	-0.029734299
247	0x3baa5810	0.005198486
248	0x3c3aad76	0.011393895
249	0xbc959725	-0.018260548
250	0xbccbf015	-0.024894753
251	0xbc74b9b2	-0.014936851
252	0xbce4d3c4	-0.027933009
253	0xbd1cf3bc	-0.03831838
254	0xbd450771	-0.0481028
255	0xbcab702c	-0.020927511

weight f4 [14, 96]
0	0x3c5f56a6	0.013631498
1	0x3d3afe05	0.04565241
2	0xbc5fe6ea	-0.013665894
3	0x3c80daf8	0.015729412
4	0xbcfc0cc5	-0.030767808
5	0xbc99afdc	-0.018760614
6	0x39b3c740	0.00034289993
7	0x3bd2c294	0.006431887
8	0x3c3dbb30	0.0115802735
9	0x3bced143	0.006311567
10	0xbb6c97b9	-0.0036101176
11	0x3d13ea27	0.036111977
12	0xbc552a34	-0.01301055
13	0x3c4b421a	0.012405897
14	0x3d03361f	0.032034036
15	0xbd5bd9bd	-0.05367445
16	0x3c058ee5	0.0081517445
17	0xbd1cac6e	-0.03825038
18	0xbb80e4f0	-0.0039335415
19	0x3d6b86d7	0.05750164
20	0xbc802f5c	-0.015647583
21	0xbcfcecec	-0.030874692
22	0xbc566961	-0.013086648
23	0xbbc154b5	-0.0058999904
24	0x3cd1ac4b	0.025594851
25	0x3d3794f3	0.044819783
26	0x3c9ac12e	0.018890943
27	0xbc5e75bb	-0.013577874
28	0xbc257126	-0.0100977775
29	0x39b831e5	0.0003513239
30	0xbcc31c44	-0.023817189
31	0xbbaea414	-0.005329618
32	0x3b576200	0.003286481
33	0x3ce723c5	0.028215298
34	0x3d08594f	0.033288296
35	0x3cce329f	0.025170622
36	0xbcfb33a5	-0.030664274
37	0x3b5175d0	0.003196109
38	0x3c19f6e6	0.009397244
39	0xbd5f1b7b	-0.054469567
40	0xba928cf1	-0.001118092
41	0xbb9def58	-0.0048197918
42	0x3c9a11da	0.01880734
43	0xbb5a0a8b	-0.0033270444
44	0xbc2b173f	-0.010442554
45	0xbce415db	-0.027842453
46	0xbb8f34d9	-0.0043703136
47	0xbc053d9e	-0.008132366
48	0xbce85231	-0.028359504
49	0x3d8260e7	0.06366139
50	0xbc3bad1f	-0.0114548495
51	0xbc1795a6	-0.009251988
52	0xbc61d519	-0.013783717
53	0x3b5669f8	0.003271697
54	0xbca67f0f	-0.020324258
55	0xbd4b382b	-0.049614113
56	0x3cb83295	0.022485057
57	0xbcf2ba9a	-0.029629994
58	0x3d3dad25	0.0463077
59	0xbc36d094	-0.011158127
60	0x3b7550a3	0.0037432096
61	0x3c655428	0.013997115
62	0xbcdc073e	-0.026858922
63	0x3c4e882c	0.012605708
64	0x3b7527e5	0.0037407812
65	0xbcac5253	-0.021035349
66	0xbca58e42	-0.020209435
67	0x3d19623d	0.037447203
68	0xbd4635c9	-0.048391137
69	0x3c955e5f	0.018233476
70	0xbc0ff1e2	-0.008785697
71	0xbc71a01f	-0.0147476485
72	0xbd2344e9	-0.03986064
73	0x3d0cec0b	0.034404796
74	0xbc2fb57b	-0.010724421
75	0xbcac9b63	-0.021070188
76	0xbb0f8dd6	-0.002190461
77	0x3ccb995b	0.024853399
78	0x3cf980d4	0.030456938
79	0xbbb22ba3	-0.005437331
80	0x39fc4ef4	0.0004812401
81	0xbcc48037	-0.023986919
82	0x3b7aefcd	0.0038289905
83	0x3c86c934	0.016453363
84	0x3b917d72	0.004440003
85	0x3b51266a	0.0031913766
86	0xbd427b3f	-0.047480818
87	0xbba6d291	-0.0050910194
88	0x3cb7f4ea	0.022455651
89	0xbd2c5e3c	-0.042082056
90	0xbd587441	-0.052845243
91	0xbc23049d	-0.00994983
92	0xbc71168e	-0.01471485
93	0xbcaff4b7	-0.021478994
94	0x3ca14146	0.019684445
95	0x3c7bf352	0.015377836
96	0xbd28a3ad	-0.04117172
97	0x3d1ac1a9	0.037782345
98	0x3ba3625a	0.0049860897
99	0xbd05f724	-0.032706395
100	0x3cbe645b	0.023241213
101	0x3c90b60c	0.017664932
102	0xbd0ade8b	-0.03390364
103	0x3c120322	0.00891188
104	0xbcc1fcde	-0.023680147
105	0xbc84d9e7	-0.016217185
106	0x3b1d2cf7	0.00239831
107	0x3cb4b4d7	0.022058887
108	0xbcf767b9	-0.030200826
109	0x3c5e8207	0.013580806
110	0xbb3bd28d	-0.0028659434
111	0x3d03eb52	0.03220684
112	0xbbf7fdb3	-0.007568085
113	0xbcf6303d	-0.030052299
114	0xbc3c8497	-0.011506221
115	0x3d573c57	0.05254778
116	0x3bda61b6	0.00666448
117	0xbc894862	-0.016758148
118	0xbba0f96e	-0.004912547
119	0xbc796fcd	-0.015224409
120	0xbbbe138b	-0.0058006695
121	0xbc9c4ae1	-0.019078674
122	0x3af2a8fa	0.0018513494
123	0xbb8fe233	-0.0043909787
124	0x3d6b6ee2	0.057478793
125	0xbc2a5078	-0.010395162
126	0x3c98fc0b	0.018674871
127	0x3c41e8c1	0.011835278
128	0xbc96d182	-0.018410448
129	0x3ccbe0d6	0.024887484
130	0x3d0b16b1	0.033957187
131	0x3adc07b7	0.0016786967
132	0xbbabc5e2	-0.0052420953
133	0xbd1e62af	-0.03866833
134	0x3c393575	0.011304249
135	0xbcbfcc81	-0.023412945
136	0xbc911856	-0.0177118
137	0x3cea40d1	0.02859536
138	0x3bed30fd	0.007238506
139	0xbc8b90cc	-0.017036818
140	0xbcc27085	-0.023735294
141	0x3c3a75ab	0.011380593
142	0x3c73010d	0.0148317935
143	0x3cb44fdf	0.022010742
144	0xbcb7bfb1	-0.022430273
145	0xbc73c2d0	-0.01487799
146	0xbb887896	-0.0041647656
147	0x3d410ba7	0.047130253
148	0xbca198dd	-0.019726211
149	0xbd36b0a7	-0.044602063
150	0x3cf614e6	0.030039262
151	0xbc4fba63	-0.012678715
152	0xbc398795	-0.011323829
153	0xbc40bf0e	-0.011764301
154	0xbc8f811f	-0.017517624
155	0xbc0a0adc	-0.008425441
156	0x3bf7232d	0.007542035
157	0x3bce7674	0.006300742
158	0xbca89133	-0.020577049
159	0xbc78e4ea	-0.015191296
160	0x3cced9d0	0.025250345
161	0xbb2fb894	-0.0026812898
162	0x3d1430aa	0.036179222
163	0xbd0049f9	-0.031320546
164	0x3c0dad34	0.008647252
165	0x3cfafb6f	0.030637471
166	0xbd3f312e	-0.04667776
167	0xbd8afbae	-0.06786285
168	0xbc202ae1	-0.009775848
169	0x3c673d28	0.014113702
170	0x3b2361dd	0.0024930157
171	0x3b8ce3d3	0.0042996197
172	0x3c732556	0.014840445
173	0x3bc649dc	0.006051285
174	0xbcda3786	-0.026637804
175	0x3ce523a6	0.0279711
176	0x3d42a091	0.04751641
177	0x3d880dae	0.06643234
178	0x3ccc9c56	0.02497689
179	0x3ab89605	0.0014082795
180	0x3c9a91d5	0.018868366
181	0xbb8fa35b	-0.004383487
182	0x3ca6e617	0.020373387
183	0xbbfe846b	-0.0077672503
184	0x3bb3775c	0.005476875
185	0x3cf95de9	0.030440288
186	0xbccb9067	-0.02484913
187	0xbca066a3	-0.019580191
188	0x3bc40fd2	0.0059833312
189	0xba0adb61	-0.0005296972
190	0x3d0eab17	0.034831133
191	0x3c15144f	0.00909908
192	0x3d75a08a	0.059967555
193	0xbc5d7fa1	-0.013519199
194	0xbd1eacc7	-0.038738992
195	0xbc93f5f5	-0.018061617
196	0x3d10db1e	0.035365216
197	0x3cd59ec3	0.02607668
198	0x3d2c1651	0.04201347
199	0xbd353679	-0.044241402
200	0x3d2f9aa7	0.042872097
201	0xbca7e5d9	-0.020495342
202	0xbcb8b087	-0.022545112
203	0xbd5dd01e	-0.054153554
204	0x3bdf4f65	0.0068148845
205	0x3d0485ea	0.032354273
206	0xbc7d892e	-0.015474601
207	0x3bfa5b8b	0.0076403073
208	0x3ca5dfc6	0.020248305
209	0x3cae36e7	0.021266414
210	0x3cdceff3	0.026969885
211	0xbd38df64	-0.045134917
212	0xbd23f8b0	-0.04003209
213	0x3d7376cd	0.05943947
214	0xbd0a05e7	-0.033697035
215	0x3c6cb566	0.014447546
216	0xbc02903a	-0.007968957
217	0x3d39abfd	0.045330036
218	0xbb858fed	-0.004075995
219	0x3d34c1b8	0.044130057
220	0xbac13f2d	-0.0014743559
221	0xbc99b4c9	-0.018762963
222	0xbc9ef275	-0.019402722
223	0xbbe30c52	-0.006928959
224	0xbc043f74	-0.008071769
225	0x3d018ecd	0.031630326
226	0x3b96c7b5	0.0046014437
227	0xbc0f35b5	-0.008740832
228	0x3cb73974	0.022366263
229	0x3d1b2a20	0.03788197
230	0x3c0ddbaf	0.008658334
231	0x3d8bf517	0.068338566
232	0xbc43b928	-0.011946
233	0x3bd59e7b	0.0065191365
234	0xbc803262	-0.015649024
235	0x3d2b90c3	0.041886102
236	0xbc58f09c	-0.0132409595
237	0x3625a318	2.468185e-06
238	0x3c6ed570	0.014577255
239	0x3d6d26a4	0.05789818
240	0x3c180e03	0.009280684
241	0xbc318cc4	-0.010836784
242	0x3d0c2a14	0.034219816
243	0xbabfa764	-0.001462203
244	0x3c060d30	0.008181855
245	0xbca12a8b	-0.019673606
246	0x3be9aeee	0.007131449
247	0x3b225fe2	0.002477639
248	0xba0fd443	-0.00054866466
249	0xbc169c5f	-0.009192555
250	0xbd11edc4	-0.03562714
251	0xbbd2e657	-0.00643615
252	0x3c4b2343	0.012398544
253	0x3c080475	0.008301844
254	0x3d3a7179	0.045518372
255	0xbcde1ba2	-0.027112786

tril f4 [14, 14]
0	0x3f800000	1.0
1	0x00000000	0.0
2	0x00000000	0.0
3	0x00000000	0.0
4	0x00000000	0.0
5	0x00000000	0.0
6	0x00000000	0.0
7	0x00000000	0.0
8	0x00000000	0.0
9	0x00000000	0.0
10	0x00000000	0.0
11	0x00000000	0.0
12	0x00000000	0.0
13	0x00000000	0.0
14	0x3f800000	1.0
15	0x3f800000	1.0
16	0x00000000	0.0
17	0x00000000	0.0
18	0x00000000	0.0
19	0x00000000	0.0
20	0x00000000	0.0
21	0x00000000	0.0
22	0x00000000	0.0
23	0x00000000	0.0
24	0x00000000	0.0
25	0x00000000	0.0
26	0x00000000	0.0
27	0x00000000	0.0
28	0x3f800000	1.0
29	0x3f800000	1.0
30	0x3f800000	1.0
31	0x00000000	0.0
32	0x00000000	0.0
33	0x00000000	0.0
34	0x00000000	0.0
35	0x00000000	0.0
36	0x00000000	0.0
37	0x00000000	0.0
38	0x00000000	0.0
39	0x00000000	0.0
40	0x00000000	0.0
41	0x00000000	0.0
42	0x3f800000	1.0
43	0x3f800000	1.0
44	0x3f800000	1.0
45	0x3f800000	1.0
46	0x00000000	0.0
47	0x00000000	0.0
48	0x00000000	0.0
49	0x00000000	0.0
50	0x00000000	0.0
51	0x00000000	0.0
52	0x00000000	0.0
53	0x00000000	0.0
54	0x00000000	0.0
55	0x00000000	0.0
56	0x3f800000	1.0
57	0x3f800000	1.0
58	0x3f800000	1.0
59	0x3f800000	1.0
60	0x3f800000	1.0
61	0x00000000	0.0
62	0x00000000	0.0
63	0x00000000	0.0
64	0x00000000	0.0
65	0x00000000	0.0
66	0x00000000	0.0
67	0x00000000	0.0
68	0x00000000	0.0
69	0x00000000	0.0
70	0x3f800000	1.0
71	0x3f800000	1.0
72	0x3f800000	1.0
73	0x3f800000	1.0
74	0x3f800000	1.0
75	0x3f800000	1.0
76	0x00000000	0.0
77	0x00000000	0.0
78	0x00000000	0.0
79	0x00000000	0.0
80	0x00000000	0.0
81	0x00000000	0.0
82	0x00000000	0.0
83	0x00000000	0.0
84	0x3f800000	1.0
85	0x3f800000	1.0
86	0x3f800000	1.0
87	0x3f800000	1.0
88	0x3f800000	1.0
89	0x3f800000	1.0
90	0x3f800000	1.0
91	0x00000000	0.0
92	0x00000000	0.0
93	0x00000000	0.0
94	0x00000000	0.0
95	0x00000000	0.0
96	0x00000000	0.0
97	0x00000000	0.0
98	0x3f800000	1.0
99	0x3f800000	1.0
100	0x3f800000	1.0
101	0x3f800000	1.0
102	0x3f800000	1.0
103	0x3f800000	1.0
104	0x3f800000	1.0
105	0x3f800000	1.0
106	0x00000000	0.0
107	0x00000000	0.0
108	0x00000000	0.0
109	0x00000000	0.0
110	0x00000000	0.0
111	0x00000000	0.0
112	0x3f800000	1.0
113	0x3f800000	1.0
114	0x3f800000	1.0
115	0x3f800000	1.0
116	0x3f800000	1.0
117	0x3f800000	1.0
118	0x3f800000	1.0
119	0x3f800000	1.0
120	0x3f800000	1.0
121	0x00000000	0.0
122	0x00000000	0.0
123	0x00000000	0.0
124	0x00000000	0.0
125	0x00000000	0.0
126	0x3f800000	1.0
127	0x3f800000	1.0
128	0x3f800000	1.0
129	0x3f800000	1.0
130	0x3f800000	1.0
131	0x3f800000	1.0
132	0x3f800000	1.0
133	0x3f800000	1.0
134	0x3f800000	1.0
135	0x3f800000	1.0
136	0x00000000	0.0
137	0x00000000	0.0
138	0x00000000	0.0
139	0x00000000	0.0
140	0x3f800000	1.0
141	0x3f800000	1.0
142	0x3f800000	1.0
143	0x3f800000	1.0
144	0x3f800000	1.0
145	0x3f800000	1.0
146	0x3f800000	1.0
147	0x3f800000	1.0
148	0x3f800000	1.0
149	0x3f800000	1.0
150	0x3f800000	1.0
151	0x00000000	0.0
152	0x00000000	0.0
153	0x00000000	0.0
154	0x3f800000	1.0
155	0x3f800000	1.0
156	0x3f800000	1.0
157	0x3f800000	1.0
158	0x3f800000	1.0
159	0x3f800000	1.0
160	0x3f800000	1.0
161	0x3f800000	1.0
162	0x3f800000	1.0
163	0x3f800000	1.0
164	0x3f800000	1.0
165	0x3f800000	1.0
166	0x00000000	0.0
167	0x00000000	0.0
168	0x3f800000	1.0
169	0x3f800000	1.0
170	0x3f800000	1.0
171	0x3f800000	1.0
172	0x3f800000	1.0
173	0x3f800000	1.0
174	0x3f800000	1.0
175	0x3f800000	1.0
176	0x3f800000	1.0
177	0x3f800000	1.0
178	0x3f800000	1.0
179	0x3f800000	1.0
180	0x3f800000	1.0
181	0x00000000	0.0
182	0x3f800000	1.0
183	0x3f800000	1.0
184	0x3f800000	1.0
185	0x3f800000	1.0
186	0x3f800000	1.0
187	0x3f800000	1.0
188	0x3f800000	1.0
189	0x3f800000	1.0
190	0x3f800000	1.0
191	0x3f800000	1.0
192	0x3f800000	1.0
193	0x3f800000	1.0
194	0x3f800000	1.0
195	0x3f800000	1.0

weight f4 [12, 96]
0	0x3c099665	0.008397673
1	0x3cf88cab	0.030340513
2	0xbda9a598	-0.082835376
3	0xbd6efa8d	-0.058344413
4	0x3d82063b	0.063488446
5	0x3d3bcd04	0.045849815
6	0x3b73fc04	0.003722907
7	0xbd1d6edc	-0.038435802
8	0xbd12df25	-0.03585734
9	0xbd8f2888	-0.069901526
10	0x3d34ee50	0.044172585
11	0xbd88991a	-0.06669827
12	0x3aba659d	0.0014220957
13	0x3c97b7e1	0.018520297
14	0xbccc96d3	-0.024974262
15	0x3d120510	0.03564936
16	0x3c4ff9b6	0.012693813
17	0xbc3f82e4	-0.011688922
18	0xbcad37f5	-0.021144846
19	0x3c7d88dd	0.015474525
20	0x3b8296d2	0.0039852643
21	0x3b997949	0.004683648
22	0xbd6e4db3	-0.05817957
23	0xbc4a9f25	-0.012367045
24	0xbd3709a2	-0.04468692
25	0x3cab5cfd	0.020918364
26	0xbcff8e50	-0.03119579
27	0x3d859d7c	0.065241784
28	0x3da38f5e	0.079863295
29	0xbd455556	-0.048177086
30	0x3d8c6a7b	0.06856247
31	0xbce84a8c	-0.02835586
32	0xbd3d10e2	-0.04615868
33	0x3d55b3db	0.052173477
34	0x3d27a011	0.040924136
35	0xbab04ae3	-0.0013450052
36	0x3d6818d8	0.056664318
37	0x3bd58170	0.0065156743
38	0x3d5e6518	0.05429563
39	0x3d8ca5ec	0.068675846
40	0xbd23788e	-0.03990989
41	0x3cb15acd	0.021649742
42	0x3c823027	0.015892101
43	0x3b701d10	0.0036638416
44	0xbdbc64a1	-0.09198881
45	0x3ba6d29f	0.005091026
46	0x3bc98382	0.00614971
47	0x3d866ebc	0.0656409
48	0x3a9ec9b4	0.0012114556
49	0xbc838863	-0.016056245
50	0x3d471a29	0.048608933
51	0x3aceb947	0.001577177
52	0x3d0d9166	0.03456249
53	0xbda5d2a2	-0.08096816
54	0x3d4d7fdb	0.05017076
55	0xbc87aba9	-0.016561346
56	0xbc9fe007	-0.019516004
57	0x3cd0761d	0.025446946
58	0xbd2288d5	-0.039681274
59	0x3d7ac0b1	0.06121892
60	0x3d8e118d	0.06936941
61	0x3c792910	0.015207544
62	0x3d81b871	0.063340075
63	0xbd5316dc	-0.051535472
64	0x3cd166e6	0.025561761
65	0xbd0a8c62	-0.033825286
66	0x3dc66c1c	0.09688589
67	0x3ca2411b	0.019806435
68	0xbd394e4d	-0.04524069
69	0xbbd3b949	-0.0064612967
70	0xbd33623e	-0.043794863
71	0xbc0a58c8	-0.008444019
72	0xbc726dbd	-0.014796671
73	0x3d6f3061	0.058395747
74	0x3d47f7ac	0.048820183
75	0xbc5db637	-0.013532213
76	0x3df141bf	0.11780118
77	0xba8f2fe6	-0.0010924309
78	0xbd8aa6bb	-0.067700826
79	0x3ce37b52	0.027768765
80	0x3a953668	0.0011384012
81	0x3aae4034	0.001329428
82	0x3d39445a	0.0452312
83	0xbe0d4195	-0.13794549
84	0x3cd268de	0.02568477
85	0xbc76a2d4	-0.01505347
86	0x3d1b9d50	0.03799182
87	0xbd4331a2	-0.047654755
88	0x3cc7dcda	0.024397302
89	0x3d3d02a4	0.046145096
90	0xbc76dd73	-0.015067446
91	0xbd708fa0	-0.05873072
92	0x3b9af15b	0.004728479
93	0x3d0e2755	0.03470548
94	0x3d2b65e4	0.041845217
95	0x3c9a7eb4	0.018859245
96	0xbd926331	-0.071478255
97	0x3cefa487	0.029253257
98	0xbd5a3194	-0.053269938
99	0xbdb773d7	-0.089576416
100	0x3d5d8b41	0.05408788
101	0x3d1be748	0.038062364
102	0xbd139019	-0.036026094
103	0xbd1b378a	-0.037894763
104	0xbd29142a	-0.041278996
105	0xbc111626	-0.008855378
106	0x3d171569	0.036885653
107	0x3cf88233	0.030335521
108	0xbcbc2811	-0.022968324
109	0xbda885be	-0.08228634
110	0xbc318ffa	-0.010837549
111	0x3dba269f	0.09089398
112	0x3cb9af13	0.02266649
113	0xbd771c0d	-0.060329486
114	0xbd136441	-0.03598428
115	0x3b5d76c0	0.0033792704
116	0xbc0bbd8a	-0.008529076
117	0xbd4ab4eb	-0.049488943
118	0xbcec5c50	-0.028852612
119	0xbd3136ed	-0.043265272
120	0x3b731872	0.0037093428
121	0xbc97375d	-0.018459016
122	0xbd82796f	-0.06370818
123	0x3d15a4de	0.036534183
124	0x3dc3df8f	0.09564125
125	0xbcdefc89	-0.027220028
126	0x3d58118b	0.052751105
127	0x3d0089e5	0.031381506
128	0xbd2d62d5	-0.04233058
129	0x3d588f01	0.052870754
130	0x3d058fc5	0.032607812
131	0xbd5c9a70	-0.05385822
132	0x3d1a90d0	0.03773576
133	0xbc9f6bb7	-0.019460542
134	0x3d3850ce	0.044998936
135	0x3c859742	0.016307477
136	0xbd551e6b	-0.052030962
137	0x3d64f138	0.055894107
138	0x3d0534fa	0.032521226
139	0xbcffbbaf	-0.031217424
140	0xbc9bd90f	-0.0190244
141	0x3c9e1fe5	0.019302318
142	0x3dbdeda6	0.092738435
143	0x3cf8b6e5	0.030360648
144	0xbc81ebd0	-0.015859514
145	0xbd5dac5a	-0.054119445
146	0xbc295a8c	-0.010336529
147	0x3d5f9dad	0.05459373
148	0xbd66c2b1	-0.056338016
149	0xbd5647c2	-0.052314527
150	0x3da7cf49	0.081938334
151	0xbce4e7b7	-0.027942521
152	0x3d3043f5	0.04303356
153	0x3c9dca0f	0.019261388
154	0xbcd3ebb9	-0.025869237
155	0x3bede33e	0.0072597554
156	0x3c9b5fd3	0.018966591
157	0x3d83be3e	0.0643277
158	0xbcafbeb7	-0.021453245
159	0x3b9d5c90	0.004802294
160	0x3d404a6c	0.046945974
161	0xbca3e603	-0.02000714
162	0x3d6270da	0.055283405
163	0xbd79fbd8	-0.061031193
164	0x3d15f32d	0.036608864
165	0x3db8f505	0.09031109
166	0xbb96fb88	-0.0046076216
167	0xbca96418	-0.020677611
168	0xbc6c2431	-0.014412926
169	0x3c94d3a6	0.018167328
170	0x3c08a571	0.008340226
171	0xbc8cae45	-0.017172942
172	0x3dac9ee9	0.08428747
173	0xbd4c8f48	-0.04994133
174	0xbc991b54	-0.018689789
175	0x3d36b94b	0.044610303
176	0x3d7e7b2b	0.06212918
177	0x3c48fcf8	0.012267344
178	0x3dc003ed	0.09375749
179	0xbce44548	-0.027865067
180	0xbc1b128b	-0.00946487
181	0xbd911677	-0.07084363
182	0x3d42f72d	0.047599006
183	0x3b3a94a4	0.0028469944
184	0xbd297354	-0.04136975
185	0x3c88e5c3	0.016711121
186	0x3ce30a8b	0.027714988
187	0xbd9c4ce3	-0.076318525
188	0x3d43cf6d	0.04780524
189	0x3cf7e434	0.030260183
190	0xbc8b0613	-0.01697067
191	0x3d00d883	0.03145648
192	0xbbbe21de	-0.005802377
193	0x3ba07412	0.004896649
194	0xbdc6796f	-0.0969113
195	0xbd809c3c	-0.06279799
196	0x3d8758b4	0.06608716
197	0x3d865460	0.06559062
198	0x3b9bf485	0.0047593736
199	0xbd5521a9	-0.052034054
200	0x3c9b9743	0.018993026
201	0xbda835d2	-0.082133904
202	0x3ce12588	0.027483717
203	0xbd96cc4f	-0.073631875
204	0xba25b59a	-0.0006321311
205	0x3d1f9891	0.038963858
206	0x3b763c30	0.0037572496
207	0x3c9b168b	0.018931648
208	0x3d8722ac	0.0659841
209	0xbcb88a05	-0.02252675
210	0xbda5888a	-0.080826834
211	0xbcbbcd90	-0.022925168
212	0xbd2e2fb6	-0.04252597
213	0x3d035bd9	0.032070015
214	0xbd9a016c	-0.075198025
215	0xbb666527	-0.0035155506
216	0xbd1a2eba	-0.03764222
217	0xbca470a5	-0.020073244
218	0xbd614c12	-0.055004187
219	0x3d0a9c15	0.033840258
220	0x3d75eeeb	0.060042303
221	0xbd443e53	-0.047911
222	0x3d36355a	0.044484474
223	0xbcae558e	-0.02128103
224	0xbd3ef308	-0.04661849
225	0x3d9a65b0	0.075389266
226	0xbaa0da61	-0.0012272113
227	0xbbc40092	-0.0059815133
228	0x3d72cd6a	0.05927793
229	0xbcecaba8	-0.028890446
230	0x3d40c6b1	0.047064487
231	0x3dbe1775	0.09281818
232	0xbd6e2d30	-0.058148563
233	0x3d3183fb	0.043338757
234	0x39d857d2	0.00041264162
235	0xbd1dc68e	-0.038519435
236	0xbdabcb84	-0.08388427
237	0x3d2741de	0.0408343
238	0xbc36ef3b	-0.011165435
239	0x3e094c3b	0.13407986
240	0xbcb3a3a0	-0.021928608
241	0xbd29c4eb	-0.04144756
242	0x3cb37c7e	0.021909948
243	0xbcbc976b	-0.02302142
244	0xbd1bc6aa	-0.038031258
245	0xbd684021	-0.056701783
246	0x3d8bcaae	0.068257675
247	0xbcabd438	-0.020975217
248	0xbcd819fd	-0.02637958
249	0x3c9b48fe	0.018955704
250	0xba1d2170	-0.0005994057
251	0x3d0929eb	0.03348724
252	0x3c947a0a	0.018124599
253	0xbc90f457	-0.017694635
254	0x3d847bd5	0.064689316
255	0xbd9c99d2	-0.076465264

weight f4 [12, 96]
0	0xbdba5b39	-0.090994306
1	0x3cab7fe7	0.020935012
2	0xbd813686	-0.06309228
3	0xbd701098	-0.058609575
4	0x3d09f85f	0.03368413
5	0xbc13eaf7	-0.009028188
6	0x3d973133	0.07382431
7	0xbc1ef52b	-0.009702007
8	0xbb67d954	-0.003537734
9	0xbd348365	-0.04407062
10	0x3db244d5	0.08704535
11	0xbd0d636a	-0.034518637
12	0x3d8deee7	0.06930333
13	0xbda3167f	-0.07963275
14	0x3d74f06a	0.05979959
15	0xbd52c68f	-0.05145889
16	0x3c805fdd	0.015670711
17	0x3be455a6	0.006968218
18	0xbc305a00	-0.010763645
19	0xbd427f63	-0.047484767
20	0xbd47bb00	-0.04876232
21	0xbda35c02	-0.079765335
22	0x3d4c155e	0.049825065
23	0x3d5c7a19	0.05382738
24	0xbdbd16c1	-0.092328556
25	0x3c1e6201	0.009666921
26	0xbe04b74a	-0.12960544
27	0x3bbe7aac	0.0058129635
28	0x3d840896	0.0644695
29	0xbd236054	-0.039886788
30	0xbd122cc3	-0.03568722
31	0xbdbc9d8f	-0.092097394
32	0xbc00e8ad	-0.007867974
33	0x3c84b803	0.016201025
34	0xbd4e5103	-0.050370228
35	0x3b13975a	0.0022520632
36	0x3dbee519	0.09321041
37	0xbd17cb96	-0.03705939
38	0x3d0a711d	0.03379928
39	0xbcd180c7	-0.025574101
40	0xbd427914	-0.04747875
41	0xbd428bb7	-0.047496524
42	0x3d458bbe	0.04822897
43	0xbc5c0f7e	-0.013431428
44	0xbde4e126	-0.11175756
45	0x3d165da6	0.036710404
46	0xbd2b2f72	-0.041793294
47	0xbd80b225	-0.062839784
48	0xbd1113b9	-0.0354192
49	0x3dd5c1d9	0.10437364
50	0x3c9d54f0	0.01920554
51	0xbd8bc2eb	-0.06824287
52	0xbcc721be	-0.024308082
53	0x3cbf7f82	0.02337623
54	0x3dcb15c7	0.09916263
55	0xbd59d0be	-0.053177588
56	0xbbce1a7b	-0.006289778
57	0x3b9c2b9e	0.0047659418
58	0x3da1869e	0.07887004
59	0x3dc502df	0.09619688
60	0x3c26bad6	0.010176381
61	0xbd9f6e6d	-0.07784734
62	0x3d59fd34	0.05321999
63	0x3c5b360a	0.013379583
64	0x3d31aa4a	0.04337529
65	0xbd79d508	-0.060994178
66	0x3d24ac9b	0.040203672
67	0x3d9a6910	0.0753957
68	0x3cfe63ba	0.031053413
69	0x3d07e0d1	0.033173386
70	0xbd6d5869	-0.057945643
71	0x3daa5840	0.083176136
72	0xbd2466b4	-0.040137008
73	0x3c8d13cf	0.01722136
74	0x3d8f83a0	0.07007527
75	0x3d3f6807	0.046730068
76	0x3dd07a62	0.10179593
77	0xbce72f9f	-0.02822095
78	0xbcf0628c	-0.029343866
79	0x3c56034e	0.013062311
80	0x3b41ff48	0.0029601622
81	0xbbf568af	-0.007489286
82	0x3d814c8e	0.0631343
83	0xbd5184c9	-0.051152024
84	0xbdec9171	-0.11551178
85	0x3c88841b	0.016664555
86	0x3c9de4d0	0.019274145
87	0x3c99fd80	0.018797636
88	0x3d829049	0.063751765
89	0x3d3e6de1	0.046491507
90	0xbb058188	-0.0020371396
91	0xba977c5a	-0.0011557445
92	0x3c63cef8	0.013904326
93	0x3ce2d58c	0.027689718
94	0xbccec76a	-0.025241572
95	0x3b3f5856	0.002919694
96	0xbd95778c	-0.072981924
97	0x3d2de5ee	0.042455606
98	0xbd9baa09	-0.07600791
99	0xbd0809f5	-0.03321262
100	0xbdc3b0f7	-0.09555238
101	0xbdb15495	-0.08658711
102	0x3d57bad3	0.052668404
103	0xbd05a85f	-0.032631274
104	0x3dbfc4e6	0.09363727
105	0x3d972784	0.07380584
106	0x3d911860	0.07084727
107	0xbd9e592c	-0.07731852
108	0xbd9645fe	-0.07337569
109	0xbcfb52b3	-0.030679082
110	0xbc3cf2d9	-0.011532509
111	0xbcf87584	-0.030329473
112	0xbd51723b	-0.05113433
113	0x3d52b4de	0.05144202
114	0x3d195610	0.03743559
115	0xbd2e15d7	-0.042501297
116	0xbd443c3c	-0.047909006
117	0xba2c5363	-0.0006573705
118	0x3d5402c6	0.051760457
119	0x3ab3c865	0.0013716338
120	0x3d696b7c	0.05698727
121	0x3d9e02ba	0.07715364
122	0xbd4d8230	-0.050172985
123	0x3c245107	0.010029084
124	0x3d1ca104	0.038239494
125	0xbd61f36d	-0.05516379
126	0xbd266427	-0.040622856
127	0xbc9f7402	-0.019464497
128	0x3c2840f2	0.01026939
129	0x3c15aee6	0.009135937
130	0x3d08a4c2	0.03336025
131	0xbcbaac9b	-0.022787383
132	0xbd62405a	-0.05523715
133	0xbdf549aa	-0.11976941
134	0x3d23f319	0.040026758
135	0xbd90fb52	-0.070791855
136	0x3d124a9a	0.035715677
137	0xbcd12c99	-0.025533961
138	0x3d9ffc35	0.078117765
139	0xbd14df1a	-0.03634558
140	0x3b2c7085	0.0026312184
141	0xbd9a7239	-0.075413175
142	0xbdb5fea5	-0.0888646
143	0xbd54e67b	-0.051977616
144	0x3cd9a5ae	0.02656826
145	0x3d03238d	0.032016326
146	0x3d7a8f88	0.06117204
147	0x39a11e20	0.00030730758
148	0xbdb06097	-0.08612173
149	0x3dbac624	0.091198236
150	0x3d7f2c91	0.06229836
151	0xbcac1a97	-0.021008773
152	0xbd3568d6	-0.044289432
153	0x3d7b0385	0.061282653
154	0x3d653387	0.055957343
155	0x3bee7122	0.00727667
156	0xbd2963c6	-0.041354917
157	0x3d8d2cf3	0.06893339
158	0x3db5ea62	0.088825956
159	0xbd3f62b7	-0.046725
160	0x3cf1b5cd	0.029505635
161	0xbd556a5f	-0.052103397
162	0x3d0faa57	0.035074558
163	0x3c54838a	0.0129708145
164	0x3d89457e	0.06702708
165	0x3d84a1f9	0.06476206
166	0xbc02034f	-0.007935359
167	0xbcfda70b	-0.030963441
168	0xbbbb7791	-0.0057210405
169	0xbda6ac11	-0.08138288
170	0x3d0ef616	0.034902655
171	0x3d299a1f	0.041406747
172	0x3cd04040	0.025421262
173	0xbd2015a1	-0.039083127
174	0xbd69da2f	-0.05709284
175	0x3d9e3ef0	0.07726848
176	0xbb7113ec	-0.0036785556
177	0x3bb2c50e	0.0054556197
178	0xbb27d803	-0.002561093
179	0xbde38f12	-0.11111273
180	0xbd100e32	-0.035169788
181	0xbd725939	-0.05916712
182	0x3ddc1338	0.10745853
183	0x3d8a1ede	0.06744169
184	0x3d34b441	0.044117216
185	0x3e137478	0.14399898
186	0x3c3311ad	0.010929507
187	0xbd2f6e1a	-0.04282961
188	0x3b6bef07	0.0036000626
189	0x3d85230a	0.06500824
190	0xbda7a8b3	-0.08186474
191	0x3c4df163	0.012569758
192	0xbdd61b0d	-0.10454378
193	0x3d5c49de	0.053781383
194	0xbd9f264e	-0.07770978
195	0xbd205769	-0.03914586
196	0x3d0472c9	0.03233603
197	0xbbabc691	-0.005242177
198	0x3ddfdddd	0.10930989
199	0xbac53c90	-0.0015047956
200	0xbcfcb8df	-0.030849872
201	0x3b04de00	0.0020273924
202	0x3d9085cf	0.07056772
203	0xbd817f07	-0.06323057
204	0x3d49a7fc	0.049232468
205	0xbd7a6ce3	-0.061139
206	0x3cede871	0.0290415
207	0xbc831337	-0.016000373
208	0x3d5977d4	0.053092793
209	0xbc56aaeb	-0.013102273
210	0xbcd05e12	-0.025435481
211	0xbd1b4a76	-0.03791281
212	0xbd8016c2	-0.06254341
213	0xbdb67d60	-0.08910632
214	0x3d11c7a5	0.035590786
215	0x3b828f7c	0.00398439
216	0xbdb65493	-0.0890285
217	0x3cf19ebb	0.029494634
218	0xbdac78fb	-0.08421513
219	0xbb5cd183	-0.0033694215
220	0x3cc3fa11	0.023922952
221	0xbd38a046	-0.045074724
222	0xbd45d3c1	-0.048297647
223	0xbdadebb0	-0.084922194
224	0xbd041c4d	-0.032253552
225	0xbd2b374e	-0.04180079
226	0xbd9e8157	-0.07739513
227	0xbbc2eb2b	-0.0059484444
228	0x3d6b9a65	0.05752029
229	0xbba6dcf8	-0.0050922595
230	0x3d5468b7	0.051857676
231	0x3b12f879	0.0022425933
232	0xbb5bb1d6	-0.0033522747
233	0xbda2750b	-0.079324804
234	0x3d8b02ff	0.06787681
235	0xbcf7edf7	-0.030264838
236	0xbc973291	-0.01845673
237	0x3d40094b	0.046883862
238	0xbd9828ab	-0.07429632
239	0xbca8065d	-0.020510847
240	0xbb0723ec	-0.0020620776
241	0x3dc4825e	0.09595178
242	0x3c7a6416	0.015282651
243	0xbd9255f5	-0.07145301
244	0xbc7836f4	-0.015149821
245	0xbc924666	-0.017855834
246	0x3dc8696a	0.09785731
247	0xbcb7da74	-0.022443034
248	0xbc9d0b75	-0.019170502
249	0x3d462ccf	0.048382577
250	0x3cc4689d	0.023975665
251	0x3da0a810	0.078445554
252	0xbba2d4e3	-0.0049692257
253	0xbd7d35da	-0.061818935
254	0x3d6c106f	0.05763286
255	0x3a1e28f2	0.0006033323

weight f4 [12, 96]
0	0xbbf177c0	-0.0073690116
1	0xbc4bd82e	-0.012441678
2	0x3b941c1f	0.004519954
3	0x3ccbc9f0	0.024876565
4	0x3861f7a8	5.3874828e-05
5	0xbcbd43e1	-0.023103656
6	0x3c80211c	0.015640788
7	0xbc011508	-0.007878549
8	0xbc4a0ef7	-0.012332669
9	0xbd2d39ee	-0.042291574
10	0xbbe0b5d6	-0.006857614
11	0x3c72e345	0.014824693
12	0xbc349d44	-0.011023823
13	0x3aa03e87	0.0012225666
14	0xbb2c6099	-0.0026302694
15	0xbc2a8254	-0.010407049
16	0x3a995dfb	0.0011700982
17	0x3ccb6468	0.02482815
18	0x3cbeb9d4	0.02328197
19	0x3ce4e5c7	0.027941598
20	0xbd0ddb97	-0.034633245
21	0xbc6b8abc	-0.014376339
22	0xbba115f6	-0.004915948
23	0xb93e0dc0	-0.00018124934
24	0xba421673	-0.0007403858
25	0xba47faee	-0.0007628639
26	0xbd150989	-0.036386047
27	0x3d234e68	0.039869696
28	0xbb38f40d	-0.0028221637
29	0x3c8fc990	0.017552167
30	0xbce5ec7e	-0.02806687
31	0x3c258049	0.010101386
32	0xbd0bd513	-0.03413875
33	0x3c9e71cb	0.01934137
34	0x3c5abe5a	0.013351047
35	0x3d0ee054	0.034881905
36	0xbad10e03	-0.001594961
37	0xbd09fbfc	-0.033687577
38	0x3ce1c7e6	0.02756114
39	0xbc9d1439	-0.019174682
40	0x3c419eb7	0.011817626
41	0x3d832c3e	0.06404923
42	0x3cc73fcf	0.024322418
43	0xbcb82547	-0.022478713
44	0x3c563253	0.013073522
45	0x3c28487d	0.010271189
46	0xb8663db1	-5.4893728e-05
47	0x3c4637be	0.012098251
48	0xbc517b85	-0.012785797
49	0x3ade04eb	0.0016938722
50	0xbc0e938a	-0.008702168
51	0xbca227d9	-0.019794391
52	0xbc10ddbc	-0.008841928
53	0xbb78373c	-0.003787472
54	0xbd5e9d39	-0.054349158
55	0xbd0bfc42	-0.03417612
56	0x3c8bb337	0.01705323
57	0x3b27406c	0.0025520576
58	0x3a42580c	0.00074136327
59	0xbc3ef088	-0.011654027
60	0xbc82faf5	-0.015988806
61	0xbc39e482	-0.011345984
62	0x3cdead02	0.027182106
63	0x3c957be6	0.018247556
64	0xbc19b93c	-0.009382542
65	0xbd26b3f4	-0.04069896
66	0xbb107cdb	-0.0022047076
67	0xbca73b7a	-0.020414103
68	0xbd06468f	-0.032782134
69	0xbc9cdf26	-0.019149374
70	0x3c1b71aa	0.009487549
71	0xbcd3f2c6	-0.0258726
72	0xbba02e36	-0.0048883213
73	0x3ccacb5c	0.024755172
74	0xbd3b30cf	-0.045700844
75	0xbced127f	-0.028939484
76	0x3d13ac6b	0.036053102
77	0xbd2064b4	-0.039158538
78	0xba0ffaa1	-0.00054923637
79	0xbc6e183f	-0.014532148
80	0x3b285cd2	0.002569009
81	0xbccdec51	-0.025137099
82	0xbbd786c1	-0.006577343
83	0xbc8c014e	-0.017090466
84	0x3b49459e	0.003071166
85	0x3b214d77	0.0024612823
86	0xbd035af0	-0.032069147
87	0xbc06ea71	-0.008234606
88	0xb7f7a6b2	-2.9522318e-05
89	0x3c6fbf57	0.014633021
90	0x3c84bdeb	0.016203841
91	0xbd38808d	-0.04504447
92	0xbab291a5	-0.0013623728
93	0xbc6c9287	-0.014439232
94	0x3c842050	0.016128689
95	0x3ba067e5	0.0048951977
96	0xbc3e8018	-0.01162722
97	0xbb6630aa	-0.003512422
98	0x3b7d6d86	0.0038670017
99	0xbc36f57e	-0.011166928
100	0x3d1129f8	0.035440415
101	0x3d1f2ec3	0.038862955
102	0x3c033f01	0.008010627
103	0x3d661718	0.056174368
104	0x3c39d3e6	0.011342024
105	0xbbe895a9	-0.007097919
106	0xbc0b7f63	-0.008514258
107	0x3c0e80d7	0.00869771
108	0xbc704a9b	-0.014666225
109	0x3bf255c5	0.0073954784
110	0x3c436dd4	0.0119280405
111	0xbcd0acb7	-0.025472982
112	0x3d76cab5	0.06025191
113	0xbd383b9a	-0.044978715
114	0xbc63a9b7	-0.013895444
115	0xbca03389	-0.019555824
116	0x3be97fd4	0.007125834
117	0xbd3b9672	-0.045797773
118	0x3b4fe444	0.003172175
119	0x3bcf966b	0.00633507
120	0x3c6e0356	0.014527163
121	0x3c0b0ea5	0.008487378
122	0xbb5b9ab8	-0.0033508968
123	0xbd37a8df	-0.044838782
124	0xbc968362	-0.018373195
125	0xbc715a69	-0.014731028
126	0xbbc9c1e9	-0.006157149
127	0x3c0b257e	0.008492826
128	0x3cd294c7	0.025705708
129	0xbcb3ec9a	-0.021963406
130	0xbca4d4e2	-0.020121042
131	0xbc371988	-0.011175521
132	0x3ca4e266	0.020127486
133	0xbce49d62	-0.027907077
134	0x3ce160c0	0.027511954
135	0xbcb8a6db	-0.0225405
136	0xbd195ac8	-0.03744009
137	0xbd6ed4d8	-0.058308452
138	0xbd42c75a	-0.047553398
139	0xbb78200e	-0.0037860903
140	0xbd2aefe6	-0.04173269
141	0xbc36b5bf	-0.01115173
142	0xbc285bd8	-0.0102758035
143	0x3c90629e	0.01762515
144	0xbca98d44	-0.020697244
145	0xbc269663	-0.010167691
146	0x3c7771d5	0.015102823
147	0xbc6f845f	-0.014618962
148	0xbca58c39	-0.020208465
149	0x3c8aca06	0.016942035
150	0x3cdfc909	0.02731754
151	0xb76fcaf0	-1.429276e-05
152	0xbcb2feb1	-0.021849962
153	0xbb20c9c3	-0.0024534322
154	0xbc0d97ec	-0.008642178
155	0x39f08205	0.0004587324
156	0xbd9cbf96	-0.076537296
157	0xbca81168	-0.020516112
158	0x3c6310a7	0.013858951
159	0xbccb0e8f	-0.024787216
160	0x3c88a904	0.016682155
161	0x3d4de1ae	0.050264053
162	0xbc897b31	-0.016782375
163	0x3c7bcdea	0.015368918
164	0xbb5e4ddd	-0.0033920922
165	0xbcc911cf	-0.024544625
166	0xb9fa1751	-0.00047701088
167	0x3b158c2c	0.0022819145
168	0xbbdc7a3b	-0.006728438
169	0xbc94e304	-0.018174656
170	0xbc852120	-0.016251147
171	0xbc8f1c81	-0.017469646
172	0xbc9e8f4f	-0.019355444
173	0xbcc8a5fe	-0.024493214
174	0xbd4cf008	-0.0500336
175	0x3c2d28b5	0.010568787
176	0x3c19b042	0.009380402
177	0xbb282045	-0.0025654
178	0x3cb094f9	0.02155541
179	0xbc0220f1	-0.007942424
180	0x3b86f6fb	0.004118798
181	0xbbbb28f7	-0.0057116705
182	0x3cebd909	0.028790014
183	0xbcf88166	-0.03033514
184	0x3cb86dc4	0.022513278
185	0x3cf6816c	0.03009101
186	0x3c862405	0.016374597
187	0x39e9f3f3	0.0004462298
188	0x3cdf20f6	0.027237397
189	0xbc95d5c2	-0.018290404
190	0xbccb96c1	-0.024852159
191	0xbc586ae2	-0.013209077
192	0xbc4dc00a	-0.012557993
193	0xbd2af1ed	-0.041734625
194	0xbcd25b48	-0.025678292
195	0x3d46f16a	0.048570074
196	0x3d20566e	0.039144926
197	0x3d1d721e	0.03843891
198	0xbb9df8d7	-0.004820924
199	0xbcf6dc24	-0.030134268
200	0x3cb5ced1	0.022193344
201	0xbc7c19d4	-0.015387017
202	0x3d508b56	0.05091413
203	0xbd339911	-0.043847147
204	0xbc054bac	-0.008135717
205	0x399abfe6	0.00029516144
206	0xbcb9f56e	-0.022700038
207	0xbcb41cb9	-0.021986352
208	0xbd10ed85	-0.035382766
209	0xbd3523d4	-0.04422362
210	0x3b6f0765	0.0036472913
211	0x3b8a87ea	0.004227628
212	0x3bb47250	0.005506791
213	0x3d01b5b5	0.03166743
214	0xbd061796	-0.032737337
215	0x397dfcb8	0.00024222105
216	0xbc9a628c	-0.018845819
217	0xbcc4d562	-0.02402753
218	0x3c43814f	0.011932685
219	0x3c1e4ee6	0.009662366
220	0x3ca8181f	0.020519314
221	0xbb5a6497	-0.0033324116
222	0xbc77ae7d	-0.015117285
223	0x3c4803cf	0.012207939
224	0x3cfd386e	0.030910697
225	0xbcf80579	-0.030276047
226	0x3ab8c271	0.0014096034
227	0xbc7630d8	-0.015026294
228	0xbcacc6fd	-0.021090979
229	0xbc637a57	-0.013884149
230	0xbd10a4c6	-0.03531339
231	0xbcfae5e9	-0.030627208
232	0xbc019509	-0.007909068
233	0x3d10e0a3	0.03537048
234	0x3d3fca89	0.046824012
235	0xbcae19d7	-0.021252556
236	0xbcc6f22e	-0.024285402
237	0x3ca966b9	0.020678865
238	0x3b9554ef	0.004557244
239	0xbc493e7b	-0.012282963
240	0x3bf7343a	0.0075440677
241	0x3c4a32ec	0.012341242
242	0xbcfc93a4	-0.03083212
243	0xbb62a214	-0.003458147
244	0x3d19cb0e	0.037547164
245	0xbcdca1ef	-0.026932685
246	0xbbfb58cf	-0.007670499
247	0xbc98b443	-0.018640643
248	0xbd7e211a	-0.062043287
249	0xbd129de7	-0.03579512
250	0xbc03854a	-0.008027384
251	0x3cf32a99	0.029683398
252	0xb95ceed5	-0.00021069807
253	0x3c40e237	0.011772684
254	0xbc99ac71	-0.018758984
255	0x3c3de80c	0.011590969

tril f4 [14, 14]
0	0x3f800000	1.0
1	0x00000000	0.0
2	0x00000000	0.0
3	0x00000000	0.0
4	0x00000000	0.0
5	0x00000000	0.0
6	0x00000000	0.0
7	0x00000000	0.0
8	0x00000000	0.0
9	0x00000000	0.0
10	0x00000000	0.0
11	0x00000000	0.0
12	0x00000000	0.0
13	0x00000000	0.0
14	0x3f800000	1.0
15	0x3f800000	1.0
16	0x00000000	0.0
17	0x00000000	0.0
18	0x00000000	0.0
19	0x00000000	0.0
20	0x00000000	0.0
21	0x00000000	0.0
22	0x00000000	0.0
23	0x00000000	0.0
24	0x00000000	0.0
25	0x00000000	0.0
26	0x00000000	0.0
27	0x00000000	0.0
28	0x3f800000	1.0
29	0x3f800000	1.0
30	0x3f800000	1.0
31	0x00000000	0.0
32	0x00000000	0.0
33	0x00000000	0.0
34	0x00000000	0.0
35	0x00000000	0.0
36	0x00000000	0.0
37	0x00000000	0.0
38	0x00000000	0.0
39	0x00000000	0.0
40	0x00000000	0.0
41	0x00000000	0.0
42	0x3f800000	1.0
43	0x3f800000	1.0
44	0x3f800000	1.0
45	0x3f800000	1.0
46	0x00000000	0.0
47	0x00000000	0.0
48	0x00000000	0.0
49	0x00000000	0.0
50	0x00000000	0.0
51	0x00000000	0.0
52	0x00000000	0.0
53	0x00000000	0.0
54	0x00000000	0.0
55	0x00000000	0.0
56	0x3f800000	1.0
57	0x3f800000	1.0
58	0x3f800000	1.0
59	0x3f800000	1.0
60	0x3f800000	1.0
61	0x00000000	0.0
62	0x00000000	0.0
63	0x00000000	0.0
64	0x00000000	0.0
65	0x00000000	0.0
66	0x00000000	0.0
67	0x00000000	0.0
68	0x00000000	0.0
69	0x00000000	0.0
70	0x3f800000	1.0
71	0x3f800000	1.0
72	0x3f800000	1.0
73	0x3f800000	1.0
74	0x3f800000	1.0
75	0x3f800000	1.0
76	0x00000000	0.0
77	0x00000000	0.0
78	0x00000000	0.0
79	0x00000000	0.0
80	0x00000000	0.0
81	0x00000000	0.0
82	0x00000000	0.0
83	0x00000000	0.0
84	0x3f800000	1.0
85	0x3f800000	1.0
86	0x3f800000	1.0
87	0x3f800000	1.0
88	0x3f800000	1.0
89	0x3f800000	1.0
90	0x3f800000	1.0
91	0x00000000	0.0
92	0x00000000	0.0
93	0x00000000	0.0
94	0x00000000	0.0
95	0x00000000	0.0
96	0x00000000	0.0
97	0x00000000	0.0
98	0x3f800000	1.0
99	0x3f800000	1.0
100	0x3f800000	1.0
101	0x3f800000	1.0
102	0x3f800000	1.0
103	0x3f800000	1.0
104	0x3f800000	1.0
105	0x3f800000	1.0
106	0x00000000	0.0
107	0x00000000	0.0
108	0x00000000	0.0
109	0x00000000	0.0
110	0x00000000	0.0
111	0x00000000	0.0
112	0x3f800000	1.0
113	0x3f800000	1.0
114	0x3f800000	1.0
115	0x3f800000	1.0
116	0x3f800000	1.0
117	0x3f800000	1.0
118	0x3f800000	1.0
119	0x3f800000	1.0
120	0x3f800000	1.0
121	0x00000000	0.0
122	0x00000000	0.0
123	0x00000000	0.0
124	0x00000000	0.0
125	0x00000000	0.0
126	0x3f800000	1.0
127	0x3f800000	1.0
128	0x3f800000	1.0
129	0x3f800000	1.0
130	0x3f800000	1.0
131	0x3f800000	1.0
132	0x3f800000	1.0
133	0x3f800000	1.0
134	0x3f800000	1.0
135	0x3f800000	1.0
136	0x00000000	0.0
137	0x00000000	0.0
138	0x00000000	0.0
139	0x00000000	0.0
140	0x3f800000	1.0
141	0x3f800000	1.0
142	0x3f800000	1.0
143	0x3f800000	1.0
144	0x3f800000	1.0
145	0x3f800000	1.0
146	0x3f800000	1.0
147	0x3f800000	1.0
148	0x3f800000	1.0
149	0x3f800000	1.0
150	0x3f800000	1.0
151	0x00000000	0.0
152	0x00000000	0.0
153	0x00000000	0.0
154	0x3f800000	1.0
155	0x3f800000	1.0
156	0x3f800000	1.0
157	0x3f800000	1.0
158	0x3f800000	1.0
159	0x3f800000	1.0
160	0x3f800000	1.0
161	0x3f800000	1.0
162	0x3f800000	1.0
163	0x3f800000	1.0
164	0x3f800000	1.0
165	0x3f800000	1.0
166	0x00000000	0.0
167	0x00000000	0.0
168	0x3f800000	1.0
169	0x3f800000	1.0
170	0x3f800000	1.0
171	0x3f800000	1.0
172	0x3f800000	1.0
173	0x3f800000	1.0
174	0x3f800000	1.0
175	0x3f800000	1.0
176	0x3f800000	1.0
177	0x3f800000	1.0
178	0x3f800000	1.0
179	0x3f800000	1.0
180	0x3f800000	1.0
181	0x00000000	0.0
182	0x3f800000	1.0
183	0x3f800000	1.0
184	0x3f800000	1.0
185	0x3f800000	1.0
186	0x3f800000	1.0
187	0x3f800000	1.0
188	0x3f800000	1.0
189	0x3f800000	1.0
190	0x3f800000	1.0
191	0x3f800000	1.0
192	0x3f800000	1.0
193	0x3f800000	1.0
194	0x3f800000	1.0
195	0x3f800000	1.0

weight f4 [12, 96]
0	0x3dcac038	0.09899944
1	0xbe04b6bc	-0.12960333
2	0xbcdd19a3	-0.026989764
3	0xbdfe856b	-0.12427791
4	0xbdcee2b3	-0.10101833
5	0xbca51234	-0.020150281
6	0x3e094f3f	0.13409136
7	0xbe123e3c	-0.14281553
8	0x3dc09fd8	0.09405488
9	0xbbb20e0e	-0.0054338044
10	0xbe0b1f3b	-0.13586132
11	0x3c7a1909	0.015264758
12	0x3ddd9d87	0.108210616
13	0xbe15f766	-0.14645156
14	0xbd79623d	-0.060884703
15	0x3e177f42	0.14794639
16	0x3d903b43	0.07042553
17	0x3e42092f	0.18948816
18	0x3e27aa38	0.16373527
19	0xbd6b6834	-0.057472423
20	0xbda5c8fa	-0.08094974
21	0x3ca09b35	0.019605258
22	0x3cfc948d	0.030832553
23	0xbe0031a5	-0.12518938
24	0x3dc4d68c	0.09611234
25	0x3d2e519a	0.04255829
26	0xbdca357a	-0.09873481
27	0x3db2bd42	0.08727504
28	0xbe0c3976	-0.13693795
29	0x3e1c365d	0.15255113
30	0xbc523631	-0.012830303
31	0x3d180690	0.037115633
32	0xbc0ccf9f	-0.008594423
33	0x3d025053	0.031814884
34	0x3dbfbe9c	0.09362528
35	0xbd4e165f	-0.050314303
36	0x3d8c1d20	0.06841493
37	0x3dcef98b	0.1010619
38	0x3b8a8e33	0.0042283772
39	0x3e45c9dd	0.19315286
40	0x3d1df0ff	0.03855991
41	0xbd40019e	-0.046876542
42	0xbe0ee1e9	-0.13953365
43	0x3d51b9b3	0.051202487
44	0x3e53aa91	0.20670535
45	0xbdaad948	-0.08342224
46	0xbdecc8dd	-0.11561749
47	0x3d870ba0	0.06594014
48	0x3dbee389	0.09320743
49	0xbc705639	-0.014668995
50	0x3d028fd1	0.031875435
51	0x3bccc22f	0.0062487344
52	0xbd54f6b1	-0.051993076
53	0x3ddec619	0.10877628
54	0xbda9b687	-0.082867675
55	0x3cbf85a2	0.02337915
56	0x3d646059	0.055755947
57	0xbc625f4e	-0.013816668
58	0x3c87186b	0.016491136
59	0xbd8dd971	-0.06926239
60	0x3d63aa4a	0.055582322
61	0x3d524f6a	0.051345266
62	0x3d9f5f7b	0.07781883
63	0x3d93cad3	0.0721642
64	0xbda26754	-0.079298645
65	0xbe1cff4b	-0.15331762
66	0x3c80b8ad	0.01571306
67	0xbd7e8a9b	-0.062143903
68	0xbd18c0f4	-0.03729339
69	0x3d469641	0.048483137
70	0x3c755ebc	0.0149762
71	0x3e1ec26e	0.15503857
72	0x3ce45d1d	0.027876431
73	0x3c33e7b2	0.010980533
74	0xbe02a783	-0.12759213
75	0x3ca569f3	0.020192122
76	0x3cbd59e4	0.023114152
77	0xbded0c79	-0.115746446
78	0x3e538221	0.20655109
79	0x3d9952f5	0.07486526
80	0xbe2a366b	-0.16622321
81	0xbe20cc89	-0.15703024
82	0xbe33e51c	-0.17567867
83	0x3ddf99e6	0.10918026
84	0xbdfae343	-0.12250378
85	0x3d9f257d	0.07770822
86	0x3c5514cb	0.013005446
87	0x3da21b24	0.07915333
88	0xbe2e1d97	-0.17003475
89	0xbd9e0fed	-0.07717881
90	0x3e51f68a	0.20504203
91	0xbd6f2829	-0.05838791
92	0xbdc1d56a	-0.094645336
93	0x3cc02964	0.023457237
94	0xbe784c7b	-0.24247925
95	0xbd5767f5	-0.052589376
96	0x3e213dfb	0.157463
97	0xbd6bf3e2	-0.05760563
98	0xbbfc6730	-0.0077027306
99	0xbc715112	-0.014728801
100	0xbdcb8c46	-0.099388644
101	0xbda0bf72	-0.07849015
102	0x3d7b6e55	0.061384518
103	0xbdd57729	-0.104231186
104	0x3d331e31	0.043729965
105	0x3ca4c3f4	0.020112969
106	0xbc86579d	-0.0163992
107	0xbc737302	-0.014858963
108	0x3d43d136	0.04780694
109	0xbe1006cd	-0.14065094
110	0x3da53978	0.08067602
111	0x3d0c5079	0.034256432
112	0x3db2a14c	0.08722171
113	0x3d933e8d	0.07189665
114	0x3db273ac	0.08713469
115	0xbd866cac	-0.06563696
116	0xbda2cd9a	-0.07949372
117	0x3d51d81a	0.05123148
118	0x3c5ecb3b	0.013598259
119	0x3c3cb107	0.011516816
120	0x3d66ee39	0.05637953
121	0x3d1fe778	0.039039105
122	0xbd8d8ea1	-0.0691197
123	0x3dc57497	0.096413784
124	0xbe07526b	-0.13215034
125	0x3e0296c5	0.12752827
126	0xbe003259	-0.12519206
127	0x3d491168	0.049088866
128	0x3d9c95c9	0.07645757
129	0x3cfe4265	0.031037519
130	0x3cfef11d	0.031120831
131	0x3c7d5a43	0.015463415
132	0x3cee2740	0.02907145
133	0x3d91d665	0.07120971
134	0x3d4a32c1	0.04936481
135	0x3d75ef7c	0.060042843
136	0x3d02ae65	0.031904597
137	0x3d1723bd	0.036899317
138	0xbd75b67f	-0.059988495
139	0x3d48928d	0.048967887
140	0x3db467c6	0.08808856
141	0xbc0b9949	-0.008520433
142	0xbd7035d8	-0.0586451
143	0xbda2417c	-0.079226464
144	0x3e0cb66c	0.13741463
145	0x3d347836	0.044059955
146	0x3d7f2988	0.062295467
147	0xbc58cc03	-0.013232234
148	0xbc182242	-0.009285511
149	0x3ca8fb48	0.020627633
150	0xbda1f8f8	-0.07908815
151	0xbdb9d3d0	-0.09073603
152	0x3d5f3c11	0.054500643
153	0xbc987fee	-0.01861569
154	0x3d67f42f	0.056629356
155	0x3cae405f	0.021270929
156	0x3c4b13d8	0.012394868
157	0x3e05fe86	0.13085374
158	0x3c0359dc	0.00801703
159	0x3d9f9e3c	0.07793853
160	0xbde66e0a	-0.11251457
161	0xbd8d04ff	-0.068857186
162	0xbdf4e71d	-0.11958144
163	0xbcf32c63	-0.029684251
164	0xbc0b9e91	-0.008521692
165	0x3c3801fc	0.011230942
166	0x3d7b3798	0.061332315
167	0x3e0c2d13	0.1368907
168	0xbca99edf	-0.020705638
169	0x3cf2712f	0.029594986
170	0xbdd14f75	-0.10220233
171	0xbc06b8ef	-0.008222803
172	0xbc895f68	-0.016769126
173	0xbe0fed0c	-0.1405527
174	0x3e1a1839	0.15048303
175	0xbd861a25	-0.065479554
176	0xbdebd816	-0.115158245
177	0xbe3d2772	-0.18472078
178	0xbdeaac82	-0.114586845
179	0x3d8dec36	0.06929819
180	0xbda7c169	-0.08191187
181	0x3d7c36b5	0.06157561
182	0x3c516090	0.01277937
183	0x3dfa1081	0.12210179
184	0xbdf0a7aa	-0.117507294
185	0xbdfb4e9f	-0.12270855
186	0x3e1b93ed	0.15193148
187	0x3d022c0b	0.031780284
188	0xbd1320f6	-0.035920106
189	0x3c57d9ae	0.0131744575
190	0xbe17fd65	-0.14842756
191	0x3d41c6fb	0.047308903
192	0x3d223b42	0.039607294
193	0xbd048291	-0.03235108
194	0x3db31eb3	0.0874609
195	0x3d9b91cf	0.0759617
196	0xbe107c6f	-0.14109968
197	0xbe01f233	-0.12690048
198	0x3d186712	0.03720767
199	0x3d750849	0.059822354
200	0xbdb048a7	-0.08607607
201	0x3d87ddef	0.06634127
202	0x3c9344df	0.017977176
203	0x3db0ef54	0.08639398
204	0x3d755018	0.059890836
205	0xbe236b05	-0.15958793
206	0x3d257a85	0.040400047
207	0xbc9406c9	-0.018069642
208	0xbce197c0	-0.02753818
209	0x3d02dbbf	0.031947847
210	0x3cab7b44	0.020932801
211	0xbcda5211	-0.02665046
212	0x3d7629f9	0.060098622
213	0xbda45f5c	-0.08026001
214	0x3dcf2c2e	0.101158485
215	0x3dc3e53e	0.09565209
216	0x3d46f8c5	0.04857709
217	0xbd39b6c5	-0.04534032
218	0xbd1ace00	-0.037794113
219	0xbd6c92c9	-0.057757173
220	0xbdda840e	-0.10669719
221	0x3dfb526e	0.122715816
222	0xbd980cec	-0.0742434
223	0x3ca0f765	0.019649217
224	0x3d9ecffd	0.07754514
225	0xbd72c3e8	-0.059268862
226	0xbc005994	-0.007833857
227	0xbca1c73c	-0.019748323
228	0xbde00d26	-0.10940008
229	0x3dff1dfd	0.12456892
230	0x3c1ab708	0.009443052
231	0x3c86a52d	0.016436184
232	0x3d2f5b69	0.042811785
233	0xbd83ccb4	-0.064355284
234	0x3ceba2db	0.028764179
235	0xbd1d48cf	-0.038399514
236	0x3e06f489	0.1317922
237	0xbb0940f4	-0.0020943256
238	0x39b0c6dc	0.00033717498
239	0xbe2e55fb	-0.17024986
240	0x3e0ad6fe	0.13558576
241	0xbcc4a938	-0.024006471
242	0x3b412246	0.0029469891
243	0xbd597120	-0.0530864
244	0x3c4d17da	0.012517894
245	0x3dd49d67	0.103815846
246	0xbe242b58	-0.1603216
247	0x3b6bc613	0.0035976216
248	0x3da91a34	0.08256951
249	0xbcf56be3	-0.029958671
250	0x3dee93b8	0.11649269
251	0xbbe4e030	-0.006984733
252	0x3cc2f6f7	0.023799403
253	0x3c156dd1	0.009120421
254	0xbdef62f5	-0.116887964
255	0x3d828b45	0.0637422
