model/AT_FINAL.pth (torch, 986982 bytes, 90 tensors)

weight f4 [14, 96]
00000000: 4aa6 383b d7c1 24bc d0d1 323c acfc ad3a
00000010: 128c c6bc 1da6 173d 928a 2f3b 4e48 47bd
00000020: 02c4 d3ba b676 51bb 18e5 443b 5227 6fbb
00000030: 162b 5dbb b619 58bc 6f9a 3e3d c235 063c
00000040: b7b3 24bc 1862 dcbc dff3 c2bb ea67 993b
00000050: a626 d8bc cc40 513b ab96 09bd b670 45bd
00000060: 83bb 753c 4260 303a 5fd6 bf3c 2d05 873b
00000070: dc8b 2abc 0b7a 1c3c 6c09 94b9 d7d9 8a3c
00000080: 1e51 d3bb f2d3 90bc e819 f0bc dbe2 953c
00000090: 71b5 0e3b cd8a 23bc 8e23 653c a304 9c3c
000000a0: 3a98 0abc 4b31 cbbc ee80 36bc efc9 24bc
000000b0: 5e27 893c 6646 a2bb 864b d03a f803 29bb
000000c0: d7a6 d3bc 1a57 89ba 1b9d 2d3d d78d e63b
000000d0: 97f5 c9bc f024 8b3c 94d9 90bc 24e3 dd3c
000000e0: 51e4 1cbb a466 703b 1e45 673b 9f0b ff3c
000000f0: 08f8 08bb eaa0 8fbb 6f87 e23c c26e cc3a
00000100: 8bb6 123d 70e6 9dbc 28bb dfbc 013a c9b9
00000110: 7beb c7bc 1a90 c93b aad5 5dbc c73e 823c
00000120: 0e93 0c3d 7b86 1bbc a886 1a3d b75b b13c
00000130: 74dc dbbc 2a2a b63c bf36 503b d6b1 e93b
00000140: ff46 95bc 9887 8e3c 7a7e b5bc aadb d8bc
00000150: 23e0 b5bc 51fa dcbc cd59 87bb 6744 aebc
00000160: 3b2a 1cbd 6baa 87bc afc4 a03b 6334 7cbc
00000170: 344d afbc 37b7 a5b9 d866 75bb 50f6 bf3c
00000180: 5dcb 0f3d 614d 4cbd c19d f83c 765d 333d
00000190: ddf0 b13b d868 bcbc 37ef d93a 0121 2dbd
000001a0: c73f 1b3d 5245 cb3a 1f20 e7bc e603 f2bb
000001b0: e8d0 273d 3a56 59bc f4a9 96bb 6f0c 563d
000001c0: 0f56 a43c 2724 203d d2c2 7cbc 4ab4 58bc
000001d0: 4186 7a3d 628a 16bd 8789 39bc 2d4a 893c
000001e0: f1a3 c5bc c446 ed3c 5314 ffbc 5cb4 87bc
000001f0: 66df 0039 613c bcbc 6463 c33c 075c 91bc
00000200: 39a3 063d b6fb 353b f76c 69bc da16 f3bc
00000210: 9f08 403d 1e58 ce3c 9f04 293a bf4c d9bc
00000220: 9faf 57bb 0303 c93b 7f71 b9bc 2ab7 20bc
00000230: 432b f3bb 1da6 a53c 9311 94bc ab10 92bb
00000240: 3bed 9ebc 9759 233d 0fa9 afbc 3724 72bc
00000250: f1de 00bd b780 72bc 52d5 67bb 467e e339
00000260: 4c0b a2bc cd51 0e3c 2437 28bd 0d06 0d3d
00000270: cdbb ad3c e2fc 9e3c 4d11 0c3c 6472 cb3c
00000280: e6e7 103d 8b7f 6b3d bce8 98bc 09de 2c3d
00000290: 99df 803c 4c0b c63c 314b 4dbd d85e 9b3c
000002a0: 2c6a b93c dfad e3bc 776c 4d3b d457 68bb
000002b0: 920c aabc 7baa cebc de3c 143d 03ed 45bc
000002c0: 5a2e 5a3c e2b9 acbb 7e3a 3d3d e89a 01bd
000002d0: 1e3e aabc 6559 953b 62c0 913c 397f 273d
000002e0: 934e 05bc a2fb 62bc 41de dcbc 655e a5bc
000002f0: f0ea 97b8 1c39 09bd 890c 58bc 9ad9 ffbb
00000300: b4dc b6bb b8b6 f23c ded8 0cbc 0951 cfbc
00000310: 7838 e7bc 4290 68bd 3ace 50bb 045f 843c
00000320: 157a 9ebc ddd4 823b 198e e33c 09e7 e1bc
00000330: f80d 8f3c 4fe1 46bc 0d4c b53c f79a b43b
00000340: 48fd 1d3b 3e86 d83b c372 23bc 7222 523c
00000350: c972 0cbd 6bd4 12bd ddfe 613c 3beb 3b3d
00000360: 6a51 67b8 3018 5c3d 4cb6 11bd bc7c b13c
00000370: 7ca0 9fbb aa10 e7bb a8bf 0a3d cb35 97bc
00000380: 5763 083c d9c4 dfba fd26 f2bb c3dc f43c
00000390: 6628 043d d11e a33c 45b4 26bd 9298 5abd
000003a0: 312c fa3c 5e85 4c3d e200 1ebd b900 7c3c
000003b0: 6e80 243b f9c2 10bd a31b 2dbc efeb 5c3d
000003c0: 0def 463b 0eab 97bc c560 cbbc 27cf 803c
000003d0: 6f0e f6bc 1691 50bc 00d2 b8bc 21f6 7f3c
000003e0: e491 d73c 48c8 fabb 2041 7d3d 7e26 cc3c
000003f0: 58e2 0b3c 85c5 f3bc e744 9c3c 6fa5 123c
0.0028175288 -0.010055981 0.010914281 0.0013274155 -0.024236713 0.037023652 0.0026785475 -0.04865294
-0.0016156437 -0.0031961626 0.0030043777 -0.0036491943 -0.0033747605 -0.013189724 0.046533998 0.008191528
-0.010052613 -0.026902243 -0.005949482 0.004681577 -0.026385617 0.003192949 -0.033590954 -0.048203193
0.01499832 0.0006728211 0.02341765 0.00412049 -0.010409322 0.009550582 -0.0002823578 0.016949577
-0.006448879 -0.017679188 -0.029309228 0.01829665 0.0021775628 -0.009981823 0.013985528 0.01904518
-0.008459145 -0.024803778 -0.011139138 -0.01005791 0.016742405 -0.00495224 0.0015891648 -0.002578972
-0.025836391 -0.0010478229 0.042386156 0.0070359516 -0.02465324 0.016985387 -0.017681874 0.027085848
-0.0023939798 0.0036682272 0.0035289 0.031133471 -0.0020899791 -0.004383196 0.02765247 0.0015596973
0.035818618 -0.01927492 -0.027310923 -0.00038380924 -0.024404278 0.0061512114 -0.013539711 0.015899075
0.03431993 -0.009492512 0.037726074 0.021650178 -0.026838519 0.022236902 0.0031770912 0.0071317954
-0.01822233 0.01739864 -0.022155035 -0.026471931 -0.022201603 -0.026974829 -0.004130578 -0.021272851
-0.03812621 -0.016560754 0.004906259 -0.015393349 -0.021399118 -0.00031607758 -0.0037445333 0.02343288
0.03510605 -0.04987848 0.03034866 0.043790303 0.0054303245 -0.022999212 0.0016627078 -0.042267803
0.03790262 0.001550833 -0.028213559 -0.0073857186 0.040970713 -0.013265187 -0.0045978967 0.05225795
0.020060567 0.039096978 -0.015427308 -0.013226578 0.06116319 -0.036753066 -0.011324293 0.016759003
-0.024126025 0.028964408 -0.031137621 -0.016565494 0.00012290254 -0.02297801 0.023851104 -0.017744077
0.032870505 0.002776844 -0.014247171 -0.029673982 0.04688322 0.025188502 0.0006447527 -0.026525853
-0.0032911075 0.006134392 -0.022637127 -0.009809295 -0.0074209287 0.02022081 -0.018074786 -0.0044575534
-0.01940023 0.03988036 -0.021442918 -0.014779142 -0.031462613 -0.014801196 -0.0035374952 0.00043390895
-0.019780777 0.008686495 -0.04106821 0.0344296 0.021207714 0.019407693 0.008549047 0.02483482
0.035377406 0.05749468 -0.018665664 0.042203937 0.01573162 0.024175309 -0.050120536 0.018966123
0.022633635 -0.02779287 0.0031345168 -0.003545274 -0.020757947 -0.025227776 0.03619086 -0.012080434
0.013316715 -0.0052711824 0.04619836 -0.03164187 -0.020781573 0.004557776 0.01779193 0.040892813
-0.008136409 -0.013853939 -0.026961448 -0.020186612 -7.2440016e-05 -0.03350173 -0.013186582 -0.0078079225
-0.005580509 0.029628143 -0.008596627 -0.025307195 -0.028225169 -0.0567782 -0.0031861202 0.016158588
-0.019345323 0.0039926604 0.027777718 -0.027575986 0.017462716 -0.012138679 0.02213099 0.0055116373
0.0024107266 0.0066078 -0.009976092 0.012825595 -0.034289155 -0.03584711 0.013793674 0.04587863
-5.5150515e-05 0.053734004 -0.035574242 0.021665923 -0.004871426 -0.007051547 0.033874184 -0.018458268
0.008324466 -0.0017072215 -0.0073899017 0.029890424 0.03226509 0.019912155 -0.040699262 -0.05336816
0.03053865 0.049931876 -0.03857506 0.015381032 0.0025100964 -0.03534219 -0.010565671 0.05393594
0.0030354888 -0.018514182 -0.024826417 0.015723778 -0.03003618 -0.012729904 -0.022561073 0.015622647
0.026314683 -0.00765327 0.061829686 0.024920698 0.008537851 -0.02975727 0.019075824 0.008950575

weight f4 [19, 96]
00000000: 7c3a e83b 5b27 c53a 4a8c 483d 5e0a fc3b
00000010: 6500 463b 2565 a9bc 657f 17bb 77c1 88bc
00000020: 7b1c da3c dcb4 ec3c fff5 4b3d 0625 e8b9
00000030: 6c44 bf3a 9325 6aba b42d 513d 7acd 803c
00000040: 248d 5e3c 6112 50ba f038 23bc d3d6 8d3c
00000050: 0b08 1b3d 98b1 98bb 5841 57bc d80b 503d
00000060: dc59 c9bc 0351 baba 44e9 6a3c 5c55 39bd
00000070: 61dd a33c a644 af3a 93d8 933c c8fa 803c
00000080: a983 d33b 3bbd 90bc 797d c3bc 9d56 f9bb
00000090: 6dc9 b53c 2fdd 9539 bccc 9c3c 22a6 90bd
000000a0: efb6 95bc c161 253d 15cc fabc 71f4 123d
000000b0: 3345 35bb 89cd 50bd b1fb b0bc 844f c5bc
000000c0: 14c9 83bc f9d0 dc3c ec15 3cbc c0eb 97bc
000000d0: f279 c33b 196f 77bc a160 a73c ed9a fe3b
000000e0: e2a9 9ebc 9ca1 7bbc 5e0a ffbb e3a9 87bc
000000f0: 948d 493c fd0c d2bc b88d 9dbc c0bb 9a3c
00000100: ba61 283c 7eea e5bc 07e5 46bc 29f4 413d
00000110: 70c8 1abc ab2f b33c 6c46 d5bc 5afb 4ebd
00000120: 8ee6 ec3a 8ae2 803c 1b46 10bd 90fe d83c
00000130: eb83 31bd 4645 9d3b b075 65bc a919 de3b
00000140: 292d 8b3c 08c0 43bd d5d5 773c 9b3b 6cbd
00000150: 8f3a 10bd 2d2c c9bc 0223 323d 7485 8d3c
00000160: 3abf 72ba 30bc 01bc 8855 b2bc f10a fd3c
00000170: 2499 d0bb a528 a4bc 2153 13bb f54c 863d
00000180: 81f2 2f3c 22c2 81bd 965a 1f3d ee0f d6bc
00000190: 4b5b 953c 5eb2 3cbb c58a 193d d781 033d
000001a0: 4c85 813c 0815 31bc 27c1 a73c 7f84 b4bc
000001b0: 0d01 54bc c997 123d c095 7abc 1739 f1bc
000001c0: d5e2 363c 0c30 90bc f492 b9bc d3ba a03c
000001d0: c5f1 e03a 684b 19bc 9e33 97bc ab15 b0bc
000001e0: 77da c9bc 6588 013d f854 133c c3e1 2dbc
000001f0: c539 353d 49d5 d5bc f422 5d3c 6a6b 0b3d
00000200: 429a e9bc e659 b53c 4b83 a73c e67e 5bbc
00000210: df50 033c 3f1b 853c 50ac 92bb 6d50 b2bc
00000220: 2ecf e13b 06cb b239 2c01 ca3b dcaf 3dbc
00000230: 299f 83bc d848 d3ba 491d c03a 7b2e b5bc
00000240: 0d3b 5a3c c188 f93b b997 8ab9 95fb c53c
00000250: 758e 7bbd 1d51 803c a1aa 24bb 2225 c5bc
00000260: 778f f1bc d83c 4dbc 234e f33c 4756 133d
00000270: 97f2 f4ba 635a 6cbd dad3 9cbc f2af f7bc
00000280: 89a8 853b 3cf7 cebc 5659 0a3d 44f0 793b
00000290: 726c a63c 324b a3bc 4a96 4d3c e50a ed3c
000002a0: e8bc 50bc 7216 81bd 1287 5d3c 88d5 c4bb
000002b0: 3808 1b3d 9aa9 c33c f243 273c cc17 06bd
000002c0: fe5c 37bc ab08 373c 184d a3bc 9382 543c
000002d0: fd28 023c e05e 7d3c 0d2b b8bc 20f4 be3b
000002e0: 4dc9 20bd 0315 42bc 3713 133b 04bd eebc
000002f0: 2794 923c ebb4 15bd 438d 063c 5bd9 f4bc
00000300: 62d5 bcbc 5df8 733c 54e6 21bd 1afa 043d
00000310: 1c5d 713c 659c 0dbc 99cf c43b 4a0b 023d
00000320: e013 47bb 5109 2a3b 6e2b 3bbb d946 34bd
00000330: f63a ab3c d7de 053d f5bf 46bd 5399 c93c
00000340: f0a0 6abc f95e 0a3d 6bc0 62bc cb62 bdbc
00000350: b733 dc3c 51cb 553b d3ae 213d f189 57bc
00000360: 40ff 123b 2c15 45bd 4580 803c d2c6 e83c
00000370: 7037 4fbd 66af 3a3d d59f 03bd 70e4 8a3c
00000380: a6e9 6fbc 29f4 743a a3f2 46bc 2b73 38bd
00000390: 7fca f53b efe1 6ebc 18ba bd3c a0c8 353a
000003a0: b3bc 83bc 5517 1dbc 8fa0 023d f347 3bbd
000003b0: 0380 003c 36c1 693c 9805 853b 4f04 533d
000003c0: 59dc b938 8ee2 34bd 3552 c3b9 a0d5 10bd
000003d0: edf6 6f3c 2876 eabb 8908 18bd 903b 73bc
000003e0: e1be 7d3c ab90 673c ea41 bc3c 2b9a b0bc
000003f0: f8c2 c63c be35 afbb 74f5 6cbd 5f06 a63b
0.00708705 0.0015041636 0.048961915 0.0076916656 0.0030212638 -0.020678112 -0.0023116705 -0.016693814
0.026624909 0.028894834 0.049795147 -0.00044278073 0.0014592535 -0.00089319906 0.051068977 0.015722979
0.013583455 -0.0007937309 -0.009962305 0.01731435 0.037849467 -0.0046598427 -0.013138138 0.050792545
-0.024578981 -0.0014214817 0.014337841 -0.04524742 0.020003023 0.0013371899 0.018047607 0.015744582
0.006454904 -0.017668357 -0.023863541 -0.007609202 0.022190774 0.0002858429 0.019140594 -0.07062937
-0.018275706 0.04037643 -0.030614892 0.03587765 -0.0027659654 -0.050977264 -0.02160439 -0.024085768
-0.016087092 0.026955115 -0.011479836 -0.018545032 0.0059654647 -0.015102171 0.020431818 0.0077699334
-0.019368116 -0.015358355 -0.0077832183 -0.0165605 0.012301821 -0.025640959 -0.019232616 0.018888354
0.010277206 -0.028065916 -0.012139565 0.04735199 -0.009447202 0.021873316 -0.026034556 -0.050532676
0.0018074082 0.015733022 -0.035223108 0.026488572 -0.043338697 0.004799518 -0.01400511 0.0067779613
0.016989307 -0.047790557 0.015126665 -0.05767403 -0.035212096 -0.024557197 0.043490417 0.01727555
-0.00092600624 -0.007918403 -0.0217693 0.030889006 -0.006365912 -0.020038912 -0.0022479969 0.06557647
0.01073897 -0.06335856 0.03890475 -0.026130643 0.018232008 -0.0028792839 0.037485857 0.032106247
0.015810631 -0.010808237 0.020477844 -0.022035835 -0.012939704 0.035789285 -0.015294492 -0.029446168
0.011162479 -0.017601036 -0.02265308 0.019620335 0.0017161897 -0.009356357 -0.01845723 -0.021494707
-0.024640305 0.031624217 0.008992426 -0.010612908 0.044244546 -0.026102679 0.013497103 0.034037985
-0.028515939 0.022137593 0.020448348 -0.013396954 0.008014887 0.016248344 -0.0044761077 -0.021766866
0.006891153 0.0003410207 0.0061646905 -0.011577573 -0.016067104 -0.0016119732 0.0014657165 -0.02211689
0.013319743 0.0076151793 -0.00026434453 0.024167815 -0.061415154 0.015663678 -0.0025126117 -0.024065558
-0.029487355 -0.012526713 0.029700344 0.035970952 -0.001868802 -0.057703387 -0.019143987 -0.030235264
0.004078929 -0.025264375 0.033776604 0.0038137594 0.020315383 -0.019933317 0.012548039 0.028935859
-0.012740351 -0.06303109 0.013520973 -0.0060069 0.037849635 0.023884583 0.0102090705 -0.03273754
-0.011191605 0.0111715 -0.019934222 0.012970584 0.007944343 0.0154645145 -0.022481466 0.005827442
-0.039254475 -0.01184583 0.0022441873 -0.029142864 0.01789291 -0.03654949 0.00821239 -0.0298888
-0.023050968 0.014890757 -0.0395263 0.032465078 0.014731672 -0.008643244 0.006006193 0.031749047
-0.0030376837 0.0025945494 -0.0028559822 -0.044012878 0.020902138 0.03268322 -0.04852291 0.024609243
-0.014320597 0.03378198 -0.013839821 -0.023118397 0.026880128 0.0032622407 0.039473366 -0.013155446
0.0022429973 -0.048115894 0.015686164 0.028415117 -0.05058998 0.04557743 -0.03213485 0.01695463
-0.0146431085 0.0009344244 -0.01214281 -0.045031708 0.007500946 -0.014580234 0.023160025 0.00069344975
-0.01608119 -0.009588082 0.0318914 -0.045722913 0.00784302 0.0142672565 0.0040595047 0.05151778
8.8625304e-05 -0.044161372 -0.00037254547 -0.03535998 0.014646274 -0.0071551986 -0.037117515 -0.014845744
0.015487404 0.014133613 0.022980649 -0.021557888 0.02426289 -0.0053469827 -0.05785127 0.0050666775

tril f4 [19, 19]
00000000: 0000 803f 0000 0000 0000 0000 0000 0000
00000010: 0000 0000 0000 0000 0000 0000 0000 0000
00000020: 0000 0000 0000 0000 0000 0000 0000 0000
00000030: 0000 0000 0000 0000 0000 0000 0000 0000
00000040: 0000 0000 0000 0000 0000 0000 0000 803f
00000050: 0000 803f 0000 0000 0000 0000 0000 0000
00000060: 0000 0000 0000 0000 0000 0000 0000 0000
00000070: 0000 0000 0000 0000 0000 0000 0000 0000
00000080: 0000 0000 0000 0000 0000 0000 0000 0000
00000090: 0000 0000 0000 0000 0000 803f 0000 803f
000000a0: 0000 803f 0000 0000 0000 0000 0000 0000
000000b0: 0000 0000 0000 0000 0000 0000 0000 0000
000000c0: 0000 0000 0000 0000 0000 0000 0000 0000
000000d0: 0000 0000 0000 0000 0000 0000 0000 0000
000000e0: 0000 0000 0000 803f 0000 803f 0000 803f
000000f0: 0000 803f 0000 0000 0000 0000 0000 0000
00000100: 0000 0000 0000 0000 0000 0000 0000 0000
00000110: 0000 0000 0000 0000 0000 0000 0000 0000
00000120: 0000 0000 0000 0000 0000 0000 0000 0000
00000130: 0000 803f 0000 803f 0000 803f 0000 803f
00000140: 0000 803f 0000 0000 0000 0000 0000 0000
00000150: 0000 0000 0000 0000 0000 0000 0000 0000
00000160: 0000 0000 0000 0000 0000 0000 0000 0000
00000170: 0000 0000 0000 0000 0000 0000 0000 803f
00000180: 0000 803f 0000 803f 0000 803f 0000 803f
00000190: 0000 803f 0000 0000 0000 0000 0000 0000
000001a0: 0000 0000 0000 0000 0000 0000 0000 0000
000001b0: 0000 0000 0000 0000 0000 0000 0000 0000
000001c0: 0000 0000 0000 0000 0000 803f 0000 803f
000001d0: 0000 803f 0000 803f 0000 803f 0000 803f
000001e0: 0000 803f 0000 0000 0000 0000 0000 0000
000001f0: 0000 0000 0000 0000 0000 0000 0000 0000
00000200: 0000 0000 0000 0000 0000 0000 0000 0000
00000210: 0000 0000 0000 803f 0000 803f 0000 803f
00000220: 0000 803f 0000 803f 0000 803f 0000 803f
00000230: 0000 803f 0000 0000 0000 0000 0000 0000
00000240: 0000 0000 0000 0000 0000 0000 0000 0000
00000250: 0000 0000 0000 0000 0000 0000 0000 0000
00000260: 0000 803f 0000 803f 0000 803f 0000 803f
00000270: 0000 803f 0000 803f 0000 803f 0000 803f
00000280: 0000 803f 0000 0000 0000 0000 0000 0000
00000290: 0000 0000 0000 0000 0000 0000 0000 0000
000002a0: 0000 0000 0000 0000 0000 0000 0000 803f
000002b0: 0000 803f 0000 803f 0000 803f 0000 803f
000002c0: 0000 803f 0000 803f 0000 803f 0000 803f
000002d0: 0000 803f 0000 0000 0000 0000 0000 0000
000002e0: 0000 0000 0000 0000 0000 0000 0000 0000
000002f0: 0000 0000 0000 0000 0000 803f 0000 803f
00000300: 0000 803f 0000 803f 0000 803f 0000 803f
00000310: 0000 803f 0000 803f 0000 803f 0000 803f
00000320: 0000 803f 0000 0000 0000 0000 0000 0000
00000330: 0000 0000 0000 0000 0000 0000 0000 0000
00000340: 0000 0000 0000 803f 0000 803f 0000 803f
00000350: 0000 803f 0000 803f 0000 803f 0000 803f
00000360: 0000 803f 0000 803f 0000 803f 0000 803f
00000370: 0000 803f 0000 0000 0000 0000 0000 0000
00000380: 0000 0000 0000 0000 0000 0000 0000 0000
00000390: 0000 803f 0000 803f 0000 803f 0000 803f
000003a0: 0000 803f 0000 803f 0000 803f 0000 803f
000003b0: 0000 803f 0000 803f 0000 803f 0000 803f
000003c0: 0000 803f 0000 0000 0000 0000 0000 0000
000003d0: 0000 0000 0000 0000 0000 0000 0000 803f
000003e0: 0000 803f 0000 803f 0000 803f 0000 803f
000003f0: 0000 803f 0000 803f 0000 803f 0000 803f
1.0 0.0 0.0 0.0 0.0 0.0 0.0 0.0
0.0 0.0 0.0 0.0 0.0 0.0 0.0 0.0
0.0 0.0 0.0 1.0 1.0 0.0 0.0 0.0
0.0 0.0 0.0 0.0 0.0 0.0 0.0 0.0
0.0 0.0 0.0 0.0 0.0 0.0 1.0 1.0
1.0 0.0 0.0 0.0 0.0 0.0 0.0 0.0
0.0 0.0 0.0 0.0 0.0 0.0 0.0 0.0
0.0 1.0 1.0 1.0 1.0 0.0 0.0 0.0
0.0 0.0 0.0 0.0 0.0 0.0 0.0 0.0
0.0 0.0 0.0 0.0 1.0 1.0 1.0 1.0
1.0 0.0 0.0 0.0 0.0 0.0 0.0 0.0
0.0 0.0 0.0 0.0 0.0 0.0 0.0 1.0
1.0 1.0 1.0 1.0 1.0 0.0 0.0 0.0
0.0 0.0 0.0 0.0 0.0 0.0 0.0 0.0
0.0 0.0 1.0 1.0 1.0 1.0 1.0 1.0
1.0 0.0 0.0 0.0 0.0 0.0 0.0 0.0
0.0 0.0 0.0 0.0 0.0 1.0 1.0 1.0
1.0 1.0 1.0 1.0 1.0 0.0 0.0 0.0
0.0 0.0 0.0 0.0 0.0 0.0 0.0 0.0
1.0 1.0 1.0 1.0 1.0 1.0 1.0 1.0
1.0 0.0 0.0 0.0 0.0 0.0 0.0 0.0
0.0 0.0 0.0 1.0 1.0 1.0 1.0 1.0
1.0 1.0 1.0 1.0 1.0 0.0 0.0 0.0
0.0 0.0 0.0 0.0 0.0 0.0 1.0 1.0
1.0 1.0 1.0 1.0 1.0 1.0 1.0 1.0
1.0 0.0 0.0 0.0 0.0 0.0 0.0 0.0
0.0 1.0 1.0 1.0 1.0 1.0 1.0 1.0
1.0 1.0 1.0 1.0 1.0 0.0 0.0 0.0
0.0 0.0 0.0 0.0 1.0 1.0 1.0 1.0
1.0 1.0 1.0 1.0 1.0 1.0 1.0 1.0
1.0 0.0 0.0 0.0 0.0 0.0 0.0 1.0
1.0 1.0 1.0 1.0 1.0 1.0 1.0 1.0

weight f4 [12, 96]
00000000: 3a69 c1bd 52fb 723d 1ff9 babd d840 093d
00000010: a962 d73c b1b8 93bc 3032 b4bd 5199 573d
00000020: 6a4e b23a 9eef 96bc a7ae 8c3c 64df 14bd
00000030: 8d18 8f3d 9bc5 343d 5568 98bd a1c4 713d
00000040: 7b53 18bd 665e b73d 1946 203c 94fd 44bd
00000050: c325 bc3d 7c15 063c 7530 e13d 9456 5eb9
00000060: feb3 853d 08a8 17be 3166 d03d 6102 823d
00000070: e421 afbd 65bb 213e 8e71 a3bd ae65 5b3d
00000080: a1f2 d4bb 1062 023d f048 aabc 0a09 e9bd
00000090: 191d b2bb e4f8 d2bc 5bcd e63c dfff 833d
000000a0: 84bb 923c 4178 8fbc 3015 773d a143 acbd
000000b0: 9c7f 87bc 9451 bd3c 37d9 023d e895 683d
000000c0: c62a 1cbc bdd7 87bd 391c 2fbd d6a8 80bd
000000d0: 8088 f4bb ceca 40bc 5ff7 b8bd 6f0a c03c
000000e0: adae d83c f95b 563d 90aa 943d 0b03 bcbd
000000f0: 87f3 6a3d e600 2e3d 75ac 99bd 0bcd 9e3d
00000100: 14d4 5abd 4e61 913d 4eb4 0c3d ca65 183c
00000110: 78b6 74bc 844f 0dbd 9d91 733c 27bf 17bd
00000120: 4b1c 203d 081e d63d 9a01 ddbd 4723 bbbd
00000130: 1d9b a0bd b2f2 283e 5cc0 adbc 3115 b5bd
00000140: 0feb f6bc c58e 5fbc 0ea7 713d 8dc0 a7bd
00000150: 749f f5bb ee36 d9bc 787b 413d 6b28 d33c
00000160: 2713 8b3d ef2d cf3c badc f2bd 48ac 22bc
00000170: c7b2 f4bc aabb 983d f58c 5c3c e1ba c5bc
00000180: 3ad6 a0ba e588 a1bd f260 a63d ba83 44bd
00000190: eb3b 8e3c d059 89bd 2af3 333d fb3a 3f3d
000001a0: b2cb 79bc 7612 36bd 96cb 4c3d 8f09 07bd
000001b0: 5222 aa3c add3 923d 1577 54bd 9def b2bc
000001c0: a49c 2cbb 22cf 65bd cbea 99b9 0574 5ebb
000001d0: 7541 0a3d 615e 3fbd fb32 b7bc a553 043d
000001e0: 77f7 22bd af90 4e3d 269a af3c 0d62 a13c
000001f0: 7c54 543d 8a2c 25bd e587 2b3d 3b03 963d
00000200: 48d3 63bd 448d 493d e500 9c3c 9629 6f3c
00000210: 46cd 633c 12a7 533d 740e b63c 6d71 7bbd
00000220: 4056 cb3d 81d0 513c 9094 5a3c 34d0 83bd
00000230: 44db bdbc 5ed4 0ebc c51d 9a3b 63e1 c1bc
00000240: ea7d 933c 40dd 8d3c 43f7 d7bc 7ce9 413d
00000250: cb3a a0bd cf69 f7bb 2a3c 19bd e818 86bd
00000260: c956 8abd 6372 3cbd 88cb 963d 6a57 cf3d
00000270: 0090 0d3c 9150 b0bd b8ff 8cbc 0efc 81bc
00000280: 5633 e23b 6bc0 6fbd 6e98 023d 9eea d9ba
00000290: 435c db3c d85f 3bbb ce19 133d f43f 983b
000002a0: 6ebc 52bb 40d8 afbd 71e9 983d 43a0 d53c
000002b0: 9df0 ac3d 646f 9e3d 37ed 2c3c 75f5 a8bc
000002c0: e07e a3bd 975e e93b ec7d f43c 9663 0b3d
000002d0: 13d0 60bc 1d91 4d3d 9970 3fbd 1b63 233c
000002e0: 4f21 6abd e31e 96bc 38a3 82bc d474 14bd
000002f0: b8c2 bd3c dbcb 25bc f635 1e3d 8ead 0abd
00000300: fe08 54bd 34e6 d53d 0677 5abd 5d83 b53d
00000310: f530 adbb 8d82 ee3c 377b 6bbd a556 61bd
00000320: db58 65bd 9344 b9b9 d4b0 99bc 95ef 063c
00000330: bcd9 fe3c acb8 5dbc a581 71bc 54ff 153d
00000340: f7fa 273c c0cf 163d 408d b83c 51d1 96bc
00000350: 0f77 a8bc 2b3b 2f3d b4f7 843d 83ca 8fbc
00000360: 71a4 803d c4b9 98bd b25c d1bc 4119 983c
00000370: 94d8 96bd b2a0 8d3d 7e1d babd 1125 9bbd
00000380: ac09 17bd 91b7 dfbc 22a0 80bd 1cfb 763c
00000390: 84bd 033d 43f9 8abd 0eff ae3c 0e4f 363c
000003a0: 7f40 8fbc bca6 e13c 1560 fdbc 554b 493d
000003b0: dabd 033d 2753 f8bc 7094 62bc b76b 8a3d
000003c0: 5109 8fbc 6e1a 13bd a46d f93c e013 d8bd
000003d0: ff68 b63d fc71 11bd d2e2 f13c ba24 1f3d
000003e0: f140 d83d 0c59 683c eda5 94bd f129 00bd
000003f0: 21b8 30bd 8fca 993d 8149 8e3c 9114 8d3d
-0.094438985 0.05932171 -0.09129547 0.033509105 0.026292162 -0.018032404 -0.08798635 0.05263645
0.0013603691 -0.018424805 0.017173124 -0.036345854 0.069871046 0.044133764 -0.07441775 0.05902541
-0.03718899 0.08953552 0.009782338 -0.048093393 0.0918689 0.008183833 0.109955706 -0.00021203823
0.065284714 -0.14810193 0.101757415 0.0634811 -0.08551386 0.15794142 -0.07980643 0.053563766
-0.00649865 0.0318318 -0.020786732 -0.11378677 -0.0054355976 -0.025753446 0.028174093 0.06445288
0.01791168 -0.017513396 0.06032294 -0.08411337 -0.016540341 0.023110189 0.031945433 0.056783587
-0.009531682 -0.06632946 -0.042751525 -0.06282203 -0.007462561 -0.011767102 -0.09031557 0.023442475
0.02645048 0.052333806 0.07259095 -0.09180268 0.057361152 0.042481326 -0.07503597 0.077539526
-0.05342491 0.070986375 0.03435164 0.009301612 -0.014936082 -0.03449966 0.01486626 -0.03704753
0.039089482 0.10454947 -0.10791321 -0.09137588 -0.078420855 0.16498831 -0.021209888 -0.088419326
-0.030141382 -0.013644879 0.058997206 -0.08191023 -0.007495815 -0.02651545 0.04723689 0.025776109
0.067907624 0.025290458 -0.118585065 -0.00992877 -0.029870404 0.07457669 0.013461341 -0.024136962
-0.0012270876 -0.07887439 0.081239596 -0.047977187 0.017362555 -0.067065835 0.04393307 0.046687108
-0.015246319 -0.0444512 0.049998842 -0.0329681 0.020768318 0.0716928 -0.051871378 -0.021842772
-0.0026338482 -0.05610574 -0.00029357368 -0.0033943665 0.03375383 -0.046720866 -0.022363177 0.032306332
-0.039786782 0.05043095 0.021435808 0.019700075 0.051838383 -0.04032568 0.041877646 0.07324835
-0.055621415 0.049206987 0.019043395 0.014597317 0.0139039215 0.051673003 0.022223689 -0.061387468
0.0992856 0.012806059 0.013341084 -0.06436196 -0.023175843 -0.0087176245 0.004703256 -0.023667043
0.018004376 0.017317414 -0.02636302 0.04734181 -0.07823714 -0.007550455 -0.037410893 -0.06547719
-0.06754834 -0.046007525 0.07363039 0.10124095 0.008640289 -0.08609117 -0.01721178 -0.01586726
0.0069030924 -0.058533113 0.03188365 -0.0016625708 0.026777392 -0.0028591063 0.03591328 0.0046462957
-0.003215577 -0.08586168 0.074664004 0.026077395 0.08444331 0.0773609 0.010554603 -0.020624856
-0.07983184 0.0071218717 0.0298452 0.03403052 -0.013721484 0.05018722 -0.04673824 0.009972359
-0.05716067 -0.018325275 -0.01594697 -0.03624423 0.023164138 -0.010119404 0.03862568 -0.03385692
-0.051766388 0.104442984 -0.053336166 0.08862946 -0.005285377 0.029114986 -0.057490554 -0.05501427
-0.055992942 -0.00035337041 -0.018761076 0.008235832 0.031109683 -0.013532799 -0.014740382 0.036620453
0.010252706 0.03681922 0.02252829 -0.018410357 -0.020564584 0.042781036 0.06492558 -0.01755262
0.06281365 -0.07457307 -0.025556896 0.01856673 -0.07365528 0.06915416 -0.090876564 -0.07575429
-0.03687446 -0.027309211 -0.06280543 0.015074518 0.032163158 -0.06785824 0.021361854 0.011127247
-0.017486809 0.027545325 -0.030929605 0.049144108 0.03216348 -0.030313088 -0.013829336 0.06758826
-0.017460497 -0.035913877 0.030447789 -0.10550666 0.08906745 -0.035509095 0.029527102 0.038853385
0.105592616 0.014181387 -0.0725821 -0.03129 -0.04314435 0.07509338 0.017369034 0.06888688

weight f4 [12, 96]
00000000: 6f67 773c 205a 453b 7142 2f3d a29e 923d
00000010: 7e86 c23d 5b9e d63d 51eb 653d 9db8 033d
00000020: 3d05 c1bc 310c 8a3d 9fab e2bc 826b 78bc
00000030: 6435 2dbd 9863 d8bd 1940 c9bc bcd7 b43c
00000040: e546 4bbc 7dd7 a73d 08fe 803d 749e 84bd
00000050: e328 75bb 6e4e 933d 15de d2bc 4354 c7bd
00000060: 7614 53bd 39a9 7e3b cbb6 cb3d 9105 163d
00000070: e8a1 c53d 817c b63c 0220 5e3d 193d 1dbd
00000080: 9066 383d c4e8 cfbd 3149 953b 526f bdbd
00000090: 9b0f 343d 4c35 cc3d 0a9b a0bd 34b7 cd3c
000000a0: acd4 16bd b884 fa3d 0346 51bd 8afa ce3d
000000b0: 7936 d9bb 4762 9a3c 06fe c4bd a86d 33bd
000000c0: b711 5dbd 59fb dc3d cb62 063e 938d 1bbe
000000d0: a86d c63d 585e 41bd 758f 033e a664 283e
000000e0: 5e0d ba3d 2bff 3a3d e8fa ddbd 2832 80bd
000000f0: 19f6 0fbd dca0 31bc bf28 793d 5a52 c6bb
00000100: 9316 433d 13e1 b1bd 1b77 ebbd 5800 a9bd
00000110: 20e0 0dbe a738 703c da89 d9bd 524a 0fbd
00000120: 6a40 273e 733d 9fbb b65a 94bd bb63 3d3d
00000130: 07d2 29bc 32a4 913d b067 2f3b 65ef 63bc
00000140: fbee 02bc b343 1fbd a166 893d 7fdd d4bd
00000150: dee4 bc3d 5e1c f03b bd5a 743d 0729 e83c
00000160: 539f fd3d fcfa fabd ae25 17be e0f8 abbd
00000170: 0989 9cbb ff2d 883d f070 6abd cea8 f1bb
00000180: 9323 6fbc 564c 673d f542 c03c 6d04 c03c
00000190: 2200 18bc b160 c13c f15e 27bd 7018 1abc
000001a0: 0485 54bd 658a 6ebd df94 b6bc c290 0e3d
000001b0: 6007 83bc 4c86 243c 7948 823c 4e08 8dbd
000001c0: d8ad aebc 6fe3 90bd 1e82 7c3c 0c89 3dbd
000001d0: 9977 9e3c 8f62 eb3c 6f76 c63d d1e7 9bbc
000001e0: c1f9 52bc 4bdb 1dbd 6e82 e23c e79f d5bd
000001f0: dc1e a93d 16bf 473d 97df 773d 7826 08bd
00000200: 0b7b 08bd f4e9 113d d8bf af3d 43b6 b23d
00000210: 39ef 60bd 3d04 063d 389d fc3c 6f4b 463d
00000220: ee2f 403d 8d55 b3bd b6f8 3e3d 4a48 77bd
00000230: b92a 81bd 8491 393d c972 103c b09e a7bc
00000240: 4bd9 be3c adee 833c 87bd 1a3d 4c01 b93d
00000250: 871c 943c fc0c ae3d 00d3 0a3d 5e91 8bbd
00000260: 1602 af3b b15b 943d 8073 853d d1df a0bd
00000270: 4ef0 1ebc b4fe 603d 604b 2cbb 0c47 5b3d
00000280: 5f71 823d 63d5 bebd 5438 1bbd 024c e53c
00000290: e297 63bc 52db e9bc c921 333d 13f3 3a3d
000002a0: d34d 643c bdad e73a e092 b138 e81b c03d
000002b0: b72c 193d a54e 9dbc 192e d6bb 579a 4cbd
000002c0: 505f 84bd 85d5 563c 334b bebc 58ac 443d
000002d0: e18a 02be d7f8 c4bc c251 0cbd fe7c c3bc
000002e0: 286f 4cbd c9a3 643d 2086 55bc 4764 e7bc
000002f0: 5286 29bd ec27 06bd d641 dd3c 53ad 95bc
00000300: e5a3 483c e6df 82bd 87d0 45bc 4565 e93b
00000310: ef1b 843c 26f2 1a3d d1a7 853c e620 ef3a
00000320: a6ca ed3c f3c3 ff3d a2e0 ea3c da2e fd3a
00000330: 714d 053d 4e8a 483c 8f60 56bb bc56 013d
00000340: 03e4 793d 51b3 b23d 07c7 30bd 614d 9bbc
00000350: d972 87bd 0377 df3b 42a0 89bd 5669 00bd
00000360: 04b3 483b 8d90 743d 6ffb 7abc a282 1c3d
00000370: ce94 5bbc bfc2 a8bd 22ad 353c 0338 fc3c
00000380: 8292 243d a60b 85bd 0c6b 55bd 59a9 73bd
00000390: 2c80 973d d62d ee3a d54f 97bd 73d9 a2bb
000003a0: f6fc b3bd 378d f33d d90a e1bd 64df b8bc
000003b0: c15b 053d 0b65 8abd ab7d d8bc aeb1 2b3d
000003c0: 6ca7 adbd 59e5 263c 3b3e 173d a0bb d7bd
000003d0: 325d 063c 71b1 c7bd 934f 803c 6399 eb3c
000003e0: d0be 823d d1a2 71bd d6bc a2bd dcec 253d
000003f0: 96c5 d1b8 8f06 f2bc 7a01 df3c b6df 81bd
0.015100344 0.0030113533 0.042787973 0.07159163 0.094983086 0.10479423 0.05613262 0.032158483
-0.023562068 0.067406066 -0.027669726 -0.015162351 -0.042287245 -0.10565871 -0.024566697 0.022075526
-0.012407039 0.08195398 0.062984526 -0.06475535 -0.0037408404 0.07192694 -0.025740663 -0.097328685
-0.051533185 0.0038858189 0.09946974 0.036626402 0.09650022 0.022276165 0.054229744 -0.038388345
0.045019686 -0.101518184 0.0045558442 -0.09249748 0.043960195 0.09971103 -0.07842071 0.025111772
-0.036823913 0.12232345 -0.05109216 0.1010638 -0.006628808 0.01884569 -0.096187636 -0.04380575
-0.053971972 0.10790128 0.13123624 -0.15190725 0.09688884 -0.047209114 0.12847693 0.16444644
0.09084581 0.045653503 -0.10838872 -0.062595665 -0.035146806 -0.0108415745 0.060829874 -0.0060522975
0.04762895 -0.086855076 -0.11497327 -0.08252019 -0.13855028 0.0146619445 -0.10621996 -0.034982987
0.16333166 -0.0048596202 -0.07243864 0.04623769 -0.010365016 0.07111396 0.0026764683 -0.013912057
-0.007991548 -0.038882922 0.06709028 -0.103938095 0.092233405 0.0073276004 0.059656847 0.028339876
0.12383904 -0.12254903 -0.14760467 -0.083970785 -0.004777078 0.06649398 -0.05723661 -0.0073748594
-0.014595884 0.056469284 0.023469428 0.02343961 -0.009277375 0.023605676 -0.040862028 -0.00940524
-0.051884666 -0.058237452 -0.022287784 0.03480602 -0.015994728 0.0100417845 0.015903698 -0.068863496
-0.02132313 -0.070746295 0.015411882 -0.046273276 0.019344138 0.02873352 0.09690558 -0.019031437
-0.012876929 -0.038539212 0.027650084 -0.104308896 0.08257839 0.048766218 0.060515966 -0.03323981
-0.033320468 0.035623506 0.08581513 0.0872617 -0.05491564 0.032718886 0.030836686 0.048411783
0.04692071 -0.08756552 0.046623908 -0.060371675 -0.06306977 0.04530479 0.008816429 -0.02046141
0.023296973 0.01610502 0.037778404 0.090334505 0.01808001 0.0849857 0.03389263 -0.06814836
0.005340825 0.07244051 0.065161705 -0.078551896 -0.009700848 0.054930404 -0.0026290044 0.053534552
0.0636928 -0.09318044 -0.037895516 0.027990345 -0.013891192 -0.028546963 0.043733392 0.04564197
0.01393457 0.0017675679 8.467375e-05 0.09380323 0.03739616 -0.01920254 -0.006536257 -0.049951877
-0.06463492 0.01311243 -0.023229217 0.048015922 -0.1274829 -0.024044437 -0.034257658 -0.023863312
-0.049910694 0.05582026 -0.013032466 -0.028246058 -0.041387863 -0.032752916 0.027008932 -0.018271124
0.012246107 -0.063903615 -0.012073643 0.007122668 0.016126601 0.037828587 0.016315373 0.0018244057
0.029027294 0.12488546 0.028671566 0.0019316331 0.032544557 0.012240006 -0.0032711362 0.031576857
0.061008465 0.08725608 -0.043158557 -0.018957796 -0.06613702 0.006819607 -0.0672002 -0.031350456
0.003062428 0.059708167 -0.0153187355 0.03821052 -0.013402177 -0.0824027 0.011088641 0.030788427
0.040178783 -0.064963624 -0.05210404 -0.059487674 0.07397494 0.0018171619 -0.073882736 -0.0049697696
-0.08788483 0.11892169 -0.10988397 -0.022567458 0.032558206 -0.06757554 -0.02642711 0.041917495
-0.08479199 0.010186517 0.036924582 -0.105338335 0.00820093 -0.09750641 0.015662944 0.028759664
0.06384051 -0.058993164 -0.07946174 0.04050909 -0.000100027 -0.029544143 0.027222384 -0.063414976

weight f4 [12, 96]
00000000: d582 f139 813e cc39 b693 e23c 7437 3abc
00000010: 12fb 00bc fe14 3fba dfcc 8abd 35e0 233c
00000020: 7446 e03b 79b3 92bb 7db8 4a3c 8de4 09bc
00000030: c788 b23c 76b5 86bb b8d4 f6bc f1cf 28bd
00000040: f9df 38bc c3d5 b53c 6151 e0bb 9b94 16bc
00000050: 8d0a 1e3c e0b4 a0bc 617b ac3c d523 91bc
00000060: 62ed 8739 c635 87bc 9c47 d43c 9e0c 113d
00000070: f59f 2c3c 09e0 12bb 8fd2 413c 5f0b 073d
00000080: 2eb6 473b baf2 81bb 6a13 02bd 8a8b 343d
00000090: 5e79 e23b bc09 8dbb cbdd cf3c cd58 98bb
000000a0: 77ab 173d b60c 26bb 0563 f6bb 7f77 54bc
000000b0: a711 013d 86f0 b5bc c369 a9bc 4f23 383b
000000c0: d2fc debc 6030 30bc 0b9e 443c 417d 753c
000000d0: 6bfb 413c 1f0a 0abd 5eff c33a 2646 9c3c
000000e0: 4cce 473b 1aa1 c6bc 712e 023c 88e8 113d
000000f0: 5b3a aebb 9b14 ae3c fc1c 0bbb 11da 263c
00000100: 4800 093b ee14 2cbd 53da 4dbb b21c a3bc
00000110: 9a14 203d 9989 87bc a4f5 f93c 88b2 003c
00000120: 49a3 31bc 9a7c 7c3c 8555 52bc 13d7 243c
00000130: ed16 bc3c 4769 35bc f722 503c dac5 803c
00000140: 6f7e dbbb 611e b5bb 87b4 dd3c 6e91 243d
00000150: 79e7 cd3b 62b1 5b3b 7b63 8fbb fb94 7b3c
00000160: 9b00 8cbc b51b 223b 29f5 a13b 4762 febc
00000170: 5c91 33bc 4304 023d fef5 01bd 4985 8fbc
00000180: 471c 38bc 6991 84bc ca7f abbc cf67 c2bb
00000190: ecf1 e23c e05e 86bc 6390 083c 4b5b 3a3c
000001a0: 0026 81bc 0d24 fdbb 913a db3c 7571 1ebc
000001b0: 2bcf b4bb d9f3 fc3c 5a7a 54bc 8ce3 b03b
000001c0: 6a75 3bbc 03d1 3fbc 218a d5bc 84ba 2c3c
000001d0: 141c 72bc 71b3 143b 4323 1c3d 9554 5e3d
000001e0: 5914 243c 7eb7 1b3c d6a3 4bbc a35e 30bd
000001f0: 2116 193c 54e9 93ba f3a7 d43c c807 abbc
00000200: 1a69 01bd 74e0 2dbc bac8 e23a 3189 a0bb
00000210: 2dcd 10bd e617 d5bc cb37 9fbc 411e 323d
00000220: 6f58 0a3d 07bd ce3b 5dcc 78bc 7ec6 b5b9
00000230: 2af7 c83c 5c46 7e3b 8bfe c03c 6ce0 d73c
00000240: 7011 d73c b437 cebc 3a6a 0b3d 373d a7b9
00000250: 0bff b5bc d689 333d 2275 e63c 4cd2 0e3b
00000260: 1141 cabb ed6f 553d 5f3c a63c 49ea 8f3c
00000270: 4f8d d1bc d9ae 7f3d 2bf7 8bbc 867e 733c
00000280: ecd3 daba 0cfa 023d 634c fa3c e843 3ebc
00000290: 8062 90bc eb0c 913c 3e0c 163d 3177 a43b
000002a0: 7254 41bb fd9d 713c ba0c bf39 30ee 23bb
000002b0: 3670 873c a608 553b 2d9d f7bc 4710 a33c
000002c0: deff 113a 2a83 21bd 3e15 23bc 49c6 a13c
000002d0: 13e2 d53a b4f0 993b d97f 88bb d637 e73a
000002e0: 0287 ef3b 4f92 8ebc 1151 e33c 5b35 0e3d
000002f0: 9c35 2ebd bb65 d2bc aa3a 04bc efab 123d
00000300: fcdb a63c 066b d13c 2827 acbc bc8a 48ba
00000310: 63fc 51bc 93a1 aebc a14d d33c b50a 25bd
00000320: f6dd feba eade 6c3c a8e0 8f3b b82f f83c
00000330: 39e4 073b d844 08bc 2c1f 633d f4bd 81bc
00000340: 44e8 79bb 78dc 543c 41e2 c2bc aaa7 8c3c
00000350: 8660 0d3c 8355 d9bc 7776 f93b 775a f3bc
00000360: 3e06 183c e8b7 0bbc fd6b 59bd 82be 933c
00000370: d490 d23c 21ae 06bc c942 cabc 2ea1 c8bc
00000380: 7976 573c 817a 163d d7b8 033d 7dcf 54bd
00000390: 396f 99bb 863a 30bc ad90 dbbc c03f 4c3c
000003a0: d531 783b 4f92 3abd d930 833c 1002 a13b
000003b0: 8ac7 913c e161 70bd 2bbc d4bc 357c 123d
000003c0: b075 203c 78c2 02bc 6de3 39bc 29f7 a8bb
000003d0: 5878 903c a785 f33c 1441 d93c 4652 f73b
000003e0: 6030 b03c f60b 833c f969 1dbc c0fa f7bb
000003f0: 614c 11bd 626d bcbb 5c1f 403c 6dab 85bd
0.0004606458 0.0003895648 0.027658325 -0.01136576 -0.00787236 -0.00072892 -0.06777357 0.010002186
0.006844336 -0.004476961 0.012373087 -0.008416307 0.021793736 -0.0041109873 -0.03013073 -0.041213933
-0.011283868 0.022196656 -0.0068456386 -0.009190704 0.00964607 -0.019617498 0.021054925 -0.017717281
0.0002592607 -0.016505133 0.025913052 0.035412423 0.010536184 -0.0022411367 0.011829986 0.03296983
0.0030473578 -0.003965703 -0.031756796 0.044078387 0.0069114408 -0.004304139 0.025374314 -0.0046492578
0.037028756 -0.0025337166 -0.0075191283 -0.012967943 0.031510975 -0.022209417 -0.020680314 0.0028097217
-0.027220163 -0.010753721 0.012000571 0.014983476 0.011839728 -0.03370106 0.0014953425 0.019076418
0.0030487953 -0.024246741 0.007945643 0.03562215 -0.005317015 0.02125006 -0.0021226993 0.010183827
0.0020904709 -0.042012148 -0.003141065 -0.019911144 0.039082147 -0.016545104 0.030512638 0.007855065
-0.010842153 0.015410567 -0.012837772 0.010061043 0.02296015 -0.011072463 0.012703649 0.015719343
-0.0066984217 -0.005527303 0.027063621 0.040177755 0.006283697 0.0033522476 -0.0043758727 0.015355344
-0.017090132 0.0024735753 0.0049425554 -0.031052722 -0.010959949 0.031742346 -0.031728737 -0.01751961
-0.011237211 -0.016182618 -0.020934958 -0.005932785 0.027703248 -0.016402662 0.008335206 0.011374305
-0.01576519 -0.007725245 0.026761325 -0.009670605 -0.0055178604 0.030877994 -0.012968624 0.0053982195
-0.011441568 -0.011707547 -0.026066842 0.010542516 -0.014777202 0.0022689963 0.038119566 0.054279882
0.010014617 0.009504197 -0.012429198 -0.043059003 0.009343655 -0.0011284747 0.02595899 -0.020877734
-0.031594373 -0.010612596 0.0017302253 -0.004899167 -0.03535192 -0.026012372 -0.019435784 0.043485884
0.033775743 0.006309155 -0.015185443 -0.00034670898 0.02453192 0.0038799262 0.023558876 0.02635213
0.026253432 -0.025173046 0.034036852 -0.0003189833 -0.02221634 0.043832622 0.028132025 0.0021792827
-0.0061723073 0.052108694 0.020292459 0.01756777 -0.025580077 0.062422607 -0.017085632 0.0148617085
-0.0016695238 0.031976745 0.030554002 -0.01161287 -0.017625093 0.017706355 0.03663277 0.0050190915
-0.0029499796 0.01474714 0.0003643984 -0.0025013797 0.016532999 0.0032506376 -0.030226314 0.019905223
0.0005569438 -0.03943173 -0.009953795 0.01974787 0.0016317986 0.0046978835 -0.0041656313 0.0017640542
0.0073097954 -0.01740375 0.027748616 0.034718852 -0.042531595 -0.025683274 -0.008070627 0.0358085
0.020368569 0.025563728 -0.021014765 -0.00076500676 -0.012816521 -0.021317279 0.025793852 -0.040293414
-0.0019444812 0.014457444 0.004390795 0.030296192 0.0020735397 -0.008317195 0.05544965 -0.015837647
-0.0038132826 0.012992017 -0.023789527 0.017169792 0.00862897 -0.026530033 0.007612999 -0.029706223
0.009278832 -0.008527733 -0.0530815 0.018035177 0.025703825 -0.0082202265 -0.024690049 -0.024490919
0.013150805 0.036737923 0.0321587 -0.05195569 -0.004682448 -0.010756141 -0.026802385 0.012466371
0.00378715 -0.045549687 0.016014503 0.004913576 0.017795343 -0.058687095 -0.025968632 0.035762984
0.009793684 -0.007980935 -0.011345726 -0.005156417 0.01763551 0.029726816 0.02652029 0.0075476496
0.021507442 0.015996914 -0.009607785 -0.0075677335 -0.03547323 -0.005750344 0.011726227 -0.065268375

tril f4 [19, 19]
00000000: 0000 803f 0000 0000 0000 0000 0000 0000
00000010: 0000 0000 0000 0000 0000 0000 0000 0000
00000020: 0000 0000 0000 0000 0000 0000 0000 0000
00000030: 0000 0000 0000 0000 0000 0000 0000 0000
00000040: 0000 0000 0000 0000 0000 0000 0000 803f
00000050: 0000 803f 0000 0000 0000 0000 0000 0000
00000060: 0000 0000 0000 0000 0000 0000 0000 0000
00000070: 0000 0000 0000 0000 0000 0000 0000 0000
00000080: 0000 0000 0000 0000 0000 0000 0000 0000
00000090: 0000 0000 0000 0000 0000 803f 0000 803f
000000a0: 0000 803f 0000 0000 0000 0000 0000 0000
000000b0: 0000 0000 0000 0000 0000 0000 0000 0000
000000c0: 0000 0000 0000 0000 0000 0000 0000 0000
000000d0: 0000 0000 0000 0000 0000 0000 0000 0000
000000e0: 0000 0000 0000 803f 0000 803f 0000 803f
000000f0: 0000 803f 0000 0000 0000 0000 0000 0000
00000100: 0000 0000 0000 0000 0000 0000 0000 0000
00000110: 0000 0000 0000 0000 0000 0000 0000 0000
00000120: 0000 0000 0000 0000 0000 0000 0000 0000
00000130: 0000 803f 0000 803f 0000 803f 0000 803f
00000140: 0000 803f 0000 0000 0000 0000 0000 0000
00000150: 0000 0000 0000 0000 0000 0000 0000 0000
00000160: 0000 0000 0000 0000 0000 0000 0000 0000
00000170: 0000 0000 0000 0000 0000 0000 0000 803f
00000180: 0000 803f 0000 803f 0000 803f 0000 803f
00000190: 0000 803f 0000 0000 0000 0000 0000 0000
000001a0: 0000 0000 0000 0000 0000 0000 0000 0000
000001b0: 0000 0000 0000 0000 0000 0000 0000 0000
000001c0: 0000 0000 0000 0000 0000 803f 0000 803f
000001d0: 0000 803f 0000 803f 0000 803f 0000 803f
000001e0: 0000 803f 0000 0000 0000 0000 0000 0000
000001f0: 0000 0000 0000 0000 0000 0000 0000 0000
00000200: 0000 0000 0000 0000 0000 0000 0000 0000
00000210: 0000 0000 0000 803f 0000 803f 0000 803f
00000220: 0000 803f 0000 803f 0000 803f 0000 803f
00000230: 0000 803f 0000 0000 0000 0000 0000 0000
00000240: 0000 0000 0000 0000 0000 0000 0000 0000
00000250: 0000 0000 0000 0000 0000 0000 0000 0000
00000260: 0000 803f 0000 803f 0000 803f 0000 803f
00000270: 0000 803f 0000 803f 0000 803f 0000 803f
00000280: 0000 803f 0000 0000 0000 0000 0000 0000
00000290: 0000 0000 0000 0000 0000 0000 0000 0000
000002a0: 0000 0000 0000 0000 0000 0000 0000 803f
000002b0: 0000 803f 0000 803f 0000 803f 0000 803f
000002c0: 0000 803f 0000 803f 0000 803f 0000 803f
000002d0: 0000 803f 0000 0000 0000 0000 0000 0000
000002e0: 0000 0000 0000 0000 0000 0000 0000 0000
000002f0: 0000 0000 0000 0000 0000 803f 0000 803f
00000300: 0000 803f 0000 803f 0000 803f 0000 803f
00000310: 0000 803f 0000 803f 0000 803f 0000 803f
00000320: 0000 803f 0000 0000 0000 0000 0000 0000
00000330: 0000 0000 0000 0000 0000 0000 0000 0000
00000340: 0000 0000 0000 803f 0000 803f 0000 803f
00000350: 0000 803f 0000 803f 0000 803f 0000 803f
00000360: 0000 803f 0000 803f 0000 803f 0000 803f
00000370: 0000 803f 0000 0000 0000 0000 0000 0000
00000380: 0000 0000 0000 0000 0000 0000 0000 0000
00000390: 0000 803f 0000 803f 0000 803f 0000 803f
000003a0: 0000 803f 0000 803f 0000 803f 0000 803f
000003b0: 0000 803f 0000 803f 0000 803f 0000 803f
000003c0: 0000 803f 0000 0000 0000 0000 0000 0000
000003d0: 0000 0000 0000 0000 0000 0000 0000 803f
000003e0: 0000 803f 0000 803f 0000 803f 0000 803f
000003f0: 0000 803f 0000 803f 0000 803f 0000 803f
1.0 0.0 0.0 0.0 0.0 0.0 0.0 0.0
0.0 0.0 0.0 0.0 0.0 0.0 0.0 0.0
0.0 0.0 0.0 1.0 1.0 0.0 0.0 0.0
0.0 0.0 0.0 0.0 0.0 0.0 0.0 0.0
0.0 0.0 0.0 0.0 0.0 0.0 1.0 1.0
1.0 0.0 0.0 0.0 0.0 0.0 0.0 0.0
0.0 0.0 0.0 0.0 0.0 0.0 0.0 0.0
0.0 1.0 1.0 1.0 1.0 0.0 0.0 0.0
0.0 0.0 0.0 0.0 0.0 0.0 0.0 0.0
0.0 0.0 0.0 0.0 1.0 1.0 1.0 1.0
1.0 0.0 0.0 0.0 0.0 0.0 0.0 0.0
0.0 0.0 0.0 0.0 0.0 0.0 0.0 1.0
1.0 1.0 1.0 1.0 1.0 0.0 0.0 0.0
0.0 0.0 0.0 0.0 0.0 0.0 0.0 0.0
0.0 0.0 1.0 1.0 1.0 1.0 1.0 1.0
1.0 0.0 0.0 0.0 0.0 0.0 0.0 0.0
0.0 0.0 0.0 0.0 0.0 1.0 1.0 1.0
1.0 1.0 1.0 1.0 1.0 0.0 0.0 0.0
0.0 0.0 0.0 0.0 0.0 0.0 0.0 0.0
1.0 1.0 1.0 1.0 1.0 1.0 1.0 1.0
1.0 0.0 0.0 0.0 0.0 0.0 0.0 0.0
0.0 0.0 0.0 1.0 1.0 1.0 1.0 1.0
1.0 1.0 1.0 1.0 1.0 0.0 0.0 0.0
0.0 0.0 0.0 0.0 0.0 0.0 1.0 1.0
1.0 1.0 1.0 1.0 1.0 1.0 1.0 1.0
1.0 0.0 0.0 0.0 0.0 0.0 0.0 0.0
0.0 1.0 1.0 1.0 1.0 1.0 1.0 1.0
1.0 1.0 1.0 1.0 1.0 0.0 0.0 0.0
0.0 0.0 0.0 0.0 1.0 1.0 1.0 1.0
1.0 1.0 1.0 1.0 1.0 1.0 1.0 1.0
1.0 0.0 0.0 0.0 0.0 0.0 0.0 1.0
1.0 1.0 1.0 1.0 1.0 1.0 1.0 1.0

weight f4 [12, 96]
00000000: 7f6d 1b3d 58b9 dcbd 3064 e73d 6083 3bbd
00000010: dc60 73bc 2bdd 4a3d 2d6c f73b a96b 493b
00000020: 1893 a63c 3223 5c3d 340f 883c a805 763c
00000030: b2dd f5bc 2983 14bd 1878 c53c 8cd9 35bd
00000040: 88fb bc3c 9639 04bd 54a0 b2bc 6503 a73d
00000050: a44d acbd cd37 b1bc bbc0 92bd afde 4f3d
00000060: 425e a5bd a938 b53d f3fc 0abd ca12 8dbd
00000070: 6d9e 943d 9e67 9bbd 849b 853d 9d6a 0dbd
00000080: 65e6 073d 770c 0e3d 20e5 9d3d ec34 c73c
00000090: 03cb 0c3d c374 a33d 9595 9fbd d7ef 4abd
000000a0: 24d8 bf3c 9719 463d a2dc bbbd 8de3 3d3d
000000b0: 3da6 463b f6f7 90bc 599a a4bd 99c5 bebd
000000c0: 2e6e 99bd 9fdb d73d 3052 ba3c bd0b 193d
000000d0: 9e36 d1bd 33ff 9e3a b14d 5a3d c0a4 813c
000000e0: da89 96bd 8687 27bc e204 f4bc 0a71 273d
000000f0: 7ea6 7dbd 6f0c 1bbd fcfc 4c3d 0cc8 debc
00000100: 7091 9f3b 24b6 07bd d65f 2e3c 97f9 73bd
00000110: 85bd 013d 5d70 36bd 07e9 bebc 546b b43d
00000120: f7fb 153d f751 41bd 8bfa 6e3c 2017 5c3c
00000130: 34f8 8c3d 0f99 8bbd 5372 d6bc 3880 883d
00000140: 903e e1bc f8e1 9f3c 0067 d8bc ce72 683d
00000150: e827 4e3b 02d2 8c3d de71 80bc 7764 563d
00000160: 28a0 89bd d343 83bc 0b12 ab3d 8d48 b43c
00000170: 940a ee3c a8a1 85bc 4ad5 553c 0438 103d
00000180: 5ff6 e6bc 25e7 0aba b955 37bd e56b 6d3d
00000190: 8251 29bd 1fda fb3c 2a7a 3fbc 98cb 6dbd
000001a0: 8aa8 703a 91ab 623d 1ee3 7cbd 914a 0a3d
000001b0: b3f2 05bd 0f76 13bd 31e6 49bc 91c6 7fbc
000001c0: 982c 59bb 7c50 a7bb 4adf e03c d7fc 3b3b
000001d0: f2da e1bc a754 603c dabb 153c 59a0 b73b
000001e0: 215d 5d3c e7fc 3ebb 439c 7dbd 7c12 f03b
000001f0: d78a 0fbc 2c4f 113d 33c9 db3c 7a62 84bd
00000200: 13ac 113d 7ccc 9fbd fa4b 3bbd 52a4 563d
00000210: f1d4 093c 769e c4bc 892a 0bbc 94ea 9a3d
00000220: 807b 6dbd 063c 4a3c f5ac f0bc 3742 813d
00000230: 1519 af3c bc72 42bc ad47 df3b 8868 a63a
00000240: b383 5bbc 1ce3 5dbc b7fc 163d 6440 35bd
00000250: 145d d73d 1d72 fb3c 924e 253d 48d1 5a3c
00000260: 6d70 853d dcda a33c 0154 1abd 4b7d 62bd
00000270: 524b 32bc 27e8 7e3d d57c 8b3d 4751 c53c
00000280: 2b88 34bc c6d0 0b3d 7365 16bd 798f 38bd
00000290: 3f47 86bd 50eb 02bc 651b 19bd c6af 58bc
000002a0: d6fb 633d 1935 b13c 9470 e1bc 69c2 fc3a
000002b0: 21b0 d5bc 1acc 8dbd db00 a8bc a88c a33d
000002c0: 9e65 abbb 569f d03c 7abe 73bb b65b fe3c
000002d0: c906 babc 50ad 1d3d 5589 df3c d3cf ddbc
000002e0: 9ffd 453d a6bb 3c3c de91 fc3c 6ef3 133d
000002f0: b9c0 10bd eedc ba3c f1b1 b2bc 2e8b 583a
00000300: 3ee2 033d de4f f4bd 3472 e63d 6079 9dbd
00000310: 7231 cebc 7f81 2f3d 231c be3d 8679 16bc
00000320: 5c82 7f3d f16b 423d 4b3d 03bd d651 b03d
00000330: 78d3 ccbd 16a3 0fbd 7fa1 373d 440b 17bd
00000340: c116 e63c 04ae 64bd 40a0 3bbc b5f6 673d
00000350: 98e4 b2bd 454c 4fbd a3e5 f3bd b734 fb3c
00000360: b15f 68bd 63d9 0c3e 6a58 9ebd 777c e5bd
00000370: f462 fe3d b571 21be c969 973d ac59 0e3c
00000380: f2a4 103c b026 453d 490a 443d 3f2e d03b
00000390: 29d3 0b3d f0a2 a43d 6638 96bd 3b2c abbd
000003a0: e672 a83c 0761 db3c e3c0 08bd bc63 5d3d
000003b0: 7b0d 52bc 05d4 62bd ac9c 03bd 032d d2bd
000003c0: 66c1 1bbd 9049 e53d 5f78 fcbb 4d9b 213d
000003d0: 95f9 aebd 7424 21bd 92f6 c23d 5526 763c
000003e0: 7ffa 09be 2196 ecbc fc45 4cbd 1603 7e3d
000003f0: 1f53 05bd 8942 79bd 515f 953d 6a4d c5bd
0.03794622 -0.10777539 0.11298406 -0.045779586 -0.014854636 0.04952733 0.0075507374 0.0030734336
0.020333812 0.053744502 0.016608812 0.015015997 -0.03001294 -0.036257897 0.024105117 -0.044396922
0.023069158 -0.03228148 -0.021804966 0.08154944 -0.08413246 -0.021633053 -0.07165667 0.050749477
-0.08074619 0.08848698 -0.033932637 -0.06888349 0.0725678 -0.07588123 0.06523803 -0.034525502
0.033178706 0.034679856 0.07709718 0.024317227 0.034373295 0.07981255 -0.077922024 -0.049545135
0.023418494 0.048364248 -0.09172942 0.046359587 0.0030311488 -0.017696362 -0.08037252 -0.093150325
-0.07491718 0.10539936 0.022744268 0.03736471 -0.102154955 0.0012130499 0.05329675 0.01582563
-0.07350512 -0.010225182 -0.029787485 0.040879287 -0.061926357 -0.037853654 0.050045952 -0.027195
0.0048696324 -0.033132687 0.010642966 -0.0595642 0.03167488 -0.04454075 -0.023304475 0.08809534
0.036617246 -0.04719731 0.014586101 0.013433248 0.068832785 -0.06816303 -0.02617756 0.06665081
-0.027495652 0.01951693 -0.026416302 0.05675011 0.0031456891 0.06875993 -0.015679296 0.052341904
-0.067200005 -0.016023552 0.08353051 0.022007251 0.029057778 -0.016312435 0.01305134 0.03520967
-0.02819365 -0.00052987254 -0.044759486 0.057964224 -0.041337498 0.030743657 -0.011686841 -0.05805549
0.0009180388 0.0553394 -0.061740033 0.03376252 -0.03270216 -0.03600126 -0.012322948 -0.015611307
-0.0033138152 -0.00510603 0.027450223 0.002868464 -0.027570222 0.013692058 0.009139026 0.0056038317
0.013510973 -0.002914244 -0.0619166 0.0073264223 -0.008761129 0.035475895 0.026829338 -0.064640954
0.035564493 -0.07802674 -0.045726754 0.0524028 0.008412586 -0.024001341 -0.008494028 0.075642735
-0.057979107 0.012343412 -0.029379347 0.063114576 0.021374265 -0.011868175 0.0068139643 0.0012695948
-0.013398099 -0.013542917 0.0368621 -0.04425086 0.105158 0.030694062 0.040358134 0.013355561
0.06515584 0.020001821 -0.03767777 -0.05529527 -0.010882216 0.062233116 0.06810919 0.024086608
-0.011018793 0.03413465 -0.036717843 -0.0450587 -0.06556558 -0.007990673 -0.03737964 -0.013225501
0.05566009 0.021631764 -0.027519502 0.0019284013 -0.026084961 -0.06923695 -0.02050822 0.079858124
-0.0052306196 0.025466602 -0.003719239 0.03104959 -0.022708314 0.03849536 0.027287165 -0.027076637
0.048337575 0.011519348 0.030831274 0.036120825 -0.035340045 0.022810426 -0.021813365 0.00082604855
0.032198183 -0.11929296 0.11252251 -0.07689166 -0.025170062 0.042848106 0.092827104 -0.009184247
0.06238018 0.047466222 -0.032040875 0.08609359 -0.10001272 -0.03506764 0.04483175 -0.036875978
0.028087022 -0.055830017 -0.011451781 0.056631763 -0.08735007 -0.050609846 -0.11909034 0.030664785
-0.056731883 0.13754801 -0.077317074 -0.112053804 0.124212176 -0.15766032 0.07393224 0.008688372
0.0088283885 0.0481326 0.04786137 0.006353169 0.034136925 0.0803889 -0.07334976 -0.08358046
0.0205626 0.026779665 -0.033387076 0.054050192 -0.012820597 -0.05537798 -0.032131836 -0.102624916
-0.038026236 0.111956716 -0.007704779 0.039454747 -0.08543698 -0.039341405 0.09519686 0.0150237875
-0.13474463 -0.02888018 -0.04987143 0.06201466 -0.032549974 -0.06085447 0.07293571 -0.09633906
