model/final_model_53164.pth (torch, 519866 bytes, 180 tensors)

weight f4 [15, 32]
-0.45312628 0.24424772 -2.1738462 1.0938466 1.1780572 2.044061 1.1073998 0.48575446
0.29210594 0.60705394 -0.28128746 -0.5530722 0.40021586 0.019331858 0.7726732 0.66468185
-0.08746403 -1.1682904 -0.5458175 0.10368472 0.5935863 -0.18632157 -0.5929445 -1.6268581
-0.6660048 -0.52870935 -0.2998505 -0.62068105 0.34699357 -0.15254466 2.9955797 -0.435737
-1.5321841 -1.0128379 0.36312503 0.5284731 -0.39890546 -0.37546977 0.2446967 0.017766558
0.2784768 -0.22219782 0.8457488 -0.13375092 -1.2244581 1.5798749 -1.4098926 0.25867674
-0.8101448 -0.5093203 0.54737276 1.8242322 -0.93647766 -0.9010192 0.02731234 0.12723546
1.0289034 1.2728388 1.7327446 0.91462594 -0.21800627 -0.0032263035 -0.70310354 -0.47121704
1.2116146 0.429079 1.004651 0.31490955 0.32378298 -0.65183914 -0.25095227 0.6367403
-0.06896087 -0.8901239 0.17954345 0.83472174 -0.1773208 -1.7662704 0.1629401 -0.7335779
0.13734144 -1.4285272 0.5220232 1.3452749 -0.45517936 -0.84191 -0.18444005 -0.4124399
0.6280241 -1.065245 -0.20428503 -0.052369405 -0.4608546 1.5463665 2.6100178 -0.36237353
1.2659074 -2.2024305 -0.53466547 -0.24570134 -0.17458552 -1.119194 -0.58862084 0.69173443
1.2426805 -0.88973975 -0.21963894 -0.17280856 -1.136216 -0.799665 0.06300395 1.4462432
0.047525957 -0.5270258 -0.39351368 -1.3726017 0.25242472 -0.6333691 0.96047187 -0.8103893
1.913507 -1.4138414 -0.7051209 -0.61492753 0.9211762 -1.3059906 1.4526428 2.1963768
0.7923355 0.124202795 -0.021017347 0.46739656 -1.3897454 -0.18672967 2.6275432 2.3329475
-0.16409808 0.47933593 -0.7909535 -0.1552098 2.2870898 0.8637436 -0.6888911 0.9882512
1.4771273 -0.2943505 0.7365712 0.3187847 -0.7132653 -1.0595307 1.0214818 1.0409828
-1.2933565 -0.65635544 1.1338794 0.5252777 0.51552165 -0.06682232 0.90621126 0.102083966
-0.93811846 0.306024 1.4065562 -0.9446888 -1.7562585 0.71268225 0.5435386 0.77118254
0.16593923 0.3867507 1.0141793 1.138601 -0.28391004 0.2174267 -0.015450067 0.015823407
2.2694068 1.3235021 -0.0757236 -0.5464129 -0.10401201 -0.3791251 -1.0113792 1.5652578
-0.3289838 1.440871 0.74421334 -0.5871929 -0.19127011 -1.2241892 0.8766512 0.30633745
1.5178329 0.7969046 1.7177186 0.71970373 0.23470116 -1.2729479 -0.7383674 -0.38214186
1.2106072 1.351115 -0.08653684 0.62931454 -1.4110675 0.8416027 -1.0112951 -0.48732147
0.52469516 0.9798295 -0.028260402 0.119154096 2.2070289 1.157783 1.1074088 1.3821312
1.4475918 -2.395709 -0.38645753 -1.3667352 -0.24010636 -0.330538 -0.43817094 0.022570973
0.6282336 0.82347417 -0.4722742 -0.15035336 1.1305201 -0.663318 -0.45159957 -0.564195
-0.7546574 0.60494775 -2.1721263 -1.1986351 -1.72283 -2.0239758 -0.6528875 0.10250733
0.77438843 0.044447295 -1.7564478 -0.35144383 1.1201411 0.95059955 1.7727811 0.7094535
1.116212 -0.29614407 -0.9951539 -0.25950697 0.0530741 0.42240673 0.36988038 -1.5155532
00000000: 2b00 e8be 131c 7a3e 4c20 0bc0 2a03 8c3f
00000010: 94ca 963f e5d1 0240 47bf 8d3f cfb4 f83e
00000020: e98e 953e e367 1b3f e904 90be 2496 0dbf
00000030: 18e9 cc3e d85d 9e3c e9cd 453f 9728 2a3f
00000040: 5720 b3bd 8a8a 95bf b2ba 0bbf a858 d43d
00000050: 46f5 173f 15cb 3ebe 36cb 17bf e33c d0bf
00000060: 4a7f 2abf 7f59 07bf 0186 99be f4e4 1ebf
00000070: 24a9 b13e ab34 1cbe 94b7 3f40 ec18 dfbe
00000080: 9c1e c4bf aca4 81bf 86eb b93e 034a 073f
00000090: 563d ccbe 933d c0be c691 7a3e 2c8b 913c
000000a0: 8394 8e3e d387 63be fe82 583f 00f6 08be
000000b0: 0bbb 9cbf 5739 ca3f 5c77 b4bf 4771 843e
000000c0: a665 4fbf d162 02bf 9f20 0c3f 7180 e93f
000000d0: 00bd 6fbf 32a9 66bf 21be df3c 034a 023e
000000e0: 1bb3 833f 62ec a23f 93ca dd3f ed24 6a3f
000000f0: 093d 5fbe 6470 53bb 98fe 33bf 5c43 f1be
00000100: 3016 9b3f 3eb0 db3e 6798 803f d33b a13e
00000110: e2c6 a53e eede 26bf d17c 80be 6a01 233f
00000120: 5b3b 8dbd 29df 63bf 3dda 373e 53b0 553f
00000130: 9593 35be 2615 e2bf c5d9 263e c3cb 3bbf
00000140: 3ca3 0c3e fbd9 b6bf 50a3 053f f831 ac3f
00000150: 450d e9be 6a87 57bf dadd 3cbe 532b d3be
00000160: 30c6 203f f359 88bf 1830 51be 4d81 56bd
00000170: 22f5 ebbe 56ef c53f 880a 2740 0689 b9be
00000180: 4109 a23f 9ff4 0cc0 d6df 08bf 2299 7bbe
00000190: 8cc6 32be c041 8fbf dbaf 16bf 8215 313f
000001a0: 2810 9f3f fcc5 63bf 08e9 60be baf4 30be
000001b0: 876f 91bf d8b6 4cbf 3708 813d 7f1e b93f
000001c0: 94aa 423d 2aeb 06bf a07a c9be 6ab1 afbf
000001d0: d03d 813e 7a24 22bf 7ce1 753f ac75 4fbf
000001e0: cced f43f c1f8 b4bf ce82 34bf e46b 1dbf
000001f0: 34d2 6b3f b32a a7bf 33f0 b93f 7091 0c40
00000200: 80d6 4a3f 095e fe3d 922c acbc 9a4e ef3e
00000210: 2de3 b1bf 1036 3fbe ab29 2840 034f 1540
00000220: 5409 28be 856b f53e ee7b 4abf 51ef 1ebe
00000230: ae5f 1240 4d1e 5d3f 2b5b 30bf 08fe 7c3f
00000240: 8212 bd3f 1cb5 96be ee8f 3c3f c037 a33e
00000250: 8e98 36bf b49e 87bf eabf 823f ed3e 853f
00000260: b58c a5bf e906 28bf f622 913f 9978 063f
00000270: 3af9 033f 24da 88bd 76fd 673f 6611 d13d
00000280: 8828 70bf 2daf 9c3e 090a b43f 20d7 71bf
00000290: 14cd e0bf 5872 363f 5825 0b3f 386c 453f
000002a0: f9eb 293e 3004 c63e a1d0 813f adbd 913f
000002b0: a85c 91be 1ba5 5e3e 4722 7dbc 17a0 813c
000002c0: f63d 1140 8468 a93f fa14 9bbd b7e1 0bbf
000002d0: 4004 d5bd af1c c2be e074 81bf 5e5a c83f
000002e0: 9170 a8be 766e b83f c484 3e3f 4652 16bf
000002f0: 50dc 43be 3bb2 9cbf 376c 603f 43d8 9c3e
00000300: 5948 c23f f101 4c3f 34de db3f 813e 383f
00000310: 8055 703e f5ef a2bf a505 3dbf 19a8 c3be
00000320: 2df5 9a3f 56f1 ac3f 3a3a b1bd c21a 213f
00000330: dc9d b4bf 4673 573f 1e72 81bf 3382 f9be
00000340: 6c52 063f 1bd6 7a3f 5c82 e7bc 1007 f43d
00000350: f63f 0d40 3c32 943f 92bf 8d3f ade9 b03f
00000360: b04a b93f 4c53 19c0 c3dd c5be 2ef1 aebf
00000370: 71de 75be 473c a9be f157 e0be c3e6 b83c
00000380: ebd3 203f 34cf 523f edcd f1be 3bf6 19be
00000390: e2b4 903f 35cf 29bf 0f38 e7be 156f 10bf
000003a0: 3a31 41bf dbdd 1a3f 1e04 0bc0 e06c 99bf
000003b0: b285 dcbf d288 01c0 a323 27bf 5def d13d
000003c0: 523e 463f 5e0e 363d 48d3 e0bf 72f0 b3be
000003d0: c960 8f3f 7e5a 733f 7eea e23f bf9e 353f
000003e0: 09e0 8e3f 32a0 97be 68c2 7ebf 19de 84be
000003f0: 3a64 593d b245 d83e f660 bd3e a6fd c1bf

weight f4 [10, 32]
0.08121488 -1.5432456 -0.04740309 0.11141772 -0.3678672 0.098680556 -1.2034414 -0.2777537
0.57374424 0.4281069 0.38856727 1.6334711 0.54290515 1.0668062 -0.4232441 -0.46342927
-0.94397795 0.08660116 0.45322403 0.5521353 -0.5577066 -0.5783765 -0.73884004 -1.2937089
1.33522 1.4144888 1.8634408 -1.7865621 0.628548 0.31255156 0.40748227 0.49073905
0.5775912 -0.18671924 -1.1881374 -1.3643777 -1.5959352 -0.5378675 1.3472664 -0.8252209
-0.24487796 -0.3970359 -2.890072 -0.84186214 -0.045287043 -0.38366964 0.23130442 1.9297912
0.28200325 0.030696118 0.23574494 -0.5403823 -0.22227214 0.42963305 0.2379054 1.2099266
0.98436767 0.4118306 0.1953918 0.029121228 -1.840798 -1.2144905 1.337972 -0.140828
0.9571545 0.34257373 -1.1897471 0.8651023 0.13168484 -0.053683195 -0.1744312 0.26550958
0.0059485426 2.5458984 -0.5474512 0.69167393 -1.1285853 0.20000307 -0.8544633 0.37862492
0.87041014 -1.4775963 -1.5013169 -0.070331305 1.0691767 1.4810467 -1.1497906 0.055354815
0.13984983 -0.85983646 0.12387958 0.72373396 -1.093768 -1.1092061 0.020763502 -0.6565751
0.0459876 0.3181721 -0.43528095 0.8878118 -0.71177113 -0.39287248 -1.4958026 -1.178639
0.3079061 0.29110444 -0.4172409 0.8906853 1.6855649 -1.1028129 -1.320231 -0.38995236
-0.2223713 -0.5334406 -0.50653803 -0.93080294 -0.07528132 -0.43697163 0.9685656 -1.9136014
-0.4010688 0.6083807 -1.4205906 0.08673306 -2.5788922 0.78064716 0.6116121 -0.2910579
1.8494459 0.60253614 1.2751554 -1.341927 -0.66919357 -0.81214327 0.41804254 0.3003245
-0.94845563 0.30557576 -1.6186659 -2.7013886 -1.0454438 -0.027720623 -0.46818343 1.7396833
-1.4198133 -0.08655999 -0.106693484 0.19080557 0.63929105 0.88122696 0.03603029 -0.02971492
1.1719854 -0.7493674 -0.8474808 0.55281854 -0.067285314 -1.193478 0.3598756 -1.3626419
0.6112257 -1.7620199 -0.14541088 0.9587511 -1.064425 1.1767633 1.1244785 -1.6203512
0.48494262 0.61663336 0.53485537 1.5754187 1.0587697 -1.1096184 0.85705334 0.8580386
0.2298964 -0.76616645 0.4020615 0.67154497 -0.9678099 0.58459514 -0.70126414 0.019534498
1.2561322 0.864508 -0.9222932 -0.29844466 0.3056942 0.29967922 -2.2467563 0.81804144
-0.08534273 0.6787457 0.7227688 -0.43204796 -0.71657556 1.7784151 0.20161039 -0.6413312
-1.0760852 -0.5547735 0.3046487 0.875679 1.1120557 0.29007688 -0.13852316 1.7916436
0.21654725 0.19523063 0.66146046 0.4273822 -0.374354 -0.39327827 -2.030891 2.2109582
0.72809887 0.42307523 0.68873286 0.28855592 -1.2951101 0.07580456 0.128577 0.9553634
1.1008613 0.62389857 1.1866721 1.1009859 0.39271677 -1.9649547 0.41455498 -1.2178515
-0.16448826 0.35116777 -1.0289042 -0.31747922 -1.0633155 -0.8448676 -0.25317535 -1.3855585
-0.31223965 -0.26183724 0.35370928 -2.1416821 -1.0005643 0.47604987 -1.4592711 1.2318454
2.2902918 1.2177938 -0.41966945 0.2112514 -0.9149972 0.011207454 0.717018 0.6053184
00000000: fd53 a63d 1289 c5bf be29 42bd f92e e43d
00000010: 1759 bcbe 0819 ca3d 5e0a 9abf bc35 8ebe
00000020: e7e0 123f d430 db3e 4af2 c63e 9515 d13f
00000030: d5fb 0a3f 1b8d 883f 73b3 d8be 9a46 edbe
00000040: 8aa8 71bf f35b b13d fb0c e83e bd58 0d3f
00000050: dcc5 0ebf 7b10 14bf 9f24 3dbf 4198 a5bf
00000060: 7de8 aa3f f80d b53f 3a85 ee3f 11ae e4bf
00000070: 86e8 203f c206 a03e 84a1 d03e 2642 fb3e
00000080: 04dd 133f 5433 3fbe e314 98bf eea3 aebf
00000090: 9b47 ccbf afb1 09bf 3a73 ac3f ad41 53bf
000000a0: 4ac1 7abe 4a48 cbbe f1f6 38c0 4784 57bf
000000b0: e87e 39bd 5970 c4be 11db 6c3e 6603 f73f
000000c0: bb62 903e 6d76 fb3c 1f67 713e 7f56 0abf
000000d0: 4f9b 63be ddf8 db3e 799d 733e e0de 9a3f
000000e0: 85ff 7b3f 76db d23e ca14 483e a48f ee3c
000000f0: 459f ebbf 6d74 9bbf ab42 ab3f 3735 10be
00000100: 1408 753f d365 af3e a249 98bf 5877 5d3f
00000110: 64d8 063e e9e2 5bbd 189e 32be dff0 873e
00000120: feeb c23b 00f0 2240 c325 0cbf 8b11 313f
00000130: 7c75 90bf 9bcd 4c3e 1bbe 5abf 20db c13e
00000140: 33d3 5e3f e021 bdbf 272b c0bf dc09 90bd
00000150: c8da 883f f092 bd3f 572c 93bf bbbb 623d
00000160: cb34 0f3e 3e1e 5cbf 94b4 fd3d a146 393f
00000170: 9700 8cbf 77fa 8dbf 3818 aa3c 4e15 28bf
00000180: 7e5d 3c3d 74e7 a23e 25dd debe a247 633f
00000190: a236 36bf 9526 c9be 7676 bfbf a5dd 96bf
000001a0: dea5 9d3e a40b 953e 99a0 d5be f403 643f
000001b0: 97c0 d73f f928 8dbf 54fd a8bf d6a7 c7be
000001c0: 4db5 63be 908f 08bf 7aac 01bf 1a49 6ebf
000001d0: 182d 9abd bfba dfbe eaf3 773f e4f0 f4bf
000001e0: e458 cdbe d6be 1b3f ead5 b5bf 1aa1 b13d
000001f0: 920c 25c0 7ed8 473f 9c92 1c3f 8b05 95be
00000200: a5ba ec3f cf3f 1a3f 4b38 a33f 44c4 abbf
00000210: 4550 2bbf 9fe8 4fbf ac09 d63e 22c4 993e
00000220: fdcd 72bf 6d74 9c3e 7230 cfbf 8de3 2cc0
00000230: 1ad1 85bf 5c16 e3bc bdb5 efbe f1ad de3f
00000240: 71bc b5bf 5d46 b1bd 1d82 dabd 8962 433e
00000250: 94a8 233f 1798 613f 7f94 133d b46c f3bc
00000260: 9e03 963f 8bd6 3fbf 80f4 58bf 8485 0d3f
00000270: e2cc 89bd e3c3 98bf 9d41 b83e 0d6b aebf
00000280: 4a79 1c3f de89 e1bf 97e6 14be b670 753f
00000290: 143f 88bf 2ea0 963f e9ee 8f3f ab67 cfbf
000002a0: 664a f83e afdb 1d3f 48ec 083f 52a7 c93f
000002b0: c485 873f fa07 8ebf d967 5b3f 6ba8 5b3f
000002c0: f669 6b3e 7c23 44bf 01db cd3e 5fea 2b3f
000002d0: 64c2 77bf 07a8 153f 0c86 33bf d006 a03c
000002e0: f1c8 a03f 6550 5d3f 681b 6cbf bdcd 98be
000002f0: f383 9c3e 8e6f 993e dbca 0fc0 2a6b 513f
00000300: 2bc8 aebd 47c2 2d3f 6007 393f 6435 ddbe
00000310: 7f71 37bf 1ba3 e33f f472 4e3e 482e 24bf
00000320: 29bd 89bf a305 0ebf eafa 9b3e 802c 603f
00000330: d757 8e3f f584 943e 04d9 0dbe 9454 e53f
00000340: 90be 5d3e 8aea 473e 7955 293f d7d1 da3e
00000350: 54ab bfbe c55b c9be 1efa 01c0 5780 0d40
00000360: b064 3a3f 519d d83e cc50 303f 9abd 933e
00000370: 2bc6 a5bf 6c3f 9b3d b0a9 033e b292 743f
00000380: 06e9 8c3f d1b7 1f3f dfe4 973f 1bed 8c3f
00000390: 2c12 c93e a383 fbbf 8d40 d43e 8fe2 9bbf
000003a0: 9c6f 28be 43cc b33e 22b3 83bf a38c a2be
000003b0: b91a 88bf 3e49 58bf 33a0 81be fb59 b1bf
000003c0: e0dd 9fbe 880f 86be 6219 b53e 5211 09c0
000003d0: 7e12 80bf cfbc f33e 65c9 babf 1cad 9d3f
000003e0: 2494 1240 abe0 9b3f eade d6be 4952 583e
000003f0: 423d 6abf 789f 373c 7e8e 373f 26f6 1a3f

weight f4 [8, 32]
-0.030343948 0.09238452 -0.16364445 0.1101951 0.079346456 -0.16926907 0.17616677 0.13641365
-0.107877195 0.027078928 0.025885886 0.1347864 0.076062724 0.10057558 0.1503068 -0.06278452
-0.073623344 -0.0464389 0.074047476 -0.15311874 -0.13731396 0.11141278 -0.001089746 -0.13625431
-0.10404229 -0.055210046 -0.06545697 -0.0069768284 -0.029714733 0.059196603 0.020335658 0.07183411
-0.15977472 0.08899077 -0.09473148 -0.02331856 0.041287906 -0.19019537 -0.12779535 0.051898092
0.076381624 -0.089076206 -0.124523476 0.16467391 -0.036986258 0.011008429 0.15327436 0.120536
-0.12187178 -0.18082885 0.10165571 0.050735943 0.08402362 -0.098634176 -0.00029751039 -0.18789892
0.006820085 -0.06358905 -0.1790919 -0.12049153 0.01946398 -0.047073487 0.010304856 -0.018027462
0.036168024 0.09132297 -0.13902767 0.07494923 0.10649945 0.11935597 0.046942905 0.1410681
0.06780842 0.016407454 0.015958197 0.1403166 -0.07991064 -0.1671249 -0.099287964 -0.15926307
0.04722885 -0.07714978 0.013571851 0.0363691 -0.09247971 -0.104886144 0.044683043 -0.115820944
0.18292703 -0.08242506 0.0014088772 -0.037422135 -0.06700959 0.06380764 -0.069641754 -0.12408228
0.088972375 0.049616583 0.121808 -0.008133886 0.040750008 0.079314694 0.14417782 -0.10192877
0.17278972 0.13868219 -0.05328699 0.13994388 -0.071560144 -0.14736247 0.15115795 0.16092716
-0.1197965 -0.13746023 0.01064563 -0.080197476 -0.05040037 -0.06616568 -0.17714408 0.18065837
-0.0074463403 -0.14846627 -0.12145068 0.09544378 -0.009779218 -0.06698705 -0.1443556 0.16268778
-0.09257829 -0.055851646 0.010319736 -0.083098345 0.12065109 0.16579312 0.058336463 -0.072345555
0.075550616 -0.004018214 0.11132285 -0.095010206 0.06687498 0.04257011 0.06462715 0.093393184
0.14073849 0.14592545 0.13390757 0.1568836 0.078426614 -0.024386844 -0.043798752 0.12122276
0.007823405 0.13970259 -0.11984544 -0.007370366 -0.11687615 -0.023331963 -0.16719031 -0.11587521
0.07058328 -0.07828796 -0.17597605 -0.12577316 0.100738846 -0.054905724 -0.13796091 0.13422559
-0.1044333 -0.19025972 0.008460507 -0.109122194 0.1256654 -0.078402326 0.08434415 -0.15274324
0.056042332 0.028468773 0.032610666 -0.1349629 0.051859394 0.13004792 -0.12427345 -0.20428854
-0.08002537 -0.15635511 -0.17816761 -0.0035634332 0.10934019 0.042947702 -0.06618796 0.033785235
-0.038751237 -0.0053364467 0.074026175 0.07882783 -0.044041142 0.16906457 0.04642748 -0.02077201
-0.045457527 0.12219352 -0.16813692 0.18193968 -0.16648094 0.112263 -0.13455914 -0.13913178
-0.07233407 0.15442078 -0.116896205 0.11648008 0.16377951 -0.05302535 0.025016988 -0.14344081
-0.0061472035 -0.01870194 0.14643292 0.029999852 0.008513011 -0.07397953 0.08219141 -0.03662512
0.008282571 0.10740742 -0.002974023 -0.0685514 0.05767353 -0.13674961 0.04826005 -0.12933159
-0.031588633 0.12882356 0.08892511 -0.0055129696 0.13812144 0.1105064 -0.16830894 0.09629189
0.15346242 -0.15271723 -0.0040338254 -0.028170178 -0.06505494 0.16646218 -0.1416757 -0.062552564
-0.07895812 0.056130257 0.09484042 -0.005306356 0.013904494 0.029366735 -0.11259456 -0.007698269
00000000: df93 f8bc 1834 bd3d 6992 27be f8ad e13d
00000010: 6580 a23d df54 2dbe 1065 343e 05b0 0b3e
00000020: b8ee dcbd a1d4 dd3c a30e d43c 7205 0a3e
00000030: c6c6 9b3d 92fa cd3d 07ea 193e 2c95 80bd
00000040: d6c7 96bd b736 3ebd 34a6 973d 29cb 1cbe
00000050: 089c 0cbe 622c e43d cfd5 8eba 4086 0bbe
00000060: 2014 d5bd ee23 62bd 4e0e 86bd e19d e4bb
00000070: 506c f3bc 2378 723d f796 a63c c31d 933d
00000080: fc9b 23be cb40 b63d 9402 c2bd 9106 bfbc
00000090: 821d 293d 93c2 42be c9dc 02be 1893 543d
000000a0: f86d 9c3d 966d b6bd 2a06 ffbd 47a0 283e
000000b0: e77e 17bd b35c 343c f4f3 1c3e 94db f63d
000000c0: e997 f9bd 332b 39be de30 d03d 7ed0 4f3d
000000d0: 9314 ac3d b700 cabd 2bfb 9bb9 9368 40be
000000e0: 057b df3b fa3a 82bd de63 37be 43c4 f6bd
000000f0: ed72 9f3c 21d0 40bd b3d5 283c 54ae 93bc
00000100: ec24 143d 8a07 bb3d 455d 0ebe fb7e 993d
00000110: 621c da3d e770 f43d 3447 403d 2874 103e
00000120: 24df 8a3d ed68 863c c4ba 823c 28af 0f3e
00000130: 31a8 a3bd ca22 2bbe 7d57 cbbd dc15 23be
00000140: 0a73 413d b400 9ebd 785c 5e3c c4f7 143d
00000150: 0166 bdbd 8cce d6bd 9105 373d 8833 edbd
00000160: 3951 3b3e 78ce a8bd 13aa b83a f447 19bd
00000170: 533c 89bd 94ad 823d 56a0 8ebd da1e febd
00000180: 2637 b63d c23a 4b3d 7976 f93d fe43 05bc
00000190: 7be9 263d be6f a23d 5aa3 133e 08c0 d0bd
000001a0: caef 303e b402 0e3e 7543 5abd 734d 0f3e
000001b0: 208e 92bd 30e6 16be 26c9 1a3e 17ca 243e
000001c0: de57 f5bd 60c2 0cbe 026b 2e3c 933e a4bd
000001d0: 9e70 4ebd df81 87bd 4265 35be 82fe 383e
000001e0: 6e00 f4bb 8b07 18be 22bb f8bd 0778 c33d
000001f0: 0339 20bc 8230 89bd f4d1 13be a097 263e
00000200: b099 bdbd b2c4 64bd 1c14 293c 772f aabd
00000210: eb17 f73d acc5 293e 37f2 6e3d e829 94bd
00000220: 48ba 9a3d 39ab 83bb 3cfd e33d b694 c2bd
00000230: c0f5 883d ff5d 2e3d 3d5b 843d ed44 bf3d
00000240: c01d 103e 7b6d 153e 111f 093e 18a6 203e
00000250: 229e a03d ebc6 c7bc 5266 33bd a343 f83d
00000260: bd2d 003c 320e 0f3e 8771 f5bd 1c83 f1bb
00000270: c35c efbd ac22 bfbc f033 2bbe fb4f edbd
00000280: f78d 903d 7055 a0bd 1133 34be aeca 00be
00000290: 2b50 ce3d d3e4 60bd a045 0dbe 6f72 093e
000002a0: 20e1 d5bd 72d3 42be f09d 0a3c 757b dfbd
000002b0: 6eae 003e 6691 a0bd a0bc ac3d b968 1cbe
000002c0: a58c 653d 5837 e93c c392 053d b733 0abe
000002d0: 846a 543d 482b 053e 1483 febd 0431 51be
000002e0: 57e4 a3bd 8e1b 20be 9271 36be 7d88 69bb
000002f0: c0ed df3d eee9 2f3d 8e8d 87bd 6362 0a3d
00000300: 9eb9 1ebd 5cdd aebb 099b 973d 7c70 a13d
00000310: 7c64 34bd 431f 2d3e be2a 3e3d 102a aabc
00000320: ac31 3abd 9940 fa3d 162c 2cbe 654e 3a3e
00000330: fb79 2abe 25ea e53d dfc9 09be 9078 0ebe
00000340: e323 94bd 7b20 1e3e 4767 efbd 1c8d ee3d
00000350: d1b5 273e 1c31 59bd 6df0 cc3c 26e2 12be
00000360: 7b6e c9bb d034 99bc 83f2 153e 40c2 f53c
00000370: 287a 0b3c 9482 97bd f853 a83d 3904 16bd
00000380: 9fb3 073c 6cf8 db3d d4e7 42bb ad64 8cbd
00000390: 143b 6c3d 1708 0cbe 55ac 453d 806f 04be
000003a0: 1563 01bd 53ea 033e 5e1e b63d 24a6 b4bb
000003b0: b56f 0d3e 2e51 e23d 2e59 2cbe af34 c53d
000003c0: 4125 1d3e e861 1cbe 2e2e 84bb 25c5 e6bc
000003d0: 863b 85bd 1075 2a3e 6f13 11be 8f1b 80bd
000003e0: cbb4 a1bd d7e8 653d b23b c23d f1e0 adbb
000003f0: adcf 633c 8292 f03c fa97 e6bd c341 fcbb

weight f4 [8, 32]
-0.09149658 0.04332761 0.0430242 -0.04512089 -0.0388996 -0.10986207 -0.08351289 0.095394656
-0.011812295 0.13409722 0.079478666 -0.09929028 0.10184558 -0.03515535 0.07913199 0.01740511
0.111257836 0.020367963 -0.17821798 0.068323776 -0.17235282 -0.14182048 0.06896816 -0.026450802
-0.172649 -0.14969589 -0.11453592 -0.016583277 0.03394977 -0.0040244632 0.014350277 0.09200017
0.07176449 0.040105544 -0.11858888 0.13409732 -0.004086486 0.11760367 -0.18396148 -0.0783152
0.1067274 -0.08403739 -0.057385743 -0.007570381 0.15987661 0.16360526 -0.14210339 0.0060588573
-0.1642643 -0.036374103 -0.17793925 -0.00033151743 -0.0525891 0.109036356 -0.121607006 -0.037730563
0.071396865 0.0663675 -0.05223322 -0.12814589 -0.089102335 0.07404487 0.11511564 -0.09884956
-0.093243144 0.057543006 0.082174726 -0.08733873 0.066017665 0.07681879 0.06597438 -0.13854839
0.08194836 -0.07272907 -0.124632835 -0.013208448 -0.02399228 -0.05640925 -0.15497036 0.15495774
0.03778068 -0.15713857 -0.08139535 0.020453177 0.04139611 -0.043470662 0.016435089 -0.12946619
0.1559356 -0.025998697 -0.07966198 -0.03265978 0.11868328 0.028914697 0.090900145 0.15082565
-0.11839209 -0.04004122 0.07070064 0.08597672 -0.0379216 0.13492346 0.06461331 0.0003838692
-0.047656305 0.02880402 0.13004778 -0.12164924 0.04955577 -0.035862964 0.13220495 0.09980947
0.06565651 -0.08475857 0.104388855 0.13037515 -0.1287754 -0.118604 0.034039076 -0.018455818
0.010458744 -0.09653909 0.062577836 0.1895464 -0.11396382 0.092335306 0.14212374 0.037520684
0.12313917 -0.11822458 0.06330538 -0.12969539 -0.15348166 -0.0066012815 0.13304168 0.021083597
-0.10683764 -0.044207904 0.05692502 -0.07408577 -0.15851529 0.038769126 -0.08152408 -0.017795654
-0.033748146 -0.05256992 0.1542838 0.15208216 0.08613253 0.05103514 0.025510387 -0.107342646
0.14368208 0.17215712 0.08003616 0.03078456 0.13510486 -0.12203076 -0.10141707 -0.048376165
-0.12221741 0.04699545 -0.023343682 0.12994753 0.13641386 0.08002844 -0.08627736 0.058662966
0.16929506 0.09005258 0.06379762 0.10267204 0.12474964 -0.054037575 -0.15535463 -0.11916362
-0.06445705 -0.111185126 -0.13057026 0.13585953 -0.18731666 -0.11737465 0.14406373 0.110440224
-0.0018921453 -0.017786196 0.07643104 -0.14737234 -0.09789478 -0.0848936 0.15543585 -0.06540663
0.1626132 -0.06420129 0.09084731 0.13375655 0.024688555 -0.054408237 -0.0083981985 0.0581593
-0.056205854 0.07342174 -0.09181854 0.18606025 0.019585973 -0.058185764 0.018066658 -0.099263564
-0.07576347 -0.1365622 -0.122802846 0.062464472 0.101769194 -0.15573312 0.09531615 0.057095114
0.02964764 0.15463823 -0.03976232 0.05754519 -0.046102945 0.02101479 0.040566735 -0.054181173
-0.06100745 -0.09556188 0.13146763 -0.053891987 0.04915463 0.1852673 0.119133055 -0.089382775
0.16253413 0.04752328 0.021313783 0.19712918 0.15156026 -0.17169468 0.032583747 -0.10614337
0.14054552 0.051388487 -0.021751396 0.075913265 -0.026871534 0.025730314 0.04731473 -0.14094666
-0.09451896 -0.12011587 0.02152221 0.17211907 0.009502426 0.13312662 -0.00046414117 0.18223888
00000000: 8f62 bbbd 4b78 313d 253a 303d afd0 38bd
00000010: 3055 1fbd 5dff e0bd ce08 abbd 465e c33d
00000020: 5b88 41bc c850 093e b6c5 a23d b458 cbbd
00000030: 6a94 d03d 0eff 0fbd f40f a23d 2995 8e3c
00000040: 26db e33d b7da a63c c67e 36be 56ed 8b3d
00000050: 427d 30be 6339 11be 2e3f 8d3d 5aaf d8bc
00000060: e6ca 30be e149 19be cf91 eabd a7d9 87bc
00000070: ea0e 0b3d a5df 83bb 6d1d 6b3c 966a bc3d
00000080: 43f9 923d b645 243d bade f2bd cf50 093e
00000090: eee7 85bb 31da f03d 6660 3cbe b863 a0bd
000000a0: e593 da3d cc1b acbd 500d 6bbd f510 f8bb
000000b0: b2b6 233e 2388 273e 8d83 11be 6189 c63b
000000c0: e734 28be 03fd 14bd b535 36be 84cf adb9
000000d0: ab67 57bd 744e df3d 180d f9bd 5d8b 1abd
000000e0: 8538 923d afeb 873d 80f2 55bd ad38 03be
000000f0: 497b b6bd d6a4 973d c0c1 eb3d a371 cabd
00000100: 43f6 bebd 37b2 6b3d 394b a83d a6de b2bd
00000110: 4534 873d 2b53 9d3d 931d 873d a1df 0dbe
00000120: 8bd4 a73d fbf2 94bd 803f ffbd 3f68 58bc
00000130: 758b c4bc 630d 67bd 8db0 1ebe 3ead 1e3e
00000140: eabf 1a3d efe8 20be 9bb2 a6bd 6c8d a73c
00000150: f88e 293d 4b0e 32bd e1a2 863c c992 04be
00000160: 95ad 1f3e 38fb d4bc d225 a3bd 43c6 05bd
00000170: 3810 f33d 84de ec3c db29 ba3d 0a72 1a3e
00000180: 8d77 f2bd 4302 24bd 7fcb 903d 9014 b03d
00000190: ae53 1bbd 6029 0a3e fc53 843d 0d42 c939
000001a0: 4233 43bd 68f6 eb3c 3f2b 053e 3d23 f9bd
000001b0: fefa 4a3d 0be5 12bd bc60 073e e868 cc3d
000001c0: ec76 863d e795 adbd d3c9 d53d 1081 053e
000001d0: b3dd 03be a7e6 f2bd 8f6c 0b3d a830 97bc
000001e0: 275b 2b3c 49b6 c5bd cf28 803d 7418 423e
000001f0: dd65 e9bd 4b1a bd3d e388 113e 4aaf 193d
00000200: 6430 fc3d bb1f f2bd 40a6 813d dece 04be
00000210: 4c2a 1dbe 904f d8bb 143c 083e 82b7 ac3c
00000220: b1cd dabd 5913 35bd 362a 693d 48ba 97bd
00000230: d551 22be 60cc 1e3d 19f6 a6bd 31c8 91bc
00000240: 7f3b 0abd 8e53 57bd 93fc 1d3e 6dbb 1b3e
00000250: 4066 b03d 390a 513d 29fb d03c 76d6 dbbd
00000260: 6521 133e f549 303e 00ea a33d e72f fc3c
00000270: ee58 0a3e 43eb f9bd c1b3 cfbd 1626 46bd
00000280: 1f4d fabd 4d7e 403d 403b bfbc f710 053e
00000290: 13b0 0b3e f3e5 a33d 2fb2 b0bd 9448 703d
000002a0: af5b 2d3e 7d6d b83d 54a8 823d b845 d23d
000002b0: bd7c ff3d 8156 5dbd 4915 1fbe 0e0c f4bd
000002c0: 0f02 84bd 07b5 e3bd 36b4 05be c31e 0b3e
000002d0: f0cf 3fbe 1f62 f0bd 7185 133e 7c2e e23d
000002e0: dc01 f8ba 5bb4 91bc e187 9c3d c6e8 16be
000002f0: 0f7d c8bd b2dc adbd 932a 1f3e e9f3 85bd
00000300: 1384 263e f77b 83bd 280e ba3d 7af7 083e
00000310: a73f ca3c 2cdb 5ebd 9998 09bc 7238 6e3d
00000320: 1c38 66bd 235e 963d 5c0b bcbd 9486 3e3e
00000330: c372 a03c 3254 6ebd 8700 943c b24a cbbd
00000340: e129 9bbd f6d6 0bbe 0f80 fbbd bfda 7f3d
00000350: 5e6c d03d 8178 1fbe 1d35 c33d 91dc 693d
00000360: 9cdf f23c 7c59 1e3e d1dd 22bd 81b4 6b3d
00000370: 71d6 3cbd 3527 ac3c 4e29 263d 14ed 5dbd
00000380: f3e2 79bd f2b5 c3bd 739f 063e d8bd 5cbd
00000390: 5e56 493d b6b6 3d3e 08fc f33d 510e b7bd
000003a0: 596f 263e c5a7 423d 3e9a ae3c 3bdc 493e
000003b0: 9d32 1b3e bbd0 2fbe 8976 053d b261 d9bd
000003c0: 2aeb 0f3e bc7c 523d fc2f b2bc 6a78 9b3d
000003d0: b121 dcbc 61c8 d23c 17cd 413d 5254 10be
000003e0: 2893 c1bd 4fff f5bd 594f b03c fb3f 303e
000003f0: 10b0 1b3c 5852 083e f957 f3b9 d49c 3a3e

weight f4 [8, 32]
0.0005401384 -0.13732566 -0.10308624 -0.02781118 0.14739089 -0.20508245 0.118931115 -0.09865377
0.09779174 -0.020820234 0.043962106 0.13765652 0.072729014 -0.09334705 0.0700828 0.09554302
-0.084559456 -0.010948664 0.09104856 -0.045664616 0.09541839 -0.10080242 0.18463166 -0.06969395
0.029861327 0.13054238 -0.063538015 -0.1061647 -0.08131403 -0.1335558 -0.031475924 0.14258558
0.034012772 0.06649094 -0.073780976 0.016537737 0.07488908 -0.17472707 0.15648998 -0.058041234
0.082998 0.05593812 -0.07734295 0.041792743 0.018399267 0.18694481 -0.048812043 -0.15042363
0.10152709 -0.09439316 0.13629861 0.047467623 -0.10470409 0.15093325 -0.07450679 -0.03995841
-0.06511036 -0.10495424 -0.13818851 -0.031135563 0.052798536 0.15131085 0.08759511 -0.081599765
0.13548332 -0.020791112 0.14277668 0.0045340806 -0.10046299 -0.03273009 0.11854212 -0.10964331
-0.10540832 -0.115494184 -0.12257897 -0.10357075 0.0100212535 -0.099365994 0.14009039 -0.12046357
-0.023840815 -0.016208835 0.13146316 -0.07381449 0.06991088 -0.042091478 -0.091628306 0.07270661
0.0397734 -0.14879575 -0.09907297 0.0029968622 0.045113057 -0.07496574 -0.12703629 -0.16622378
0.115849465 -0.03175314 -0.06404595 -0.14092529 -0.15352392 -0.13434742 -0.034563348 -0.17127535
-0.18284337 0.12100501 0.01805226 0.07381097 0.018808866 -0.11314196 0.16121973 -0.029929608
0.09608983 0.08914665 -0.08997133 0.022918308 0.07802873 -0.049949978 0.049330194 0.110275894
-0.118430756 0.15863727 0.12166488 -0.11248524 -0.07495924 -0.044048678 0.039405745 0.14692508
0.006696118 0.054019656 0.11216977 -0.17240822 0.14660211 0.14177392 -0.16145758 -0.13724995
-0.09896996 -0.039383393 -0.050721128 -0.079726115 0.080313295 0.08033456 -0.13631915 0.08829757
-0.0006643791 0.08428309 0.090666845 -0.038391948 -0.0060221404 -0.12584734 0.13691902 0.022521343
0.088760346 0.11156366 -0.08030188 0.11592101 -0.0049868603 0.17373292 -0.053542197 0.008128427
-0.013215004 -0.02109126 -0.13717003 -0.05007241 0.03056043 -0.1551181 0.1635999 0.0057328986
-0.14297096 -0.14691249 0.051130418 -0.05160024 0.046592537 0.07103141 0.09195073 -0.13449714
-0.11003096 0.027263163 -0.10459944 -0.15453829 0.033032116 0.09220579 -0.13080966 0.07801464
-0.06289813 -0.0940501 0.005037156 0.12723184 0.040655095 -0.051412832 -0.09891503 -0.094055474
-0.04213786 0.06891792 -0.10317058 0.09862083 0.16093053 0.021990247 0.13696107 -0.050851166
0.15806521 -0.115746625 0.077606976 -0.045492873 -0.00078710413 -0.05823644 0.12056308 -0.037984136
-0.17446935 0.01794954 0.09209134 -0.010844586 0.06434021 0.024064895 -0.1764018 -0.1027604
-0.16389774 0.04238654 0.008003338 0.010579731 0.06409471 -0.08641721 0.12421652 -0.010072266
-0.10372488 0.040807635 0.13841301 -0.05512532 0.09283639 -0.12914751 0.14690836 0.118384935
0.10856254 0.109668635 0.057559382 -0.1600667 0.00927583 0.094778486 0.17591332 -0.14661434
-0.017579382 0.12415842 -0.122913726 -0.08681762 0.10038425 -0.074331604 -0.060577415 0.008986761
-0.01626838 0.13118984 0.045779042 0.08878278 0.10174854 0.1158536 0.031032648 -0.12390614
00000000: 1398 0d3a 199f 0cbe e11e d3bd 46d4 e3bc
00000010: a3ed 163e 2201 52be 2892 f33d fd0a cabd
00000020: 0947 c83d 328f aabc 9c11 343d d5f5 0c3e
00000030: f3f2 943d bd2c bfbd 9287 8f3d 0fac c33d
00000040: 822d adbd 0662 33bc ab77 ba3d d20a 3bbd
00000050: b86a c33d 8071 cebd 1510 3d3e b4bb 8ebd
00000060: be9f f43c e7ac 053e 3820 82bd e16c d9bd
00000070: f887 a6bd dac2 08be e6ec 00bd f401 123e
00000080: fa50 0b3d 672c 883d 7b1a 97bd 267a 873c
00000090: 725f 993d a7eb 32be e93e 203e a5bc 6dbd
000000a0: dbfa a93d 5f1f 653d fb65 9ebd de2e 2b3d
000000b0: 0fba 963c 766e 3f3e 23ef 47bd a708 1abe
000000c0: 6fed cf3d 3351 c1bd dd91 0b3e 696d 423d
000000d0: 196f d6bd 3f8e 1a3e 0497 98bd 6eab 23bd
000000e0: 9558 85bd 40f2 d6bd 4a81 0dbe 0210 ffbc
000000f0: 4743 583d 3bf1 1a3e 1165 b33d c71d a7bd
00000100: 24bc 0a3e 1f52 aabc 0d34 123e a092 943b
00000110: 8abf cdbd fd0f 06bd 36c6 f23d ac8c e0bd
00000120: 51e0 d7bd 3788 ecbd af0a fbbd e71c d4bd
00000130: 2f30 243c 6680 cbbd db73 0f3e 9bb5 f6bd
00000140: d04d c3bc 64c8 84bc 479e 063e 0d2c 97bd
00000150: 6f2d 8f3d 1d68 2cbd 9fa7 bbbd 34e7 943d
00000160: 6fe9 223d ea5d 18be c5e6 cabd 0167 443b
00000170: 78c8 383d a387 99bd cd15 02be 9136 2abe
00000180: 7c42 ed3d 950f 02bd 862a 83bd b84e 10be
00000190: 6035 1dbe 5f92 09be 4c92 0dbd ce62 2fbe
000001a0: 4b3b 3bbe 7ad1 f73d 55e2 933c 352a 973d
000001b0: 0d15 9a3c f9b6 e7bd c916 253e f02e f5bc
000001c0: bfca c43d 8592 b63d e342 b8bd 2dbf bb3c
000001d0: 87cd 9f3d 5998 4cbd 750e 4a3d 54d8 e13d
000001e0: d38b f2bd cf71 223e 702b f93d a95e e6bd
000001f0: 3b84 99bd 636c 34bd eb67 213d 8773 163e
00000200: 1c6b db3b b743 5d3d 44b9 e53d c88b 30be
00000210: dd1e 163e 2f2d 113e 2355 25be 408b 0cbe
00000220: c3b0 cabd 7b50 21bd f5c0 4fbd 7247 a3bd
00000230: 4c7b a43d 7286 a43d 3f97 0bbe 5bd5 b43d
00000240: ba29 2eba 9d9c ac3d 8aaf b93d e040 1dbd
00000250: 6055 c5bb 20de 00be 8034 0c3e ae7e b83c
00000260: fcc7 b53d 7d7b e43d 5075 a4bd ff67 ed3d
00000270: d168 a3bb 0be7 313e 104f 5bbd 182d 053c
00000280: be83 58bc 94c7 acbc 4d76 0cbe ba18 4dbd
00000290: de59 fa3c 47d7 1ebe bb86 273e 0adb bb3b
000002a0: fb66 12be 3a70 16be 216e 513d c65a 53bd
000002b0: d1d7 3e3d ea78 913d aa50 bc3d 9eb9 09be
000002c0: e957 e1bd ff56 df3c 3b38 d6bd 493f 1ebe
000002d0: af4c 073d 64d6 bc3d f8f2 05be 24c6 9f3d
000002e0: bcd0 80bd 579d c0bd ba0e a53b 1049 023e
000002f0: f585 263d 4396 52bd f793 cabd 28a0 c0bd
00000300: c098 2cbd d724 8d3d 194b d3bd b8f9 c93d
00000310: f9ca 243e e424 b43c 863f 0c3e 5049 50bd
00000320: d9db 213e 910c edbd 68f0 9e3d bc56 3abd
00000330: aa55 4eba 5589 6ebd c7e9 f63d 4195 1bbd
00000340: 18a8 32be ea0a 933c 629a bc3d 7ead 31bc
00000350: cdc4 833d be23 c53c aca2 34be 0b74 d2bd
00000360: cfd4 27be 829d 2d3d 6f20 033c 9c56 2d3c
00000370: 1644 833d 82fb b0bd 3b65 fe3d 2506 25bc
00000380: b66d d4bd e825 273d 24bc 0d3e 16cb 61bd
00000390: 0121 be3d 3f3f 04be 256f 163e cd73 f23d
000003a0: 0956 de3d f399 e03d 63c3 6b3d 86e8 23be
000003b0: a7f9 173c 391b c23d 9f22 343e 1222 16be
000003c0: a302 90bc c546 fe3d 31ba fbbd 70cd b1bd
000003d0: 4296 cd3d 2b3b 98bd 0620 78bd 353d 133c
000003e0: 4445 85bc a156 063e ce82 3b3d bfd3 b53d
000003f0: 8a61 d03d a744 ed3d 2e38 fe3c 81c2 fdbd

weight f4 [8, 32]
0.153099 0.061261594 -0.095556214 0.12011563 0.14925231 0.14733334 0.14891511 -0.14656346
-0.025209343 0.14714013 0.12828869 -0.012423052 -0.06471636 -0.00964419 0.06363168 0.2038325
-0.1507055 -0.14903487 0.035542987 0.04303057 0.037844136 0.021773921 -0.1037444 -0.077037886
-0.10546628 0.086024374 0.022013986 0.18301812 0.069565006 0.06916726 -0.15782753 0.11387325
-0.023151426 0.10138065 0.008718483 -0.12572928 -0.14964318 -0.098910086 -0.14339286 -0.083941296
-0.04402575 -0.15158771 -0.1142607 -0.15917264 -0.051584024 -0.16382612 -0.08922374 0.12020677
-0.015439342 0.08492581 0.13899173 -0.079398975 -0.014792705 0.12577394 0.16046466 -0.062459115
0.059021182 -0.14781009 0.08231238 -0.05688334 0.06545925 0.011182859 -0.0628983 0.14910492
0.073441006 0.021990601 0.104762115 -0.10323681 -0.15679157 -0.03523578 -0.13935645 0.17189342
0.017917287 -0.05087815 0.063199505 0.026204083 -0.06697678 -0.10328824 -0.083967954 0.062355064
-0.121358186 0.16278145 -0.06617092 -0.049060494 0.01049999 0.06284122 0.062264595 -0.09393402
0.14498895 0.0044611045 0.17264758 0.06541921 0.0034584813 0.17792317 0.00734003 -0.15502593
-0.024432644 -0.109216705 0.064597964 0.17246388 -0.13900645 0.0073801256 -0.04899004 -0.15987019
0.045235567 -0.04728329 -0.15182012 -0.040009614 0.14544034 0.04529298 -0.13822104 0.0066242428
-0.07299159 -0.13795225 0.11515027 -0.14341158 0.10451274 -0.116212495 -0.020734174 -0.06144327
0.15247 0.031117622 0.05259801 -0.11813604 0.09494731 0.009188556 -0.11325092 -0.028200805
0.033655442 0.115577735 0.0258317 0.14621902 -0.008633043 -0.08110267 0.15365778 0.03899232
-0.1379454 -0.16012755 0.0987467 0.14272402 0.11070883 0.10896863 -0.10871644 -0.10728258
-0.029399795 -0.14607005 -0.04788905 0.12061436 -0.15150811 -0.06147832 -0.1675171 0.047081403
0.146577 0.13564827 -0.12879236 -0.04478133 0.101481184 -0.09074927 0.16107611 0.117833264
0.14545785 -0.0041351514 0.14595976 -0.08748972 0.061090183 -0.09015627 -0.010657769 -0.07242216
-0.18483734 0.08531618 0.0001839241 -0.07058653 0.031787585 0.13892297 0.073305495 -0.034931112
-0.053387046 -0.1608656 -0.052685596 0.059994675 0.039439764 -0.15451948 0.12201348 -0.026840964
0.14803404 -0.03229467 -0.035858847 -0.053073917 -0.114720285 0.124643065 -0.06777605 0.1679283
0.038765192 0.017054068 0.11110227 0.042811017 0.16232367 0.023915494 0.018413853 -0.068641916
-0.070507914 -0.12280254 -0.13337924 -0.08413752 -0.11870721 0.17503163 -0.029035108 -0.033906892
0.016186439 0.15932481 0.06721965 0.112771295 0.02611785 0.037706215 0.012126425 -0.11524733
-0.032900967 -0.002440803 0.073783614 -0.12976359 -0.18168312 0.058434 -0.11661896 -0.10152515
-0.13541883 -0.05474675 0.14936726 0.1448782 -0.16053903 0.09016167 -0.17049012 0.040222306
-0.13962476 -0.11538134 0.027478429 0.038920235 0.11901699 0.010236786 0.012192151 -0.04816663
0.13535416 0.102071546 -0.16105103 0.07876372 0.10257988 -0.0042915735 -0.047990724 0.019667171
-0.13419102 -0.06164756 0.08923562 -0.13832958 -0.03310904 -0.061760582 -0.12485822 -0.07383055
00000000: fcc5 1c3e 70ed 7a3d fab2 c3bd 2fff f53d
00000010: 99d5 183e 8dde 163e 347d 183e bb14 16be
00000020: d383 cebc e7ab 163e 1c5e 033e 0f8a 4bbc
00000030: 038a 84bd aa02 1ebc 5451 823d 78b9 503e
00000040: 8b52 1abe 999c 18be 8695 113d d340 303d
00000050: 7402 1b3d 395f b23c f277 d4bd 0ac6 9dbd
00000060: b4fe d7bd 8c2d b03d ad56 b43c 1a69 3b3e
00000070: 1978 8e3d 90a7 8d3d 8a9d 21be 6136 e93d
00000080: 0fa8 bdbc a9a0 cf3d f8d7 0e3c 2dbf 00be
00000090: 103c 19be 5f91 cabd 94d5 12be 6ae9 abbd
000000a0: 5854 34bd cf39 1bbe 8401 eabd 27fe 22be
000000b0: c549 53bd 09c2 27be f0ba b6bd f82e f63d
000000c0: 4bf5 7cbc 95ed ad3d d953 0e3e ee9b a2bd
000000d0: 1a5d 72bc e2ca 003e d950 243e 21d5 7fbd
000000e0: 32c0 713d 875b 17be 6593 a83d 81fe 68bd
000000f0: 800f 863d 4f38 373c d3d0 80bd f6ae 183e
00000100: 3d68 963d a225 b43c 858d d63d d26d d3bd
00000110: f88d 20be 6553 10bd 75b3 0ebe d404 303e
00000120: 46c7 923c 9b65 50bd be6e 813d f2a9 d63c
00000130: 1f2b 89bd c988 d3bd 64f7 abbd 0668 7f3d
00000140: a48a f8bd 2eb0 263e 9f84 87bd a8f3 48bd
00000150: 2608 2c3c e6b2 803d 2909 7f3d 7b60 c0bd
00000160: fc77 143e 752e 923b 87ca 303e 82fa 853d
00000170: b0a7 623b 7e31 363e a284 f03b 1ebf 1ebe
00000180: f826 c8bc 02ad dfbd f04b 843d 5f9a 303e
00000190: b557 0ebe fbd4 f13b c8a9 48bd 03b5 23be
000001a0: ee48 393d 20ac 41bd bc76 1bbe 1fe1 23bd
000001b0: 50ee 143e 2285 393d d189 0dbe 2d10 d93b
000001c0: 9d7c 95bd 5b43 0dbe e8d3 eb3d 7cda 12be
000001d0: c70a d63d d100 eebd b7da a9bc f0ab 7bbd
000001e0: 1821 1c3e 62ea fe3c 0371 573d 4ff1 f1bd
000001f0: bc73 c23d 998b 163c 19f0 e7bd 6005 e7bc
00000200: 4ada 093d 05b4 ec3d 009d d33c 70ba 153e
00000210: 9b71 0dbc 2819 a6bd 7758 1d3e 69b6 1f3d
00000220: 8f41 0dbe 7af8 23be b63b ca3d 3f26 123e
00000230: 50bb e23d f22a df3d baa6 debd f8b6 dbbd
00000240: d7d7 f0bc 6393 15be 4f27 44bd a904 f73d
00000250: f124 1bbe b1d0 7bbd 9a89 2bbe 6ed8 403d
00000260: 4818 163e 61e7 0a3e 25e2 03be a16c 37bd
00000270: 5ed5 cf3d c1da b9bd 23f1 243e 9152 f13d
00000280: e7f2 143e 2a80 87bb 7a76 153e cf2d b3bd
00000290: b339 7a3d daa3 b8bd ec9d 2ebc 1252 94bd
000002a0: 0046 3dbe 40ba ae3d c0db 4039 ac8f 90bd
000002b0: b333 023d d341 0e3e 3121 963d ed13 0fbd
000002c0: 60ac 5abd f4b9 24be dacc 57bd fabc 753d
000002d0: 978b 213d 5b3a 1ebe 34e2 f93d 95e1 dbbc
000002e0: 3c96 173e 6a47 04bd bae0 12bd 0964 59bd
000002f0: 78f2 eabd dd44 ff3d 2bce 8abd 65f5 2b3e
00000300: 40c8 1e3d f9b4 8b3c 9689 e33d 9b5a 2f3d
00000310: 2d38 263e 6dea c33c a6d8 963c 2294 8cbd
00000320: 7466 90bd e67f fbbd 9194 08be 4b50 acbd
00000330: c41c f3bd 7e3b 333e 09db edbc f4e1 0abd
00000340: 6c99 843c 0b26 233e 75aa 893d a3f4 e63d
00000350: 1af5 d53c d571 1a3d eaad 463c cb06 ecbd
00000360: 2ac3 06bd e1f5 1fbb dd1b 973d bfe0 04be
00000370: 240b 3abe 7d58 6f3d ecd5 eebd 6bec cfbd
00000380: 3cab 0abe 213e 60bd bbf3 183e f35a 143e
00000390: 5864 24be afa6 b83d f694 2ebe 25c0 243d
000003a0: cbf9 0ebe 0d4d ecbd 711a e13c d36a 1f3d
000003b0: 2ebf f33d 31b8 273c 96c1 473c 5f4a 45bd
000003c0: 489a 0a3e e30a d13d 90ea 24be e04e a13d
000003d0: 6615 d23d 54a0 8cbb ec91 44bd 0c1d a13c
000003e0: 5f69 09be 2782 7cbd 2ac1 b63d 45a6 0dbe
000003f0: 589d 07bd aaf8 7cbd abb5 ffbd 7934 97bd

weight f4 [8, 32]
-0.026657216 0.06442072 0.17940298 0.1026925 0.016384581 0.02808018 0.07077801 0.12996256
-0.0015117669 -0.011400707 -0.01940263 -0.17433316 0.14449535 -0.03239426 -0.08575716 0.02128869
-0.054875027 -0.15610434 0.04867865 0.11576596 -0.07916594 -0.0908983 -0.15461984 -0.16457735
-0.028610656 0.02076097 0.12611264 -0.0844704 0.09589264 -0.09830914 0.14673372 -0.065109834
-0.118547454 0.038908646 -0.08625907 0.08509628 -0.039763793 0.15004194 -0.15603396 0.1485747
-0.07129489 -0.15505339 -0.098354116 -0.13535959 0.07534599 -0.018289391 0.121889345 -0.038051955
-0.0212996 0.13887385 -0.08257549 -0.028675715 0.0015701414 -0.067799374 0.036950797 0.13386415
0.042548552 -0.11437483 0.05754539 0.065618314 0.10445192 0.11855482 -0.0924066 0.11290961
-0.11575503 0.065557346 -0.10580448 -0.049355343 -0.10639034 -0.025250074 0.101524994 0.10056376
0.0026323453 -0.049605694 -0.1779787 -0.15702295 -0.14894673 -0.08163523 0.14240655 -0.11594497
-0.1983064 -0.011409024 -0.16847259 -0.047431353 -0.15901586 0.05100127 0.040336426 0.119471245
0.07901577 -0.13702941 0.034189135 0.119574055 -0.06301347 0.13090134 0.13523015 0.11281978
-0.033861414 -0.15993607 -0.11801879 -0.14173037 0.029640902 0.02000126 -0.017967109 0.06699849
-0.1163683 -0.06723916 0.16183166 0.08509781 -0.119599074 -0.02304874 0.053236905 0.060530037
-0.122692026 0.09589349 -0.060035374 0.114272006 -0.113961786 -0.060667597 -0.08650411 0.11248307
0.098830804 0.04046667 -0.034390327 0.12832727 -0.0029070806 -0.089081086 0.13815856 0.05847109
0.15623735 -0.038172826 -0.061040197 0.06142235 0.17668046 -0.19379753 0.13237914 -0.11132125
-0.10335782 0.018227756 -0.08339761 -0.06751973 0.032598548 0.0069199284 -0.14703539 -0.08474096
-0.17928274 0.032795627 0.18171406 -0.16538218 -0.17087913 -0.00911219 0.050571263 0.103829205
-0.07358207 0.12277662 -0.07832914 0.022802748 -0.09009776 0.03746393 0.17245434 -0.109316885
0.099504 -0.1645066 -0.06026241 -0.026970807 -0.10184787 -0.09647157 -0.049901605 -0.07408403
0.12232456 0.17561905 0.10735433 0.0856697 -0.10981088 -0.1278726 -0.071922824 -0.13652563
0.045755453 -0.02059266 0.12242764 0.124863245 0.07178743 0.15457922 0.012832329 0.060757868
0.025533592 0.14775829 0.048730206 0.12798946 0.038664185 0.1967523 -0.17485629 -0.12436158
0.16818798 0.13461651 0.01510119 -0.020009067 -0.113387994 0.02363743 -0.116239995 0.025109138
-0.1299192 -0.08964364 0.025836889 0.1490706 0.14521219 0.05945025 0.0037117847 0.0192259
-0.036931243 0.12515457 -0.03176792 0.0814276 0.09374409 0.09963745 -0.04285082 -0.06290919
-0.14516802 -0.14683844 -0.089569815 -0.07772538 0.148006 -0.16595675 -0.10741559 -0.06356718
0.14877573 -0.10995063 -0.01560315 -0.048632164 -0.090956025 0.08018346 -0.045914624 -0.12029333
0.013252061 -0.17327206 -0.079088554 -0.1631564 0.10965905 0.09219655 -0.122985736 -0.049020063
0.18183059 -0.09716943 -0.06759209 0.02854338 0.122179404 0.14646839 -0.114893496 -0.09692904
-0.14241278 -0.16111206 -0.106696345 0.13098195 -0.14490929 0.057685222 -0.091396 -0.043710735
00000000: 3c60 dabc 03ef 833d 6ab5 373e 7250 d23d
00000010: f538 863c 6808 e63c 10f4 903d e814 053e
00000020: 7b26 c6ba 08ca 3abc 44f2 9ebc 6484 32be
00000030: 97f6 133e d8af 04bd 73a1 afbd 9e65 ae3c
00000040: a3c4 60bd d1d9 1fbe 4463 473d b416 ed3d
00000050: c121 a2bd e328 babd aa54 1ebe f786 28be
00000060: e560 eabc e912 aa3c ac23 013e d1fe acbd
00000070: 5c63 c43d 4d56 c9bd 5d41 163e 4e58 85bd
00000080: 02c9 f2bd ac5e 1f3d 98a8 b0bd f546 ae3d
00000090: 5cdf 22bd 98a4 193e 5ec7 1fbe f723 183e
000000a0: 0e03 92bd 51c6 1ebe e26d c9bd b49b 0abe
000000b0: 004f 9a3d a2d3 95bc 1fa1 f93d 5edc 1bbd
000000c0: 807c aebc f234 0e3e 571d a9bd 55e9 eabc
000000d0: 34cd cd3a 66da 8abd b859 173d af13 093e
000000e0: 6447 2e3d 5a3d eabd b7b4 6b3d e562 863d
000000f0: e3ea d53d dfcc f23d ac3f bdbd 273d e73d
00000100: f910 edbd ee42 863d 05b0 d8bd d428 4abd
00000110: 2ee3 d9bd 3ed9 cebc 56ec cf3d 5ff4 cd3d
00000120: 6d83 2c3b 572f 4bbd 0c40 36be a0ca 20be
00000130: 7e85 18be 5f30 a7bd 06d3 113e 8e74 edbd
00000140: d510 4bbe eaec 3abc 1484 2cbe 6147 42bd
00000150: 0ed5 22be b5e6 503d cf37 253d 57ad f43d
00000160: 05d3 a13d 7051 0cbe e809 0c3d 3ee3 f43d
00000170: 350d 81bd 000b 063e c679 0a3e 0f0e e73d
00000180: 44b2 0abd 48c6 23be d6b3 f1bd c421 11be
00000190: 7ad1 f23c afd9 a33c c22f 93bc 8136 893d
000001a0: 8152 eebd afb4 89bd 33b7 253e c347 ae3d
000001b0: 5cf0 f4bd b6d0 bcbc f10e 5a3d 58ee 773d
000001c0: f545 fbbd ce63 c43d a7e7 75bd 7107 ea3d
000001d0: cc64 e9bd 967e 78bd 1129 b1bd 865d e63d
000001e0: ce67 ca3d 61c0 253d dfdc 0cbd 3968 033e
000001f0: b884 3ebb 2570 b6bd 7079 0d3e 627f 6f3d
00000200: affc 1f3e 1c5b 1cbd 4905 7abd 0196 7b3d
00000210: b9eb 343e dc72 46be 668e 073e 65fc e3bd
00000220: 44ad d3bd 6052 953c 5ecc aabd c947 8abd
00000230: 0e86 053d 91c0 e23b 7290 16be ab8c adbd
00000240: e595 37be b554 063d 4013 3a3e f259 29be
00000250: f0fa 2ebe 4c4b 15bc d023 4f3d 68a4 d43d
00000260: 32b2 96bd 4f72 fb3d 076b a0bd d4cc ba3c
00000270: 2d85 b8bd c773 193d df97 303e 88e1 dfbd
00000280: c1c8 cb3d 6b74 28be b8d5 76bd e2f1 dcbc
00000290: 9e95 d0bd e392 c5bd a065 4cbd 5eb9 97bd
000002a0: 4d85 fa3d 7bd5 333e 96dc db3d 9873 af3d
000002b0: 87e4 e0bd 09f1 02be 464c 93bd 60cd 0bbe
000002c0: 126a 3b3d f0b1 a8bc 58bb fa3d 4db8 ff3d
000002d0: 4a05 933d 044a 1e3e b03e 523c 3edd 783d
000002e0: d32b d13c f34d 173e 5399 473d ab0f 033e
000002f0: 565e 1e3d 6f79 493e 870d 33be 49b1 febd
00000300: 7839 2c3e e9d8 093e fb6a 773c 0eea a3bc
00000310: f737 e8bd 49a3 c13c 3c0f eebd aeb1 cd3c
00000320: 8a09 05be 1697 b7bd e2a7 d33c f7a5 183e
00000330: 81b2 143e 1b82 733d 6a41 733b a27f 9d3c
00000340: 3745 17bd 8528 003e 141f 02bd 83c3 a63d
00000350: e7fc bf3d b80e cc3d 5784 2fbd 89d6 80bd
00000360: eda6 14be d15c 16be 6170 b7bd 7c2e 9fbd
00000370: e38e 173e 91f0 29be b4fc dbbd 822f 82bd
00000380: aa58 183e cc2d e1bd 5ba4 7fbc 8532 47bd
00000390: 2747 babd 3a37 a43d f910 3cbd 595c f6bd
000003a0: 2c1f 593c 3b6e 31be 2ef9 a1bd 7912 27be
000003b0: ed94 e03d 8bd1 bc3d f2df fbbd 43c9 48bd
000003c0: cc31 3a3e c400 c7bd b96d 8abd ced3 e93c
000003d0: 3239 fa3d cffb 153e 484d ebbd bc82 c6bd
000003e0: a8d4 11be 8ffa 24be 9d83 dabd 2220 063e
000003f0: 1a63 14be 5747 6c3d d32d bbbd 070a 33bd

weight f4 [8, 32]
0.073538736 0.08469637 0.1819776 -0.18153465 -0.0122173475 -0.12745498 0.038298286 0.0051966025
0.060115524 -0.118046634 -0.08514018 -0.10916779 0.09065029 -0.09977147 -0.03885281 -0.13341293
-0.119671434 -0.06765964 -0.08232893 0.11210999 0.020953124 -0.0021038528 -0.16302836 0.1339462
0.08488644 -0.102253936 -0.0660445 0.062967345 0.008619946 0.09817055 -0.013049135 -0.15375501
-0.15099788 0.12067698 -0.030187778 0.09933634 -0.03978504 0.008572704 -0.15203594 -0.026020683
0.12611721 -0.13398835 -0.08082078 0.15607661 -0.10605373 0.0307052 -0.16857336 -0.093757756
0.02781012 -0.13145211 -0.18140718 0.0013050331 0.0042689526 -0.12671567 -0.07086603 -0.010060225
-0.020970957 0.061715603 0.09702957 -0.14891666 0.14624295 0.17733172 0.044195723 -0.07798177
-0.12749624 0.060943805 0.077448055 -0.057794243 -0.012884075 0.110227205 -0.03081684 0.16276105
0.14723994 0.034782335 0.08291836 0.02352687 0.075359195 0.09442037 -0.10506846 -0.17883311
-0.038944155 -0.06790227 -0.0053561567 0.0054438324 0.039380576 0.044193257 0.12569864 0.13135564
0.064185224 0.023402318 -0.052952074 -0.04411898 0.08384205 -0.095552765 -0.16428106 -0.059814695
-0.16198023 0.012471994 0.05307166 -0.1466927 0.10945502 0.03806802 0.07120091 -0.021716986
0.01835395 -0.08683675 0.02431865 -0.12833187 -0.042929936 -0.047712952 -0.016231077 -0.12681083
0.17189431 -0.027857475 0.115189195 0.11462142 0.050299473 -0.14034203 -0.08764825 -0.042543665
0.03312001 0.054311328 0.15266354 0.016805468 -0.1245866 0.03796868 0.0067415438 0.062217105
0.099038534 -0.12811272 0.021937829 0.030083954 0.04040324 0.09077709 0.002402009 0.10260872
-0.15503836 0.023172513 -0.013570644 0.16332833 -0.057794075 0.1462006 0.10398695 -0.1226491
-0.0038085289 -0.053351026 0.12703359 -0.0937561 -0.055808857 0.12872727 0.08335395 -0.10572353
0.03018902 -0.09881706 -0.086726956 -0.030687993 -0.12688598 -0.018676564 -0.044589918 0.01421952
-0.023125665 -0.07900942 0.10645131 0.041951306 -0.12277054 0.1278512 -0.1545924 -0.014483275
-0.1374221 0.11206803 -0.17650208 0.13796659 0.022268225 0.12308673 -0.008293814 0.17617016
0.07008573 -0.12860273 0.0403814 -0.057388373 0.020636838 -0.1547814 -0.12175425 -0.10288958
-0.10008478 -0.036190573 -0.08412568 0.03558966 0.03293872 -0.007648779 -0.14912665 0.14050622
-0.16213901 0.028732607 0.057932634 -0.13247254 0.12268351 -0.08871532 0.1625356 -0.12096704
0.11072861 0.058832128 -0.06793738 0.120178424 0.18537824 -0.17867577 -0.07757959 0.085145116
0.03846679 0.055657513 -0.117062345 0.085781164 0.09521195 -0.10183094 -0.05387302 -0.16272835
-0.010825928 0.11497627 0.08524226 0.12595366 0.03276446 -0.09393001 0.038847502 0.14087932
-0.06212331 0.09935436 -0.026518853 -0.06602999 -0.09364341 0.018819317 -0.12778959 0.013438284
-0.12346405 0.16381317 0.09234299 0.056557395 0.026786396 -0.088221945 0.15659475 -0.11799976
-0.16512583 0.13660015 -0.06518343 -0.07424684 -0.059300154 0.05077455 0.0146368025 -0.058641434
0.12794036 0.15844093 -0.12760504 -0.0968327 0.14606589 -0.14762247 0.040522374 0.1360338
00000000: 7a9b 963d 4a75 ad3d 5658 3a3e 38e4 39be
00000010: 452b 48bc 8f83 02be aade 1c3d 4348 aa3b
00000020: b23b 763d 6fc2 f1bd fa5d aebd 5d93 dfbd
00000030: dca6 b93d fc54 ccbd 2024 1fbd 669d 08be
00000040: 4c16 f5bd 2391 8abd 129c a8bd ec99 e53d
00000050: e3a5 ab3c cbe0 09bb e8f0 26be 3129 093e
00000060: f1d8 ad3d 836a d1bd 5742 87bd 06f5 803d
00000070: ad3a 0d3c a40d c93d 0acc 55bc f471 1dbe
00000080: 309f 1abe 7e25 f73d 5c4c f7bc da70 cb3d
00000090: a3f5 22bd 8774 0c3c 4faf 1bbe 5429 d5bc
000000a0: df24 013e 3e34 09be 5d85 a5bd 8cd2 1f3e
000000b0: b332 d9bd 7989 fb3c 7f9e 2cbe 1104 c0bd
000000c0: 0cd2 e33c 629b 06be cec2 39be a50d ab3a
000000d0: 92e2 8b3b c1c1 01be 3622 91bd a4d3 24bc
000000e0: 49cb abbc 80c9 7c3d 70b7 c63d 9c7d 18be
000000f0: b6c0 153e 7296 353e 9306 353d e8b4 9fbd
00000100: 608e 02be 36a0 793d 169d 9e3d a8b9 6cbd
00000110: ba17 53bc cdbe e13d 9973 fcbc d5aa 263e
00000120: 11c6 163e ec77 0e3d 1ad1 a93d 6cbb c03c
00000130: ec55 9a3d 785f c13d 222e d7bd 0720 37be
00000140: e883 1fbd 5810 8bbd b382 afbb 2d62 b23b
00000150: 874d 213d fd03 353d 25b7 003e 1882 063e
00000160: 8b73 833d 38b6 bf3c 46e4 58bd 1bb6 34bd
00000170: 61b5 ab3d 2bb1 c3bd 4b39 28be 4100 75bd
00000180: 25de 25be 5657 4c3c ab61 593d 9c36 16be
00000190: f429 e03d 36ed 1b3d c8d1 913d d2e7 b1bc
000001a0: 065b 963c 77d7 b1bd e837 c73c 6e69 03be
000001b0: 4dd7 2fbd a86e 43bd 09f7 84bc b3da 01be
000001c0: 1005 303e 5c35 e4bc 50e8 eb3d a3be ea3d
000001d0: d206 4e3d d2b5 0fbe ed80 b3bd 4442 2ebd
000001e0: d9a8 073d 8e75 5e3d d553 1c3e 9fab 893c
000001f0: 4227 ffbd 0c85 1b3d 2be8 dc3b 5dd7 7e3d
00000200: b7d4 ca3d fb2f 03be f6b6 b33c a072 f63c
00000210: de7d 253d 57e9 b93d 066b 1d3b 8524 d23d
00000220: 60c2 1ebe 48d4 bd3c 6857 5ebc 8b3f 273e
00000230: 7bb9 6cbd 9cb5 153e 1cf7 d43d 742f fbbd
00000240: 8398 79bb 9b86 5abd 1815 023e 3303 c0bd
00000250: d497 64bd 15d1 033e 7ab5 aa3d 9485 d8bd
00000260: f74e f73c 9960 cabd e79d b1bd 6365 fbbc
00000270: 66ee 01be 98ff 98bc eba3 36bd fdf8 683c
00000280: 0972 bdbc b1cf a1bd 2503 da3d 22d5 2b3d
00000290: 1f6f fbbd 6deb 023e 784d 1ebe 424b 6dbc
000002a0: 61b8 0cbe ec83 e53d f6bc 34be 1d47 0d3e
000002b0: da6b b63c e514 fc3d c7e2 07bc f365 343e
000002c0: 1b89 8f3d 6fb0 03be f866 253d 1210 6bbd
000002d0: 960e a93c 047f 1ebe 4b5a f9bd c6b7 d2bd
000002e0: 40f9 ccbd 913c 14bd 164a acbd 77c6 113d
000002f0: c0ea 063d 9ca2 fabb a8b4 18be dde0 0f3e
00000300: c507 26be a560 eb3c c54a 6d3d e2a6 07be
00000310: 7e41 fb3d 61b0 b5bd bb6f 263e 91bd f7bd
00000320: aec5 e23d f5f9 703d c122 8bbd 1b20 f63d
00000330: cbd3 3d3e c8f6 36be 0ce2 9ebd 9060 ae3d
00000340: 5a8f 1d3d 22f9 633d 62be efbd 09ae af3d
00000350: 7cfe c23d bd8c d0bd f5a9 5cbd 43a2 26be
00000360: 3c5f 31bc ae78 eb3d 7e93 ae3d fff9 003e
00000370: 0734 063d 615e c0bd 8f1e 1f3d ab42 103e
00000380: 0375 7ebd 4c7a cb3d 113e d9bc bb3a 87bd
00000390: 1ec8 bfbd f82a 9a3c 46db 02be 402c 5c3c
000003a0: b8da fcbd a4be 273e 521e bd3d baa8 673d
000003b0: 256f db3c b5ad b4bd 605a 203e dca9 f1bd
000003c0: bf16 29be e9e0 0b3e e47e 85bd ba0e 98bd
000003d0: b8e4 72bd f9f8 4f3d 33cf 6f3c 0032 70bd
000003e0: cc02 033e 573e 223e e5aa 02be 3950 c6bd
000003f0: 4c92 153e 582a 17be cafa 253d 724c 0b3e
