model/final_model_5321.pth (torch, 164366 bytes, 136 tensors)

weight f4 [15, 16]
000000 a0 c3 b3 3d a7 68 bf bf ce 1b 95 3f d7 4c 68 be
       0.08777547 -1.4953812 1.164911 -0.22685562
000010 70 0a b9 3f 4d 13 65 3e 68 83 43 3f 95 1d 19 3d
       1.445631 0.22370644 0.76372385 0.037381727
000020 d4 cd 73 3e 55 e2 5f bf 22 63 90 3e 28 65 08 3e
       0.23808986 -0.8745473 0.28200632 0.13319838
000030 c7 a5 00 3f 09 b1 5a bf 1f 27 aa bc 2f fa d0 3f
       0.50252956 -0.85426384 -0.020770608 1.632635
000040 02 ad 30 3e 6e ac 18 3f 40 16 0d bf e5 68 5e bf
       0.17253497 0.59638107 -0.55112076 -0.86878806
000050 0c 21 f5 3e f9 06 0a 40 b7 55 70 bf 2e 78 34 be
       0.47876775 2.1566756 -0.9388079 -0.1762397
000060 60 8b 98 3e fc 34 62 be d6 a2 8f be ea f6 7e bf
       0.29793835 -0.22090524 -0.2805392 -0.9959551
000070 d9 b2 5f 3f a4 66 d4 3e c4 14 f5 3d 95 80 09 bf
       0.87382275 0.4148456 0.11966851 -0.53711826
000080 f7 85 24 3e 27 b4 98 3d 7c 6e f0 be e4 72 14 3f
       0.16066729 0.07456236 -0.46959293 0.5798781
000090 4d 12 34 3d c2 0f b2 bf 41 8c 19 bf 95 ac a8 3e
       0.043962765 -1.3911059 -0.59979635 0.3294417
0000a0 dc 13 2a 3d 05 96 e8 3d fc c1 1e bf 02 97 b5 bd
       0.041522846 0.11356739 -0.62014747 -0.08866693
0000b0 54 7e 9d be 50 b5 66 3f df 46 60 be c6 92 b9 3e
       -0.30760443 0.9012041 -0.21902035 0.36244792
0000c0 1f ac 4f bf 93 c7 70 3f 1b 8f 25 be 66 5b a6 3d
       -0.8112201 0.94054526 -0.16167872 0.081229016
0000d0 ab f3 07 bf cd 27 4f 3e a9 de 5f bf 1c fd 47 3f
       -0.5310618 0.20230027 -0.8744913 0.7812059
0000e0 b5 fb f3 be a1 f7 a7 bf de a0 3e 3f e9 63 5a be
       -0.47652975 -1.3122445 0.74464214 -0.21327175
0000f0 88 52 97 bf 99 3f 06 bf f4 d6 e9 be 42 ee 8f bf
       -1.1822062 -0.5244079 -0.4567181 -1.1244586
000100 10 4e 03 bf 72 a1 16 3e d9 a1 1e 3f fa f8 61 bf
       -0.5129099 0.14710024 0.6196571 -0.88270533
000110 e9 74 7f 3e 5c 73 1b bf 10 47 7c bf b9 2e a9 be
       0.24946941 -0.607229 -0.9854593 -0.3304346
000120 9a f2 12 c0 c0 73 59 bf aa 88 6a bf 04 63 2b 3e
       -2.2960572 -0.84942245 -0.9161478 0.1673699
000130 da 7c 39 3f d5 65 b1 be 7b 7f 35 be d5 80 18 40
       0.72456133 -0.34648004 -0.17724411 2.3828633
000140 d6 cb bb be b3 bc 81 bf 50 e5 0d 40 34 ee db 3e
       -0.36678952 -1.0135711 2.2171211 0.42955172
000150 2b de 02 c0 3d 30 93 3d 72 b8 46 bd 46 46 47 bf
       -2.04481 0.07186935 -0.048515745 -0.77841604
000160 9b ab 45 be 53 4a 8b bf 1c d9 b9 3f 99 57 32 bf
       -0.19303744 -1.0882057 1.4519382 -0.69664913
000170 fa 7d 9c 3f 5a ea 80 be 8b 43 07 bf 9e fd 56 3e
       1.2225945 -0.25178796 -0.5283744 0.20995185
000180 e7 0c 66 3f 00 b2 20 3f 91 b2 94 3f 00 74 29 3e
       0.8986344 0.62771606 1.1616994 0.16548157
000190 1b 35 1f bf e3 c1 3c 3d 41 1a 4f bf 9a 4c 33 3f
       -0.6219041 0.046083342 -0.80899435 0.7003876
0001a0 92 4e ed 3e 71 bc c0 be af 34 02 c0 af 2a 2d 3f
       0.46349007 -0.3764377 -2.0344656 0.67643255
0001b0 c6 e7 fd 3f 85 40 da 3f 8d 53 8f be 56 81 8a 3f
       1.9836357 1.705094 -0.27993432 1.082072
0001c0 05 90 3f 3f 97 cc c2 be ee 87 17 3f a8 03 07 40
       0.7482913 -0.38046715 0.5919179 2.1095982
0001d0 0e 7f b4 3f 86 fe 76 be e7 d0 85 bf 68 65 8e bf
       1.4101274 -0.2412053 -1.0454377 -1.1124697
0001e0 64 ab 37 bf 29 94 02 c0 c3 2c 01 bf 5c 04 ea be
       -0.71745896 -2.040293 -0.50458926 -0.4570645
0001f0 79 bf 0d bf 01 8f d2 bf 0e fe ef bf 5b 32 89 bf
       -0.5537029 -1.6449891 -1.8749406 -1.0718492
000200 2d d4 9c 3f 04 ba d9 3d d4 8e 56 3e 61 a7 52 3f
       1.2252251 0.10631183 0.20952922 0.8228665
000210 38 c1 88 3e 98 b0 24 be 6d 27 43 3f 41 6a 11 bd
       0.26709914 -0.1608299 0.76232034 -0.035501722
000220 3d 2f 93 3c d2 b3 85 be b7 dc 0b 3f 03 72 8d bf
       0.01796686 -0.26113755 0.5463366 -1.1050419
000230 ba 8d a3 bf b9 53 c0 bf 85 45 31 be e9 f0 c4 bf
       -1.2777627 -1.502555 -0.17311676 -1.538602
000240 a9 b4 9d be 07 c3 cc bf fc 0e eb be 3b 8c f6 3e
       -0.30801895 -1.5997018 -0.4590987 0.48153862
000250 e5 c7 b1 3e 70 42 a5 3e b7 e7 8a bf ca f1 00 40
       0.3472282 0.3227725 -1.0851964 2.0147576
000260 a8 a6 12 3f a3 61 74 be 2a 3e f5 3d 4c bb 1f 3f
       0.5728555 -0.2386537 0.119747475 0.6239517
000270 3c 76 18 be 55 7b 9f bd a3 5b 97 bf 64 0c 4c 3f
       -0.14888853 -0.077871956 -1.182484 0.79706407
000280 29 74 34 3f 49 92 50 3e 8f f7 91 bf 3e b5 d0 bf
       0.70489746 0.20368303 -1.1403674 -1.6305311
000290 3b ac b3 bd 18 00 01 bf 12 db c6 bf ab 2b e7 bf
       -0.08773085 -0.5039077 -1.5535605 -1.8060201
0002a0 22 22 a1 3f be bd b0 3f 80 0b 01 be 44 6c 87 3f
       1.2588542 1.3807905 -0.12602043 1.0579915
0002b0 de 23 22 be 85 da da 3e 1d 43 4a bf 87 6c 22 bf
       -0.15833995 0.42744842 -0.79008657 -0.6344685
0002c0 6f d4 a7 be 91 8b 55 bf eb 2b 16 bf 23 ec 7b bf
       -0.3277926 -0.83416086 -0.58660764 -0.9840719
0002d0 e6 fe 7f 3f 37 a6 17 3f 27 43 07 bf f3 69 37 3f
       0.9999832 0.59238 -0.5283684 0.7164604
0002e0 50 72 c7 be 18 6b cb 3e c0 1e 64 3f 72 9c bc 3b
       -0.389544 0.39730144 0.8910942 0.0057559544
0002f0 5e 82 4d bf 9e ba d5 3e e0 32 aa 3e 8b 30 a9 3e
       -0.8027705 0.4174394 0.3324194 0.33044848
000300 f3 c3 2e bf 32 0d 82 3e 2d 67 3d 3e d5 91 c0 bd
       -0.68267745 0.25400692 0.1849639 -0.09402815
000310 06 2a 12 3f 40 74 b6 bf 2e 48 63 bf 1d de 9e 3e
       0.5709537 -1.4254227 -0.8878201 0.31028834
000320 7d c6 f0 3d e1 56 8e be 7f 07 31 3f 61 27 9d be
       0.11756609 -0.27800658 0.69152063 -0.30694106
000330 cb 86 87 bf fc eb 7d bf 1f 7c 73 3f d1 80 30 bf
       -1.058801 -0.9918821 0.9511127 -0.6894656
000340 9c 91 cc bf 9c 87 40 3f 83 52 e2 3f 55 e9 32 3f
       -1.5981936 0.75206923 1.768143 0.69887286
000350 96 99 0e 3f 5d e7 72 bf 65 a3 1d bf 5e 84 5c 3f
       0.55703104 -0.9488428 -0.61577445 0.86139476
000360 42 6b 4f 3f 89 86 b7 3f 38 73 7a bd d5 90 97 bf
       0.8102304 1.4337932 -0.061145037 -1.1841074
000370 29 dc 98 bf 0a c9 bc bf 76 47 c3 3f a0 70 6b be
       -1.1942188 -1.4748852 1.5256183 -0.22992182
000380 f2 b5 ec bd 31 8d 5d bf 60 67 f1 3e 44 89 60 bf
       -0.11558141 -0.86543566 0.4714918 -0.8770945
000390 17 c8 9f bf e7 ef ae bd 48 8d da bf 4a 1b 82 bf
       -1.2482938 -0.085418515 -1.7074366 -1.0164578
0003a0 f8 97 e6 3e e0 8a 4a 3e c4 a6 45 be 73 e8 fc bf
       0.45037818 0.19779539 -0.19301897 -1.9758438
0003b0 e2 71 97 3f b0 54 90 3e 0d 8d 63 3e 84 7b 17 c0
       1.1831629 0.2818961 0.22221775 -2.3669138

weight f4 [10, 16]
000000 75 5f 84 3f 57 68 9d 3f f2 59 ad bf 6d f1 33 3f
       1.0341631 1.2297467 -1.3543074 0.7029026
000010 d6 51 9c be 08 92 cf 3c a6 4d ac be a5 ae 15 c0
       -0.30531186 0.025338188 -0.3365299 -2.3387845
000020 a0 3a 01 3e b5 ab e9 bf 0b d7 64 3f 66 e1 68 bf
       0.1262002 -1.8255526 0.8939063 -0.9096893
000030 b5 5a 73 3d 4d 05 da 3f 8c 41 dd 3d 44 32 e4 be
       0.059412677 1.7032868 0.10803518 -0.445696
000040 11 50 44 bf 80 85 d1 3e f8 ea 3a 3f 2c 75 85 bf
       -0.7668467 0.40922165 0.73014784 -1.0426383
000050 b2 7e 90 bc a2 8c d6 be 0b a4 c8 3e 17 3c 07 3f
       -0.017638538 -0.4190417 0.39187655 0.52826065
000060 5b 18 81 3f 8f 84 e3 be 51 15 a0 3f ca d1 75 be
       1.0085558 -0.44437072 1.2506505 -0.2400581
000070 c9 2d 26 40 92 36 ba be 0a c5 be be 4e cc cf 3e
       2.5965445 -0.3636976 -0.37259704 0.4058556
000080 62 5f 28 c0 40 4f 47 3f 23 a7 89 bf b6 46 6b bf
       -2.6308217 0.778553 -1.0754131 -0.9190477
000090 eb ff fa 3e 93 f8 73 bc c6 bf bb 3e 37 37 10 bc
       0.49023375 -0.014890808 0.3666975 -0.008802227
0000a0 33 c6 0e 3f f6 c0 42 3c 30 87 11 40 1f ff f5 be
       0.5577118 0.011886826 2.2738762 -0.48046204
0000b0 47 05 4d 3e 56 80 b4 bf f4 c5 d5 be 39 9f 27 3f
       0.20021544 -1.4101665 -0.4175259 0.6547733
0000c0 34 73 c3 bf 87 a4 b7 3f dc 56 f9 3d 4f 24 25 bf
       -1.5269532 1.4347085 0.1217477 -0.6450853
0000d0 21 80 ca be c7 fb a3 be 4f ec dd bf aa 22 d5 be
       -0.3955088 -0.32028028 -1.7337741 -0.4162801
0000e0 66 29 a5 3f 0b 87 1b 3f d8 e0 08 3f 54 cf 8d be
       1.2903259 0.60752934 0.53468084 -0.2769724
0000f0 97 7a 57 3f 6d a6 0f 40 5e 8b 25 bf 32 62 24 bf
       0.8417143 2.2445328 -0.6466578 -0.64212334
000100 f6 82 99 3e bf 66 ac 3f a2 7d 88 be 78 35 a2 3e
       0.29982728 1.3468856 -0.2665835 0.31681418
000110 1b cb 56 bb 09 83 f0 bf 0d a0 d0 be 23 98 8a be
       -0.003277487 -1.8789989 -0.4074711 -0.27069196
000120 30 3e 63 bf 32 2f c6 3e 27 b9 80 3f 99 ca d7 3e
       -0.88766766 0.38707882 1.0056504 0.42146757
000130 9a d0 23 3b 30 82 38 c0 3d b9 9b bd 98 fb 86 bf
       0.0024996162 -2.882946 -0.07603691 -1.054553
000140 15 8d 94 bf 4a 63 f9 3d d9 75 10 3f be a7 00 3f
       -1.1605555 0.12177141 0.5642982 0.50255954
000150 e6 2a e5 be 0c f4 79 bf ce d9 ad be 0d a8 95 3f
       -0.4475929 -0.9763801 -0.33955234 1.169191
000160 09 52 44 3f e3 ae 8a 3f 71 be 04 3f c1 0d e4 bb
       0.76687676 1.0834621 0.5185309 -0.0069596474
000170 37 36 36 bf c8 1c f1 3f ed 10 23 3e 0a f6 10 c0
       -0.71176475 1.8836908 0.15924425 -2.265017
000180 d1 7c 30 40 8a 0c a9 3e 06 b3 b0 3e 47 11 ba 3e
       2.7576182 0.3301738 0.34511584 0.36341307
000190 70 81 4e 3e b8 89 ad be 54 cf 74 3f f4 fe 6d be
       0.20166564 -0.33894134 0.9562886 -0.23241788
0001a0 e4 3c 4b 3f 58 b7 88 3f 8f c6 1f 3f f9 7e a2 be
       0.79389787 1.0680952 0.6241235 -0.31737497
0001b0 1b 19 e3 bd 85 f0 65 3f 16 bc 6b be 69 a2 5e bf
       -0.11088773 0.8982013 -0.23020968 -0.8696657
0001c0 26 98 38 bc 03 01 a0 3e 28 41 03 be 69 3b 10 be
       -0.011266744 0.31250772 -0.12817824 -0.14085163
0001d0 d0 27 07 40 9a 99 38 bf f2 41 a7 bf a9 09 ac 3d
       2.111805 -0.7210938 -1.3067 0.0840028
0001e0 84 90 c3 3e 53 b4 d3 3f c3 ee ad 3e d0 46 18 3c
       0.38196194 1.6539406 0.33971223 0.009294227
0001f0 85 4b 20 bf 95 74 7c 3e 87 2b 91 3e 78 78 0b bf
       -0.62615234 0.24653848 0.2835352 -0.54480696
000200 67 f2 71 3f 03 f3 8c bf 9d 3d cc 38 6d 0b b5 3f
       0.945105 -1.1011661 9.7389544e-05 1.4144112
000210 e3 63 df bf fb f0 9c 3f fe 39 e0 3e 51 e0 07 3d
       -1.7452358 1.2261041 0.43794245 0.03317291
000220 f4 ae 42 3f da 84 4a 3f e2 4b ee be 14 f9 f2 3e
       0.7604821 0.79108965 -0.4654227 0.47455657
000230 2d 37 72 bf 5f c9 c1 bf 84 0a 1c c0 e0 bf 2f 3f
       -0.9461544 -1.5139579 -2.4381418 0.68652153
000240 67 9f 2c 3f a0 86 13 bf 13 09 c5 bf 63 8e 20 bc
       0.6743073 -0.57627296 -1.5393394 -0.009799573
000250 52 12 7c bc d9 5f cd be 6d 86 9d bf 3f 5a 9d 3d
       -0.015385227 -0.40112188 -1.2306648 0.07683229
000260 7a 64 a2 bf 69 29 d1 be 4a c3 8a 3e 1b 2a ba 3e
       -1.2686913 -0.40851906 0.2710212 0.3636025
000270 c3 a7 06 bf ff 33 d9 3f 4b 5b 9c bf 69 e6 86 bf
       -0.52599734 1.6968993 -1.221536 -1.0539066

weight f4 [4, 16]
000000 78 80 e7 bd 65 23 a6 3d 95 47 a2 3d 09 45 93 bd
       -0.113038 0.0811222 0.079238094 -0.07190902
000010 21 94 42 bc 9e 8f 09 3e 0e 71 0d 3e b1 d1 46 3e
       -0.011876137 0.13433692 0.13812658 0.19415928
000020 62 bf 04 3d 45 78 c9 3d 93 7d 87 bd 04 c7 6d 3e
       0.03240908 0.09837393 -0.06615748 0.2322045
000030 2f 45 9f bd ff 4e 68 bd d0 9e 81 3c 25 ef 1e bd
       -0.077768676 -0.05671596 0.015822798 -0.038802285
000040 72 58 0b 3e 1e 37 05 3d ac 10 25 3e 18 9e 57 be
       0.13607958 0.032523267 0.16119641 -0.21056402
000050 8d 6c bf 3d cd 41 35 3e 03 0a f2 bd 5c 90 66 bd
       0.09346876 0.17700882 -0.11818316 -0.056290016
000060 c0 b8 5b be 04 f9 ac bc a3 8f b4 bd a3 33 3d 3e
       -0.21457195 -0.021114834 -0.08816459 0.18476729
000070 09 b7 1d be 20 33 50 3e 95 94 49 3e 9a b7 49 be
       -0.15401854 0.20332003 0.19685586 -0.19698945
000080 32 98 88 be c8 01 a5 3d 6d 88 77 bd d3 fb a3 bb
       -0.26678616 0.0805698 -0.06043284 -0.005004385
000090 8b 15 fc ba b1 97 44 3d cf 41 de 3a 6e a1 cd bd
       -0.0019232495 0.047996227 0.0016956868 -0.10040556
0000a0 cc 3e 70 3e b1 84 57 be 53 f7 57 bd a0 d6 38 3e
       0.23461455 -0.21046712 -0.0527261 0.18050623
0000b0 5f 98 a7 bd bb 9a 8e bd 08 5b c5 bd 36 0f ad 3d
       -0.08183359 -0.06963106 -0.096365035 0.08450167
0000c0 95 19 47 be 72 dc 30 3e c3 ac 9b 3d 07 db 7b bd
       -0.19443353 0.17271593 0.07601311 -0.061488178
0000d0 b6 05 a2 3d af b8 36 3e f4 9a 7a 3e 36 fe 18 be
       0.079112455 0.17843889 0.24473172 -0.14940724
0000e0 af 16 76 be 2e f1 47 be 49 56 d3 bd ee 32 94 3d
       -0.2403209 -0.19525596 -0.10319192 0.072362766
0000f0 cb a7 3c bd d1 18 10 3e 6a 7b 0a 3e b6 f2 cb bc
       -0.046058457 0.14071967 0.13523641 -0.024896007

weight f4 [4, 16]
000000 a9 9a 07 3e ce a0 5a be 8e 6e e4 bc ec ea 55 3d
       0.13242592 -0.21350405 -0.027884748 0.052225992
000010 de ba 65 3e 51 40 4d be cd b9 df bb 22 dd 28 be
       0.22434565 -0.20044066 -0.006827569 -0.16490605
000020 88 92 c9 3d ff 4b 29 3e be 17 b0 3d 1b f8 3e be
       0.09842402 0.16532896 0.085982785 -0.18649332
000030 29 0b 4a 3c e5 33 7d be 90 cd c7 3d b0 ee 9a bd
       0.012331762 -0.24726827 0.09756005 -0.07565057
000040 1c ec c6 bd 71 46 75 3d 34 e2 20 3e e1 41 2f bd
       -0.09713003 0.05988163 0.1571129 -0.042787436
000050 b6 d4 14 be 38 79 11 be f8 d6 02 3e 99 93 8a 3d
       -0.14534268 -0.14206398 0.12777317 0.06766433
000060 a9 8d 54 3e fc d1 22 3e b8 83 15 bd 6b cd 00 3e
       0.20757164 0.15900415 -0.03650257 0.1257836
000070 55 c5 26 3e 95 9c cc 3d 3e 8c 3b 3d 66 58 8f 3c
       0.16286214 0.09990803 0.045788042 0.017498206
000080 33 04 0c be 1b 0e 2e 3e b1 0a 82 bd b8 16 13 be
       -0.13673477 0.16997568 -0.063496955 -0.14364135
000090 25 7b 27 be 97 1a 2f be 08 b2 cf bd 66 6d 26 3e
       -0.1635557 -0.17099987 -0.10141379 0.1625267
0000a0 53 13 41 bc eb 36 da 3c 29 a1 45 3d ed f4 20 be
       -0.011784392 0.026637515 0.048249397 -0.15718432
0000b0 09 46 75 3c dd d9 09 be 2d 4b c1 3d d8 67 02 bd
       0.014970311 -0.13462014 0.09438167 -0.031837314
0000c0 69 f5 63 be c0 f4 a5 bc d2 cd e8 3d 69 c7 80 bd
       -0.22261585 -0.020258307 0.11367382 -0.062880345
0000d0 05 8e 09 be bf 00 9d bd 9d 18 3d 3e 60 d8 5c 3d
       -0.13433082 -0.07666158 0.1846642 0.05391729
0000e0 58 f4 c1 bd 4f 71 25 bd 9a 30 99 3d 51 68 a9 bc
       -0.09470433 -0.040391263 0.07479973 -0.020679625
0000f0 e7 96 20 be 5d f8 9c bd 87 5b e0 bd 4b e1 c2 3d
       -0.15682565 -0.07664559 -0.109549575 0.095156275

weight f4 [4, 16]
000000 35 4d 89 be 5d 5b 16 be 44 61 ac 3d 43 dc 94 bc
       -0.26816717 -0.1468329 0.084169894 -0.018171435
000010 38 57 11 be d7 09 d7 bd c8 ee 46 be 7c 43 7b 3e
       -0.14193428 -0.10499924 -0.19427025 0.24537462
000020 37 ef b1 bd 18 86 66 3e 8c 78 4f 3d 3a 7d 72 bc
       -0.08688205 0.2251209 0.05065207 -0.014800364
000030 e7 9b 87 be 41 f6 4d bd 88 8e 1f be 14 b7 36 be
       -0.26486132 -0.050283674 -0.15581715 -0.17843276
000040 73 c6 4e bc a0 bf 11 3e 14 51 41 be 43 80 6d 3d
       -0.012620556 0.14233255 -0.18878585 0.057983648
000050 6f 16 9d bd 2e 86 c6 bd 4f 0a 5f be 9b 20 83 3b
       -0.076702945 -0.096935615 -0.21781276 0.0040016896
000060 fb c9 4a be da 74 48 3e 15 be d3 bd 81 56 35 3e
       -0.19803612 0.19575825 -0.1033899 0.1770878
000070 93 4d d6 3d e2 29 ac 3c b7 9f 4e bd 2f 43 f0 bd
       0.10464015 0.021016065 -0.050445285 -0.11731564
000080 34 0f 4a be b7 45 11 3e 5c 63 f9 bd 66 b5 3d bd
       -0.19732362 0.1418675 -0.121771544 -0.046315573
000090 44 15 4c be 51 c1 f7 3d a0 95 8b 3c 7b 49 b3 bd
       -0.19929987 0.12097419 0.01703912 -0.0875425
0000a0 19 6c 63 be d2 ad ba bd ce c5 61 be 4f 09 0a 3d
       -0.22209205 -0.09115185 -0.22048113 0.033700284
0000b0 a2 23 8c 3d dc 2b e7 bc 1d 15 04 be 24 b4 6b be
       0.06842734 -0.028219156 -0.12898679 -0.23017937
0000c0 bd 5c 66 be c9 7c 35 bd e4 62 3f 3e 29 d9 61 3d
       -0.22496314 -0.044308458 0.18690068 0.05513874
0000d0 a5 d8 86 3d d5 ef 2a be dc 34 6a 3e a0 60 4b 3e
       0.065842904 -0.16693051 0.22871727 0.19861078
0000e0 96 e4 7f 3e 30 8e 5b be ca ba 73 3e c5 fe 3c 3e
       0.24989542 -0.21440959 0.23801723 0.18456562
0000f0 6c e6 69 3e 72 97 2b be 48 0c 1d be f0 0f 3e bd
       0.22841805 -0.1675699 -0.15336716 -0.046401918

weight f4 [4, 16]
000000 f6 58 46 be 7b 19 11 be f5 61 75 3e 07 7d 24 be
       -0.19369873 -0.14169876 0.23963149 -0.16063319
000010 e5 20 92 bc 93 2b 0e 3e 2e d7 76 3d 64 2c 84 3d
       -0.017837951 0.1388381 0.060263805 0.06453779
000020 a1 a8 6f 3d 95 34 59 be f3 79 5b be a9 33 e6 bd
       0.058510426 -0.21211465 -0.21433239 -0.11240322
000030 e1 99 53 3e 1c 97 17 be 02 59 9b 3d c6 b9 09 be
       0.20664169 -0.14803737 0.07585336 -0.13449773
000040 af c9 68 be 0d 4c cb 3d ab 3b 13 be e0 5e 7f be
       -0.22733186 0.09926615 -0.1437823 -0.24938536
000050 50 6f b1 bd d7 96 5c be da 2b 82 bd a9 1a 8f bd
       -0.08663809 -0.21541916 -0.0635602 -0.06987507
000060 c3 73 74 be 4a 29 bc 3d 14 a5 67 3e 3e d6 2b bd
       -0.23872285 0.09187563 0.22621566 -0.041952364
000070 87 ba 06 be 14 9e 48 3d e3 e0 dc bd 26 bc 02 3e
       -0.13157092 0.04897888 -0.10785081 0.12767085
000080 0f ec 16 3e 1d 41 2c be 8e 27 f6 3d 0d 25 95 3d
       0.14738487 -0.16821714 0.12019263 0.072824575
000090 4f aa 50 3e 99 c6 42 be 50 ef 82 3c 18 95 21 3d
       0.20377468 -0.19021071 0.015983254 0.039448828
0000a0 b0 2d 64 be 95 6e 21 3e dd ef 0f 3e e3 f0 12 3e
       -0.22283053 0.1576484 0.14056344 0.14349703
0000b0 65 9a 33 bd d8 1d 21 3e ae 71 09 3d 31 f6 f2 bd
       -0.043848414 0.1573404 0.03355568 -0.118633635
0000c0 d3 94 46 3e 2d 4e 1b 3e a4 0c bc 3d 5f 28 86 3d
       0.1939271 0.1516654 0.091820985 0.06550669
0000d0 18 9d a4 3d 4c ef 07 be 56 39 73 bd 79 6f ce bd
       0.08037776 -0.13274878 -0.05938085 -0.100798555
0000e0 55 db 15 3d a6 a4 33 be 41 1b 61 be a7 03 89 3e
       0.036586124 -0.17543277 -0.21983053 0.267606
0000f0 74 a0 26 be 1c 2a 85 be 77 a0 26 be b8 88 23 3e
       -0.16272146 -0.2600869 -0.1627215 0.15970123

weight f4 [4, 16]
000000 d2 8a 17 3e 7a bb d9 bd d8 6c 60 3e 26 ef b1 bc
       0.1479905 -0.106314614 0.2191652 -0.02172048
000010 8b 56 25 3e 7d 0b 47 be e6 04 00 3e e2 37 35 3e
       0.16146295 -0.19437976 0.12501869 0.17697099
000020 3d 54 13 be ba e2 b9 bd 82 24 03 3e a0 85 00 3e
       -0.14387603 -0.09076448 0.12806895 0.12550974
000030 43 c2 2f 3b 72 33 27 be d1 e3 82 be bd e7 1c 3d
       0.002681867 -0.16328219 -0.25564435 0.03830694
000040 f6 d9 69 3c e5 6a 5f be dd 87 b5 bd 82 55 3d 3e
       0.014273157 -0.21818121 -0.088638045 0.1848965
000050 39 f1 cc bd dc 59 f0 bc bb 36 18 be 8f 6b fa bd
       -0.10006947 -0.029339723 -0.14864628 -0.122275464
000060 fa ca 33 bd 01 17 bf 3d 57 d7 92 3e 55 7c 30 be
       -0.043894745 0.093305595 0.28679916 -0.17234929
000070 50 10 54 3d 41 74 ba 3c 9e 2d 11 be 8e c4 b7 3c
       0.05177337 0.022760512 -0.14177558 0.022432592
000080 ff 40 cd bb 7e ea 85 be 0c 0a 3e 3e 6f 5d f5 3c
       -0.0062638517 -0.26155466 0.1855852 0.02995178
000090 5e 08 a3 bc c5 64 f7 3d e5 90 4b be 45 e8 71 3d
       -0.01990145 0.12079767 -0.19879492 0.0590594
0000a0 51 ad 0d bd f6 6e ca 3d 72 3a 17 be b9 4a 22 be
       -0.034589116 0.09884445 -0.14768389 -0.15848817
0000b0 85 5a d3 3d f9 f7 30 be 27 b5 ac 3c 63 07 3a be
       0.103199996 -0.17282094 0.021082474 -0.1816688
0000c0 9b 83 1c 3d ab 3d 44 be c2 09 2b 3d 17 0c f2 bd
       0.038211446 -0.1916415 0.041757353 -0.11818712
0000d0 d8 3b 51 3e 04 b5 4d bd e6 67 4b be 2c 4c 1a bd
       0.20432985 -0.050221458 -0.19863853 -0.0376703
0000e0 e0 89 5e bd b9 35 57 3e 1e 83 9e bc fa 30 64 bc
       -0.054330707 0.21016587 -0.01934963 -0.013927693
0000f0 7f c8 f2 bd ec 28 07 be c1 85 48 3c ab d4 d2 bb
       -0.11854648 -0.13199204 0.012238921 -0.0064340434

weight f4 [4, 16]
000000 fe 79 d2 3d 98 bc 42 be 64 d9 74 bc 84 10 d8 bd
       0.102771744 -0.19017255 -0.014944408 -0.10550025
000010 c2 e3 0a be 86 69 71 be e4 42 6e 3e 03 30 e0 3d
       -0.13563445 -0.2357541 0.23267704 0.109466575
000020 1d 9d 57 be a8 ee 43 3e 0e aa 5b 3e 40 6d 6c 3d
       -0.21056028 0.19134009 0.2145159 0.057721376
000030 97 55 4c 3e 96 41 a5 3d 45 4a 62 be 89 bb 73 bd
       0.19954525 0.0806915 -0.22098644 -0.05950502
000040 91 1c 0b be ad 25 74 be 0c ec 5e be 54 bc e2 bd
       -0.13585116 -0.23842497 -0.21769732 -0.11071077
000050 66 c3 50 be 78 87 c8 bd e1 da 53 be 40 a7 ee 3b
       -0.20387039 -0.097914636 -0.20688964 0.0072831213
000060 94 e2 5d 3d e5 ef e2 bd 6f d6 1d 3e aa c8 a1 3d
       0.05417116 -0.110809125 0.15413831 0.07899602
000070 d6 e3 ab bd 1e 6f 75 bc ce 78 a8 3d 20 97 83 be
       -0.08393066 -0.014980106 0.08226167 -0.25701237
000080 bd 74 90 bd 69 5d 95 bc 6c 57 5f be 35 cc 37 be
       -0.07053516 -0.018233018 -0.21810693 -0.17948993
000090 4a 4a e8 3d 73 7a 74 3d e0 89 39 be f6 fb 3d 3e
       0.113422945 0.05968709 -0.18119001 0.18553147
0000a0 28 4f 96 3d 65 0b 04 3e 31 c9 c4 bd f1 47 99 bc
       0.073393166 0.12894972 -0.09608687 -0.018711062
0000b0 71 71 28 3c 3e 2a ce 3d 5d 0d 60 3e 12 d7 5c bd
       0.010280953 0.10066651 0.21880098 -0.053916045
0000c0 96 c0 9d bd 50 9a 6a 3e 1a 61 68 be ba 2c 19 3e
       -0.077027485 0.22910428 -0.22693291 0.14958468
0000d0 a0 f2 53 3e b4 2f ff bc 4c 86 09 3e df 41 40 3e
       0.20698023 -0.031150676 0.13430136 0.18775128
0000e0 ac 73 73 3e a9 9f 88 3e 20 8f 49 3d 4f 21 78 bb
       0.23774594 0.2668431 0.04920876 -0.003786165
0000f0 b5 e5 60 be 70 03 0c 3d 5f 9e 88 be 7e 55 6b be
       -0.21962626 0.034182966 -0.26683328 -0.22981831

weight f4 [4, 16]
000000 cb d5 48 be ee 45 0c be 25 7f 53 3b 60 4b 25 3e
       -0.19612806 -0.13698551 0.003227183 0.16142035
000010 47 d3 49 be c1 7f 0b be c5 9d 07 3e 1d 8e 06 3e
       -0.19709502 -0.13622953 0.13243778 0.1314015
000020 82 89 6e be aa 6e 44 3e 1f 73 6e 3e 2c b2 a5 bd
       -0.23294643 0.1918284 0.23286103 -0.08090624
000030 7f 4e 25 3d 3e 0d 66 bd 64 c4 f1 3a 8f 18 8f 3d
       0.040358063 -0.056164972 0.001844537 0.06987106
000040 cd df 24 3e f7 72 8d bd 98 46 54 3e 5d 36 11 3e
       0.16100998 -0.069066934 0.20730054 0.14180894
000050 28 15 32 3e 2e b3 65 bd 77 12 f9 3c 7c d9 cb 3d
       0.17390883 -0.056079082 0.030404313 0.09953591
000060 c6 25 87 bd 6a 19 c9 bd f5 44 d2 bd 1f 34 11 be
       -0.065990016 -0.098193005 -0.10267059 -0.14180039
000070 f4 1b 35 3e e7 88 96 bd 48 a1 cf bd 9f 85 94 bd
       0.17686445 -0.07350331 -0.10138184 -0.07252049
000080 96 b0 60 3e dd 9d 81 3e 11 93 29 3d 98 2f 9d bd
       0.21942362 0.25315753 0.04140002 -0.076750934
000090 62 82 a7 bd f9 cd 37 3d 27 80 1a be 6f 57 5d be
       -0.081791654 0.044874165 -0.15087949 -0.21615385
0000a0 25 a0 4d 3e 55 2f 91 3d 61 a6 dd 3d b0 f6 22 3e
       0.20080622 0.07089106 0.1082275 0.15914416
0000b0 d8 bb 76 3e a6 27 a8 bd 13 b4 67 bd d8 41 a2 bd
       0.24095094 -0.08210687 -0.056568217 -0.07922715
0000c0 6f 61 18 be ff f5 46 be 2f 79 de 3d 64 ec 9c 3d
       -0.14880918 -0.19429778 0.10862958 0.076622754
0000d0 93 4b b3 3b 17 6d 21 3d 3c ae 63 be e9 9d 12 3d
       0.0054716556 0.039410677 -0.22234434 0.035795126
0000e0 a8 78 0f be c3 ba 12 be ec 46 1a 3c ce da 4a be
       -0.1401087 -0.14329056 0.009416323 -0.1981003
0000f0 75 bf 3f 3e 69 73 f0 bc 43 b7 c3 3d da 1e 42 bd
       0.18725379 -0.029351907 0.09556439 -0.047392704

weight f4 [4, 16]
000000 25 75 01 3e 73 08 38 3e e8 15 6c be 16 ad 08 be
       0.12642343 0.17971973 -0.23055232 -0.13347277
000010 8a 12 ca 3d 29 58 be bd 41 a4 09 3e b5 14 4e be
       0.09866817 -0.09294159 0.13441564 -0.20125087
000020 c8 aa 70 be b9 0c 00 be 46 9c 29 be c5 4b 51 3e
       -0.23502648 -0.12504853 -0.1656352 0.2043906
000030 8b 3e 50 3a a0 38 22 3e 51 23 41 be b2 74 0b 3c
       0.000794389 0.15841913 -0.18861128 0.008511709
000040 d0 51 83 3d 6e f6 86 bc 5c 8c 24 be 24 33 8f bb
       0.06412089 -0.016474929 -0.16069168 -0.00437011
000050 bb 81 e9 bc 5e 51 73 3e 48 4c 39 be 7b ef 02 3d
       -0.028504243 0.23761508 -0.18095505 0.031966668
000060 55 63 74 bd da 06 ff 3d 0d d1 c2 bc 55 0d 56 be
       -0.059665043 0.12452479 -0.023781324 -0.20903523
000070 5a bc 36 be 5d 83 fd bc 9d c3 fb bd 5f e5 39 3e
       -0.17845288 -0.030946428 -0.1229317 0.18153904
000080 13 16 36 3d 23 f2 74 be 17 e2 4d 3e f1 e4 b8 3d
       0.044454645 -0.23920493 0.20105778 0.09028042
000090 ff 6c b1 3d c4 36 5b 3e 4d 23 dd bc ad ee 88 3d
       0.086633675 0.2140761 -0.026994372 0.06686149
0000a0 01 9b 6c be af a8 9b ba 60 f0 39 be f0 1b 77 3e
       -0.23106004 -0.0011875833 -0.18158102 0.24131751
0000b0 56 e5 68 bd ad d0 ed 3d fa 93 2e bd b5 ad 8b 3d
       -0.056859337 0.11612067 -0.04262159 0.06820241
0000c0 3b d9 d1 3d 64 f5 43 3c 41 ac 9f 3d 68 f2 2e 3e
       0.102465115 0.011960361 0.07796527 0.17084658
0000d0 0c d5 cf 3d ff c8 30 be bb c3 f8 bc 55 3a 1f bd
       0.10148057 -0.17264174 -0.030366769 -0.03887399
0000e0 68 eb 13 be d6 ad 94 3d e4 54 1d 3e 4b a7 0b be
       -0.14445269 0.07259719 0.15364414 -0.13638036
0000f0 a3 2f 89 3e f4 03 22 3d 1b c0 02 be d4 bc 13 3e
       0.26794156 0.03955455 -0.12768595 0.14427501

weight f4 [4, 16]
000000 9e ef bb 3d eb a1 f7 3d ee 3b 10 3e 66 a8 9c 3d
       0.09176563 0.1209143 0.14085361 0.07649307
000010 c2 40 12 3d 6a 65 5a 3a 95 3a 30 be df 94 b6 3d
       0.03570629 0.0008331152 -0.17209847 0.08915114
000020 df 01 12 3e 47 2a 32 3e 80 a9 88 bd e1 40 5b 3e
       0.14258526 0.1739894 -0.066729546 0.21411468
000030 0b 11 a8 3d 52 6c b9 3d f6 b4 72 3d 86 82 50 3e
       0.08206376 0.090538636 0.05925461 0.2036229
000040 63 08 3f be 7d 42 08 be 87 09 43 3d ee bc 7d bd
       -0.18655543 -0.13306613 0.047616508 -0.061947756
000050 64 11 27 3e 43 93 3d bd c8 17 79 3e 87 cd c0 bc
       0.16315228 -0.046283018 0.24325478 -0.023535503
000060 4f 5e c0 3d ba 60 66 bd b6 96 00 3e 8e 05 ad 3d
       0.09392988 -0.05624459 0.12557492 0.08448325
000070 fd 7d 55 be ee 85 fb 3d 05 5f 42 bb 1e e0 32 3e
       -0.20848842 0.122814044 -0.0029658687 0.17468306
000080 c4 04 45 3d c2 eb c3 3a 65 34 a6 bd d9 77 11 bd
       0.048100248 0.0014947581 -0.08115462 -0.035514686
000090 15 93 e8 3d b3 71 3f 3e b1 b1 00 be 1e ae 30 be
       0.11356179 0.18695717 -0.12567784 -0.1725392
0000a0 18 b3 1f 3e b9 d4 f4 bb 59 b3 81 3d 60 07 eb bc
       0.15595663 -0.0074716476 0.06333036 -0.02869004
0000b0 f9 09 98 3d 5d d6 16 3e 25 c7 cb 3d 3a c5 17 3e
       0.07423777 0.1473021 0.09950093 0.1482133
0000c0 88 85 0b be ed 84 d2 3c d9 65 4b be da 4e 2d be
       -0.13625157 0.02569815 -0.1986307 -0.1692461
0000d0 88 85 ea bc 4d b8 76 be 1e 23 04 be 93 90 01 3e
       -0.028628126 -0.24093743 -0.12904021 0.12652807
0000e0 41 c7 98 bd a1 03 96 3d 99 cb 14 3e cc 4a 5a 3d
       -0.0745988 0.07324911 0.14530791 0.053293988
0000f0 81 60 37 be a2 78 25 3e 72 39 19 be 9f 12 92 3c
       -0.17907907 0.16159299 -0.1496332 0.017831145

weight f4 [4, 16]
000000 c3 5e 1b 3e e6 f0 2d be 29 a7 d3 bd a4 98 9c 3d
       0.15172867 -0.16986427 -0.10334618 0.076463014
000010 1b 28 22 be fb 72 1c 3e 96 fa 52 3e 66 6d 57 be
       -0.15835612 0.15278237 0.20603403 -0.21037826
000020 bc 81 8f 3d 8b 33 35 be 7d 2d ba bc 22 d2 1c 3e
       0.07007167 -0.17695443 -0.022726769 0.15314534
000030 6c f2 1b 3e 42 38 58 3e b9 85 45 be 46 ec 79 3c
       0.15229195 0.2111521 -0.19289292 0.015254086
000040 6c c8 8f 3d 39 f5 87 3e 22 7d a1 3d 83 b1 04 be
       0.07020649 0.26554278 0.07885195 -0.1295834
000050 fd d1 bb bd b3 05 df 3d e1 80 b4 3d 71 0c c6 bd
       -0.091709115 0.10889759 0.08813644 -0.09670342
000060 59 6f 74 3e 9e d7 56 be 85 e0 4d 3b d7 37 ea 3d
       0.23870601 -0.20980689 0.0031414342 0.11436432
000070 3a 65 f4 3d 6e 5a 80 3e b8 7d 5f 3e 54 d2 51 3e
       0.1193337 0.25068992 0.21825302 0.2049039
000080 75 4b 09 3e 6f a5 72 3e c8 87 fb 3d 92 01 3e bd
       0.13407691 0.2369592 0.122817576 -0.046388216
000090 0b 8d b7 bd b1 b9 80 be 67 fe 12 be c8 d5 28 3e
       -0.08962449 -0.2514167 -0.1435486 0.16487801
0000a0 8c e4 87 3e 8a e4 a5 bd 82 b0 58 be 48 2f 1f 3e
       0.26541555 -0.08100231 -0.21161082 0.1554538
0000b0 8d 87 75 be 18 3e bc bd 4a 56 16 3e 68 78 3b bd
       -0.2397749 -0.09191531 0.14681354 -0.045769125
0000c0 c8 f4 07 be 18 7d 07 3e a4 23 aa 3d 5c 18 31 3d
       -0.1327697 0.13231313 0.08307579 0.04323612
0000d0 96 76 2e 3c 3c 6b 1b 3d de 6e 01 3e 53 02 e6 3d
       0.01064839 0.037944064 0.12639949 0.11230912
0000e0 f6 e5 80 bd 87 5a 5c 3a 10 bf 63 be d1 45 33 be
       -0.062938616 0.00084058236 -0.22240853 -0.17507102
0000f0 a7 b1 a3 bd a4 02 ee bc ba 9e de bd 13 1f 87 bd
       -0.07992869 -0.029053994 -0.108701184 -0.06597724

weight f4 [4, 16]
000000 a2 c2 16 3e 0f 25 80 3e 95 f5 7b be c6 c3 cc 3a
       0.14722684 0.25028273 -0.24605401 0.001562231
000010 ed 22 82 bd 78 bf da bd 46 8a 12 3e 45 bd ba bd
       -0.06354318 -0.10681051 0.1431056 -0.091181315
000020 a2 04 82 3e f0 3d 4f 3e 10 8a 1e 3e 8d 6d cc bd
       0.2539416 0.20238471 0.15482354 -0.09981833
000030 9d 3c 55 be 48 c2 6d bd 72 4d 88 3c ee fc 73 be
       -0.20823903 -0.05804661 0.016638491 -0.23826954
000040 4f 31 67 3e 22 11 26 3e c8 78 b9 3d 6c ed 53 be
       0.22577403 0.16217473 0.0905624 -0.20696038
000050 cd b7 9b bc b8 70 2c 3d fe b8 32 be 2b ad 5f be
       -0.019008541 0.042099684 -0.17453381 -0.21843402
000060 4b 5b ae bd c3 5d 3f be 9d f4 40 be 7e 13 8b bc
       -0.085135065 -0.18688111 -0.18843313 -0.016977068
000070 64 ad 85 be af 07 a5 bd 2a b7 dc 3c 61 c9 3a bd
       -0.2610885 -0.08058106 0.026942808 -0.045602206
000080 32 a5 9d bd 29 29 7b 3e 9a 7a 0d 3e 79 e1 99 bd
       -0.07697524 0.2452742 0.138163 -0.075137086
000090 ea 8a f8 bc 88 93 2d be c0 f2 09 be 2f 21 bb bd
       -0.030339677 -0.1695081 -0.13471508 -0.09137189
0000a0 60 b0 06 3e 09 f5 a2 bd d2 db 5c 3e 41 4d da bd
       0.13153219 -0.07956893 0.2156823 -0.10659266
0000b0 79 f0 03 3c 09 7c 21 3e 83 5b 4d be 80 9e 27 3e
       0.008052939 0.15769972 -0.2005444 0.16369057
0000c0 68 72 0d 3e e1 89 08 3e 3c 85 97 bd c9 dd a3 bd
       0.13813174 0.13333847 -0.07398459 -0.080012865
0000d0 17 00 08 3e 90 51 5d bb 4c 47 5d be 30 a6 be bd
       0.13281284 -0.003377054 -0.21609229 -0.093090415
0000e0 23 82 48 be dc 57 e7 3d 1b 3b 3a 3e ab cf 3f 3e
       -0.19580893 0.11296055 0.1818661 0.18731563
0000f0 2a 79 ef bd bd e1 75 bd 90 b4 0a be 2b 46 f5 3d
       -0.11693032 -0.060029734 -0.13545442 0.11976274

weight f4 [4, 16]
000000 e4 2c 07 3e 7c 59 47 3e 4c 0a 69 3c 61 f0 4f be
       0.13200718 0.1946773 0.014223646 -0.20306541
000010 b4 46 9e bd 4c 48 c7 bd 68 54 9f bd ba 34 9c 3d
       -0.07728329 -0.097305864 -0.07779771 0.07627244
000020 24 c6 fc 3d 85 58 52 3e bf ba 5c 3e af c5 72 3e
       0.1234248 0.2054158 0.21555613 0.23708223
000030 3b 3b 68 be c7 df 6b bd 50 19 6e bd 67 b8 86 3e
       -0.22678845 -0.057586458 -0.05812961 0.26312563
000040 6e 23 3c 3e 98 79 a9 bc 73 74 f3 3d a4 c8 33 3e
       0.1837289 -0.020687863 0.11887445 0.17557007
000050 87 9d 02 3e 96 50 8a 3d 83 28 6b be d5 ce 25 be
       0.12755404 0.06753652 -0.22964673 -0.16192181
000060 ca b7 76 bd 9b a3 71 bd d9 52 5e be fc 6a b2 bd
       -0.06023387 -0.058993917 -0.21711291 -0.08711812
000070 47 cc 7f be 6c 06 46 3c df 20 a3 3d a3 a9 70 3e
       -0.2498027 0.012086492 0.07965254 0.23502211
000080 bd 38 0e 3e d5 a1 94 3b 90 e3 8f 3e 7f 23 c9 bd
       0.13888831 0.0045358934 0.28103304 -0.098212235
000090 5a 33 16 3d 52 d0 2a 3e 94 01 85 3d a9 f2 15 3e
       0.036670066 0.1668103 0.06494442 0.14643349
0000a0 5b b6 c2 3b 7a 22 51 be 62 16 68 3e d9 b7 4d bd
       0.0059421486 -0.20423308 0.22664788 -0.05022416
0000b0 03 ea 1d be cf be 3b 3d e9 8c b8 bd af 2b 1b 3b
       -0.154213 0.045836266 -0.090112515 0.002367716
0000c0 a4 a1 40 3e ab a1 c7 3d 7a 4e 41 3e 01 3b 18 be
       0.18811661 0.097476326 0.18877593 -0.14866258
0000d0 0c 9a 1b be 0c a4 95 bd 3e 14 52 be 39 e8 3f 3e
       -0.15195483 -0.0730668 -0.20515534 0.1874093
0000e0 77 69 54 be 95 85 50 3e cd 04 17 3e e8 67 51 be
       -0.20743357 0.20363458 0.14747925 -0.20449793
0000f0 39 cd 2d bd c6 92 0c 3e dd 5a 20 be 57 bb 0d 3e
       -0.042432044 0.13727865 -0.15659662 0.13840996

weight f4 [16, 16]
000000 52 a0 39 bd a2 67 6d 3e 4d 77 24 be 53 b8 af bc
       -0.04531891 0.23184064 -0.16061135 -0.021450197
000010 72 52 d9 bd 8d 5b 96 be 94 25 6b be 0a d9 80 3d
       -0.10611428 -0.29366723 -0.22963554 0.06291397
000020 61 2b 05 be 7a ed 4a 3d 30 5b 29 bd f8 eb 43 bd
       -0.13004829 0.04954288 -0.04134673 -0.04783246
000030 32 b1 0e be 9c f6 17 3e 3e 8e a9 bd a7 e6 01 3e
       -0.13934782 0.14840168 -0.08279084 0.12685643
000040 f9 ef 54 3e 81 84 3a 3e 3b 6b 3d be 4f e4 7a bd
       0.20794667 0.18214609 -0.18497936 -0.06125289
000050 27 56 d3 3d d3 d8 01 bd 10 72 9a bd 78 77 fb 3d
       0.10319167 -0.03170092 -0.07541287 0.12278646
000060 8e e0 51 3e 4f b3 4d be d4 af 2e 3e 86 3b 24 be
       0.20495817 -0.20087932 0.1705926 -0.16038331
000070 5f 7e 24 3e 61 6e 64 3e b1 23 2a 3d d9 cf 7c be
       0.16063832 0.22307731 0.041537944 -0.24688663
000080 cf b4 fa bd 34 1b 28 3e de 26 1a 3e c8 cb bc 3d
       -0.12241518 0.16416627 0.15053889 0.09218556
000090 64 a3 1d 3d f8 34 b4 3d 7e 92 a7 3d bb 18 7c 3e
       0.0384859 0.087991655 0.08182238 0.24618809
0000a0 9e 38 1b 3e af e7 2d 3e 5d c8 9c bd a6 8c 02 3e
       0.15158316 0.16982912 -0.07655404 0.12748966
0000b0 d4 8b 4f 3d cb 2e c6 3d c8 f5 34 3d 9f 70 20 3e
       0.05067046 0.09676894 0.044179708 0.15667962
0000c0 85 84 b8 3d ca 34 3c be d4 72 c4 bd 7f 5b 1a bc
       0.09009651 -0.18379512 -0.09592214 -0.009421228
0000d0 c5 41 8a 3e 0f 89 bc 3d 2c 07 19 3e 14 49 62 3e
       0.27003303 0.09205829 0.14944142 0.2209819
0000e0 08 0b 14 be 7a d5 a7 3d 5a ae 07 3d a3 fe 16 3e
       -0.14457333 0.08195014 0.03312526 0.14745574
0000f0 4f c2 36 be 54 4f e0 3c d0 c4 73 3c 45 65 6a 3e
       -0.1784756 0.027381577 0.014878467 0.22890194
000100 57 c4 2e 3e 05 79 43 be 97 f6 06 be dd 3f c6 bd
       0.17067085 -0.19089134 -0.13180004 -0.0968015
000110 6a d5 1e 3e a3 81 65 3e b3 9e 26 be c8 2c 37 be
       0.15511099 0.22412734 -0.16271476 -0.17888176
000120 13 bf bf 3d a5 15 6e bd ee f6 5e 3e f7 8f 8a 3d
       0.093626164 -0.05812611 0.21773884 0.0676574
000130 d1 a9 a7 3d 8f e6 b8 3d 95 35 85 bd 40 7f 08 3e
       0.08186687 0.090283506 -0.065043606 0.13329792
000140 25 96 78 bc d8 7c 13 be c9 5d d9 3c 7d 45 1e be
       -0.015172516 -0.14403093 0.026533978 -0.15456195
000150 53 59 23 3e 0d 49 2a be 85 b3 c6 3b b9 d8 60 3d
       0.15952043 -0.16629429 0.006063881 0.054894183
000160 6c 6c 18 3e 6d fd 57 3e 99 e7 e6 bd d9 96 60 3e
       0.1488511 0.21092768 -0.112746425 0.21932544
000170 82 28 42 3e 58 8c ab bd 39 ff 82 be a6 9c 92 3d
       0.18960765 -0.08376378 -0.25585344 0.071587846
000180 0c a1 29 be 60 22 75 be 1f a0 80 bd 90 36 3a be
       -0.16565341 -0.23938894 -0.06280541 -0.18184876
000190 64 eb 61 3e ab a8 53 be 95 16 9e 3d 2f ce 08 3e
       0.2206245 -0.2066981 0.07719151 0.13359903
0001a0 ad 55 77 3d 67 04 f3 3d 7e a0 e2 3d 01 77 5b 3d
       0.06038444 0.11866074 0.11065768 0.053580288
0001b0 57 5b 43 be 01 fb 9f bd 44 d3 0f be ba 5f 2d 3e
       -0.19077812 -0.07811547 -0.14045435 0.16931048
0001c0 4a 8d 71 be 71 37 9e 3d eb 28 96 3d 7b 7b 0d 3e
       -0.23589054 0.07725418 0.07332023 0.13816635
0001d0 43 1e d7 bc e8 64 50 bd 6f 94 81 be e0 3c 05 3e
       -0.026259547 -0.05087748 -0.25308558 0.13011503
0001e0 26 92 8b 3d a5 01 5b bd 10 a0 eb 3c 5a ad 1d 3e
       0.06814985 -0.053468365 0.028762847 0.1539816
0001f0 ce 23 db bd f6 5a b9 3d 86 02 b7 3d 65 29 fd bd
       -0.107001886 0.090505525 0.08936028 -0.12361411
000200 20 a7 81 3d 34 79 0b be 4e 8b 1a be f8 71 57 bb
       0.06330705 -0.13620454 -0.15092203 -0.0032874327
000210 6c 3a 3a 3e 33 b8 57 3d e0 19 a9 bd 89 9c 83 3e
       0.18186349 0.0526659 -0.082568884 0.25705364
000220 58 fb a7 3b 4f 51 9b 3d a4 a4 e9 bc e6 98 fd bd
       0.005126398 0.07583868 -0.02852089 -0.12382679
000230 cb 35 97 bd 22 86 4a 3e 62 5a c5 bd ca 40 65 3e
       -0.07383307 0.1977773 -0.0963638 0.22387996
000240 59 50 04 be 23 94 2c 3e da 13 16 bd 80 ee 2a 3e
       -0.12921275 0.16853385 -0.036640026 0.16692543
000250 93 c5 05 bd 1c 2e 18 be ee ac 96 bd 8d 08 b9 3d
       -0.032659125 -0.1486134 -0.073572025 0.09034834
000260 21 84 82 3e 2b 6d ec bd d4 4d 6c be 50 0c 32 3e
       0.2549143 -0.1154426 -0.23076564 0.1738751
000270 c9 f8 a9 3c cd 2a 35 3e 94 e3 63 3e ab 91 0e 3d
       0.020748513 0.17692108 0.22254783 0.03480689
000280 05 c0 21 be 6d 2a 70 3e 38 58 3b be 52 9c cb 3c
       -0.15795906 0.23453684 -0.18295372 0.024854813
000290 8f 2a 36 3e 9b 93 8f 3b 13 b0 98 bd 26 6d 20 be
       0.17789672 0.0043816096 -0.074554585 -0.15666637
0002a0 84 b4 52 bd 9b 72 b8 3c 0a 7a 14 3e 71 1b 2a bd
       -0.051441684 0.022515586 0.14499679 -0.041530076
0002b0 b6 df 94 bd 23 d8 61 3d c4 ad 83 3b ae 96 d5 bd
       -0.07269232 0.055137765 0.004018517 -0.104291305
0002c0 7f d1 10 3e 6a cc a6 bd 02 20 27 3e 1e ef 5f 3e
       0.14142416 -0.08144458 0.16320804 0.2186856
0002d0 ff a7 84 be ca 3e 8e bd 95 22 4e 3e 4e cd d4 bd
       -0.2590942 -0.0694557 0.2013038 -0.10390721
0002e0 5d 8f 65 3e a7 14 88 be 01 9b d4 bd 34 40 34 be
       0.2241797 -0.26578256 -0.10381127 -0.17602617
0002f0 cb 55 1d 3e 80 76 87 be d1 2d 11 3e 7b 6a 55 bc
       0.15364759 -0.26457596 0.14177634 -0.013025875
000300 b7 4a 1c 3e e4 2f 36 be 70 03 0b be 7a b3 ba bd
       0.15262876 -0.17791706 -0.1357553 -0.09116264
000310 ba b8 aa 3d 97 31 c5 3d e9 83 1a 3e e0 97 61 bd
       0.08336015 0.09628599 0.15089382 -0.05507648
000320 23 fc 4b 3e b7 f6 eb 3d 35 fb 53 be aa 72 b0 bd
       0.19920401 0.115216665 -0.20701297 -0.086156204
000330 cb b8 92 3c 74 80 1f be 35 62 50 3e 0a 4f 0f bc
       0.017910382 -0.15576345 0.20349963 -0.008746872
000340 31 e0 28 be 14 57 02 3e f7 f5 24 bd b1 d2 10 be
       -0.16491772 0.1272853 -0.040273633 -0.14142872
000350 5a 66 cf bc 91 8d ad bd d9 44 da 3d fe fa ec 3d
       -0.02531736 -0.08474267 0.10657663 0.115713105
000360 da 39 10 3c fe da 54 bd 0a 8d 17 be e6 89 ea 3d
       0.008802855 -0.05196666 -0.14799896 0.11452083
000370 e0 0c 95 3b 45 2b a7 bd 47 49 18 bc 81 8d ff bd
       0.004548654 -0.0816255 -0.009294814 -0.124781616
000380 e8 6e 13 3e 3a 71 44 3e 1c ce 0e 3e 65 25 a4 bd
       0.14397776 0.19183818 0.13945812 -0.08014945
000390 b8 d4 92 be 8d f7 07 bd 71 2f 3a 3e c7 53 60 3e
       -0.28677917 -0.033195067 0.1818216 0.21906959
0003a0 18 2e fb 3d 72 d5 7f 3d 5f e1 2c be 0a c9 f8 3d
       0.12264651 0.062459417 -0.16882847 0.1214772
0003b0 e3 34 31 3d d8 f8 a0 bb 3c 13 8c 3b bb 86 28 3e
       0.043263327 -0.004912477 0.004274754 0.16457646
0003c0 10 81 71 3e ef b8 4d be ea fc 0b 3e a0 4a 6d be
       0.2358439 -0.20090078 0.13670698 -0.23172998
0003d0 0f e1 06 3e 09 bc 5c 3d 63 72 5c be d0 c1 4d be
       0.1317179 0.05389026 -0.2152801 -0.20093465
0003e0 48 8a f6 bd 49 f8 1a 3d 4a 93 25 3e 96 7d 27 bd
       -0.12038094 0.03783444 0.16169468 -0.040891252
0003f0 23 9f 52 be 7a 00 e5 bd 30 7b 2c be 1f f0 99 bd
       -0.20568518 -0.111817315 -0.16843867 -0.075165026

bias f4 [16]
000000 5d 29 b0 bd 0d d0 3d be 66 46 d4 bd e0 0c ff 3d
       -0.086016394 -0.18536396 -0.1036499 0.124536276
000010 a2 b6 84 3e 30 cf 9a 3d 99 57 76 3e 0e 96 ce bd
       0.25920588 0.07559049 0.24056853 -0.100872144
000020 ef f9 3a 3e a6 f7 57 bd 35 6c 2c bd c5 82 6e 3e
       0.18259405 -0.05272641 -0.04209538 0.23292072
000030 63 37 58 be 5f 38 7e be 1a 63 eb 3c 3b ae d2 bd
       -0.21114878 -0.24826191 0.028733779 -0.10287138

weight f4 [64, 16]
000000 53 9c 9d 3e 00 20 8d be f6 64 13 be 67 31 31 3d
       0.30783328 -0.27563477 -0.14393982 0.043260004
000010 fe 9d d9 3c db 65 4c bc 23 17 89 3e e5 09 9e bd
       0.026564594 -0.012475456 0.26775464 -0.07716731
000020 8b 86 5a be b6 85 53 3e d0 41 88 3d c7 b1 f6 bd
       -0.21340387 0.20656475 0.06653178 -0.12045627
000030 59 3c 23 3e cf 77 15 bd 15 db 8b be 61 92 54 3e
       0.1594099 -0.03649121 -0.27315584 0.20758964
000040 23 31 8c be ce 55 fa bd 98 7b 53 3e b2 dc 62 3e
       -0.27381238 -0.12223397 0.20652616 0.22154501
000050 33 97 11 be 41 64 8c 3c 6f e7 a6 3d 43 4a e7 bd
       -0.14217834 0.017137649 0.08149611 -0.11293461
000060 54 bd 91 3d 68 9e f3 3d 30 75 f5 bc b0 90 85 be
       0.071161896 0.11895448 -0.029963106 -0.2608695
000070 0a 1e 85 be b0 30 2e be d1 09 ec 3d 85 f7 f9 3d
       -0.2599948 -0.1701076 0.1152531 0.12205414
000080 d3 60 3d be 25 3b a4 bc 79 f0 7d be 8d 60 76 3e
       -0.18493967 -0.020047734 -0.24798764 0.24060269
000090 d9 ae 8a 3e 38 a4 2c be 4a 38 44 be d4 fe 38 be
       0.27086523 -0.1685952 -0.19162098 -0.18065959
0000a0 4a 8c 5d 3e 12 36 fb bd 5f 1b 8c bd ab 31 72 3e
       0.21635547 -0.122661725 -0.06841158 0.2365176
0000b0 81 30 ab bd c4 d8 54 3a a0 85 d2 bd 1f 35 0c be
       -0.08358861 0.0008119459 -0.10279393 -0.13692139
0000c0 f8 7f 6c 3e e1 75 c5 bd 6b 80 36 be 9e 00 59 3d
       0.23095691 -0.09641624 -0.17822425 0.052979104
0000d0 d2 42 92 3e 19 db d9 bb 0b b6 83 be 85 5e 5d 3d
       0.28566605 -0.006648433 -0.25724825 0.05404522
0000e0 af 52 91 3e c0 7d 47 be ca a5 31 bd ac b8 eb 3d
       0.28383395 -0.19481564 -0.043371 0.11509833
0000f0 d3 75 4c be d6 f8 73 be 89 02 0b 3e 5d 4f 5e 3e
       -0.19966821 -0.23825392 0.13575186 0.21709962
000100 91 7b 55 3e 64 55 6f 3d d5 16 bc 3d a3 d1 4b 3e
       0.20847918 0.058431044 0.09184042 0.19904189
000110 32 53 77 3e 41 76 9e 3d ed 10 50 3e 59 a1 42 be
       0.2415283 0.07737399 0.20318957 -0.19006862
000120 a3 47 65 3d 6c 3b 5b bd 93 d2 07 be 8c 6c 2e 3e
       0.05597652 -0.053523466 -0.13263921 0.17033595
000130 74 32 e8 bc 45 64 5b 3d 9d e9 24 3e 39 4b 3b 3e
       -0.02834437 0.05356242 0.16104741 0.18290414
000140 f0 4a 40 3d 4b fc 53 3e 0f a8 c2 bc bf 3c 47 bd
       0.046946466 0.20701711 -0.023761777 -0.048641916
000150 13 db 09 3e a4 13 d5 bd 39 94 3c 3d 28 d4 6d 3e
       0.13462476 -0.10404137 0.046039794 0.23225462
000160 86 3a 29 3e 16 2a 54 be 9b 07 6b 3e 42 ea 70 bd
       0.16526231 -0.2071918 0.2295212 -0.058817156
000170 44 46 54 be 01 e7 de 3d e5 a1 c0 bc cb 64 d8 3c
       -0.20729929 0.10883904 -0.023514697 0.02641525
000180 f3 3f aa bb db b8 37 be b0 3a 0f 3e c8 34 0a 3e
       -0.0051956116 -0.1794161 0.13987231 0.13496697
000190 20 a0 65 3d b9 7c 61 be 28 70 89 3e 51 03 0f be
       0.05606091 -0.22020234 0.2684338 -0.13966109
0001a0 c0 75 87 bb c0 f2 5a bd 31 3c 30 be a7 8b 1c 3e
       -0.00413391 -0.05345416 -0.17210461 0.15287648
0001b0 a5 b7 dd 3c 36 e1 16 be ad 01 b2 bd af 54 53 3e
       0.027065108 -0.14734349 -0.08691726 0.20637773
0001c0 8a 06 0a bd 5e 0f 18 3d 80 5f 89 be d2 5c 90 3d
       -0.033697642 0.03712403 -0.26830673 0.07048954
0001d0 40 d9 29 3c 21 67 19 3e eb e5 89 bd aa 19 fe bc
       0.010366738 0.14980747 -0.067333065 -0.031018097
0001e0 fd 7a 13 3b 6d 01 62 3e 88 4e 81 be 61 10 5b 3e
       0.0022503727 0.22070856 -0.25255227 0.21392967
0001f0 50 42 ce 3d 24 60 dc 3d d9 e3 24 be b0 4b 10 3e
       0.10071242 0.10760525 -0.16102542 0.14091372
000200 45 d0 55 be 82 5b 43 bc 9d 52 5b be 99 9b 23 be
       -0.2088023 -0.011923673 -0.21418233 -0.15977325
000210 4e 0f 35 3e 95 95 7f 3e 0d 4e 67 be ea d3 81 bd
       0.1768162 0.24959405 -0.22588368 -0.063392475
000220 65 48 39 3e 6a c4 14 be bd d1 19 ba 8d 5b 1f be
       0.18094023 -0.14528051 -0.000586774 -0.15562268
000230 ba 79 b4 3d 93 84 05 be fe 0b 61 be 28 5e 3c be
       0.0881228 -0.13038854 -0.21977231 -0.18395293
000240 e0 b6 13 be 78 86 76 be b8 b3 b7 3d 26 43 cb bd
       -0.1442523 -0.24074733 0.089698255 -0.09924917
000250 c3 06 cc bd b1 f7 e4 3d 1c 97 9f bd dc f1 1a 3d
       -0.09962227 0.11180056 -0.07792494 0.03782831
000260 10 0a a8 3d 38 82 0b be 30 d1 c6 bd 8f 36 e6 bd
       0.08205044 -0.13623893 -0.09707868 -0.11240875
000270 eb 65 bd bd 20 2c 2b 3e 8c 13 42 3e b5 a1 ac bc
       -0.09247955 0.16716051 0.18952769 -0.021073202
000280 ec 07 c8 bc f3 1a 64 be 6b 0d 94 bc 2b 91 d4 bc
       -0.02441784 -0.22275905 -0.018072804 -0.025948128
000290 13 e9 56 bd 94 0c 59 be 3e cb f5 bd 48 3b 1c 3e
       -0.05246837 -0.21196204 -0.12001656 0.15256989
0002a0 04 a1 76 3b db ff 90 bd 35 b1 01 3e c4 9a 7a 3c
       0.0037632594 -0.070800506 0.12665255 0.015295688
0002b0 aa eb 4d 3e 34 4a 2a 3e e6 ea 5c be 81 8e 52 3e
       0.2010943 0.16629869 -0.21573982 0.20562173
0002c0 cf bc 22 3e 0b 80 8d 3e 15 77 77 bd 2c 53 90 bd
       0.15892337 0.27636752 -0.0604163 -0.07047114
0002d0 9e a3 89 bd 1f 4a 09 3d 56 5e 60 be 81 8e 2d 3e
       -0.067206606 0.033517953 -0.21910986 0.16948892
0002e0 1b 3f 87 bd 09 b3 0d bc 08 fe 5e 3d b9 f6 45 be
       -0.06603833 -0.008648642 0.05444148 -0.19332398
0002f0 2b 87 ae bd ad 99 ce 3d 5b ba 1c 3d 33 c0 11 3e
       -0.08521875 0.10087905 0.03826366 0.14233474
000300 31 8b 74 3e 6a 7c 23 3d 8e 72 df bd b2 2e 51 3e
       0.23881222 0.039913572 -0.109105214 0.20427969
000310 9c df aa 3d ca a2 3e 3e ab f3 02 3e fe e7 77 bd
       0.08343431 0.18616787 0.12788264 -0.06052398
000320 78 a6 34 3e 26 80 aa 3b d7 38 4e 3e aa ee 3f be
       0.17641628 0.0052032648 0.2013887 -0.18743387
000330 af e6 cb 3c 51 22 2b be 30 bd 49 be ef 7e 85 be
       0.024890272 -0.1671231 -0.19701076 -0.26073405
000340 bf 33 ab 3d 8f 28 72 bd 8d 62 24 bd 5d bd 44 be
       0.08359479 -0.05912071 -0.040133048 -0.19212861
000350 6d 09 30 be 0b 4e 1b 3e 9e ce 1b 3e 16 22 25 3e
       -0.17191096 0.1516649 0.15215537 0.16126284
000360 1c 4c 2d be 41 01 b9 bd 9d b3 01 be 57 60 10 3e
       -0.16923565 -0.09033442 -0.12666173 0.1409925
000370 0a 19 07 3e 7a 8e d4 bd 14 ee 10 be 74 5a 7d 3e
       0.13193145 -0.10378738 -0.1415332 0.24741536
000380 82 93 13 be e2 c1 45 be 55 d7 9d 3d 81 63 3d 3e
       -0.14411739 -0.19312242 0.07707087 0.18494989
000390 c5 73 29 be 1b c7 c2 bd 3d 53 86 3d 9d 8a 76 be
       -0.16548069 -0.095106326 0.06558845 -0.24076314
0003a0 8d 3d c8 3d 6b 84 c6 3d fb 28 7c 3e 7b c7 36 be
       0.09777365 0.096932255 0.24625008 -0.17849533
0003b0 0e ce 98 bd c0 a4 66 bd 3e e0 96 3d 2d 4b ca 3d
       -0.07461177 -0.05630946 0.073669896 0.0987762
0003c0 59 5d 64 3e 63 71 1d be a4 f1 5b 3e 20 cb 30 be
       0.22301234 -0.15375285 0.21478897 -0.17264986
0003d0 a0 3d 75 3e f6 37 1a 3d b7 1e 54 be 1d 1b 80 bd
       0.2394929 0.037651025 -0.20714842 -0.062551714
0003e0 f9 1e aa 3d da 03 cf 3d 02 4d 44 3e f2 e4 85 be
       0.08306689 0.101081565 0.19170001 -0.26151234
0003f0 5c 58 4a be a9 ed 22 3e 1b a5 7e 3e 7f 8e cf bd
       -0.19760269 0.15910973 0.2486767 -0.10134601

bias f4 [64]
000000 3b 42 21 bd c0 ef 01 3d 61 53 cd 3c c3 2a 3c be
       -0.039369803 0.031722784 0.025064172 -0.18375687
000010 3a e7 0e be 73 8e eb bd 01 80 2f be e0 c4 f6 bd
       -0.13955393 -0.115017794 -0.17138673 -0.1204927
000020 96 27 67 3e 3c 60 2b bc d0 45 14 be f1 71 30 3e
       0.22573695 -0.010459956 -0.14479756 0.17230965
000030 f1 19 2e 3e e8 fa c0 3c 70 8c 85 3e 69 2c c5 3d
       0.17002083 0.023557141 0.26083708 0.09627611
000040 f1 d5 57 be 39 ec 92 3d 9e d9 13 bd 02 b8 2b 3e
       -0.21077706 0.07173962 -0.036096208 0.16769412
000050 dc 8d d2 bd 4b 27 03 3d ed aa 12 bd 35 76 06 3e
       -0.10280964 0.032019895 -0.03580754 0.1313103
000060 42 0a 6c be 95 54 0f 3d 9d 42 bd 3d 3e e3 83 bb
       -0.23050788 0.034992773 0.09241221 -0.004024892
000070 58 da 6d 3e ec 9a 27 bd e3 3c 85 3e e4 8d c7 3b
       0.23227823 -0.04091923 0.26023015 0.0060899127
000080 e6 0c 90 bd 65 03 4a 3e be 32 0e be 2e fa d0 3c
       -0.0703371 0.19727857 -0.13886544 0.02550992
000090 ae 97 0e 3d e3 30 52 3c 38 50 5f 3d 6c 3f 4c be
       0.03481262 0.012829038 0.054519862 -0.19946069
0000a0 98 aa 5c be 26 40 d4 3d 1b da af bc c6 cb 0f be
       -0.21549451 0.10363798 -0.021466305 -0.14042577
0000b0 ec 46 81 3e f2 72 01 bd 8c fe 83 bd 73 75 53 3e
       0.25249422 -0.03160376 -0.06445035 0.20650272
0000c0 68 f3 3b bd 93 6b af 3d 20 25 10 3e 78 56 76 3e
       -0.045886427 0.0856544 0.14076662 0.24056423
0000d0 cb 6f 44 3e 4f 1c 10 be 5d fe 38 b9 f6 e3 15 be
       0.1918327 -0.14073299 -0.00017642365 -0.14637741
0000e0 1e dc 83 bd a1 48 3a 3e 18 54 e3 bc 20 1a 8a 3d
       -0.064384684 0.18191768 -0.02775006 0.06743264
0000f0 c9 27 14 3e ab 18 30 bd 80 93 b7 3d ca 8b c5 3d
       0.14468302 -0.042992275 0.0896368 0.09645803
