model/final_model_5322.pth (torch, 169998 bytes, 136 tensors)

weight f4 [14, 16]
0	0xbee1ec2d	-0.441255
1	0x3e9b830f	0.30373427
2	0xbf4bcac5	-0.79606277
3	0xbf184823	-0.5948507
4	0x3e0575c3	0.13033204
5	0xbeceaed0	-0.40367746
6	0x3f2361d8	0.6382117
7	0xbfc8c9e8	-1.5686617
8	0xbeabbd52	-0.33542877
9	0xbef7c563	-0.48392782
10	0x3fa16020	1.260746
11	0x3e943faf	0.28954837
12	0x3f040258	0.51566076
13	0x3f9ff292	1.2495902
14	0x3f304c81	0.68866736
15	0xbf429b30	-0.7601805
16	0x3f287b03	0.658127
17	0x3fa87067	1.3159302
18	0x400fbf57	2.2460535
19	0x3f6cbe29	0.9247766
20	0xbe455586	-0.19270906
21	0x3f11999f	0.5687503
22	0xbe7b15c4	-0.24520022
23	0xbff938e9	-1.9470493
24	0x3fdf2505	1.7433172
25	0xbfc9522a	-1.57282
26	0xbf83e408	-1.0303965
27	0x3e64d25e	0.22345874
28	0x3c7c8d96	0.015414616
29	0x3eb29f74	0.34887278
30	0x3fd7c79a	1.6857789
31	0xbf24a3ee	-0.64312637
32	0x3f9adee3	1.209927
33	0xbf4234f7	-0.7586207
34	0xbf3f8de7	-0.748259
35	0xbecb0095	-0.39648882
36	0xbef1a8e9	-0.4719918
37	0x3e134884	0.14383131
38	0x3fc28345	1.519631
39	0xbf089e1a	-0.53366244
40	0xbe7aff48	-0.24511445
41	0x3fb67339	1.4253913
42	0xbf883474	-1.0641007
43	0xbf7e11ac	-0.99245715
44	0x3f140556	0.5782064
45	0x3ee9fd22	0.45700938
46	0xbf8d570a	-1.1042187
47	0x3fe171b3	1.7612823
48	0xbe82f37a	-0.25576383
49	0x4000452d	2.0042222
50	0x3f489193	0.7834713
51	0x3f044ea4	0.51682496
52	0xbf10ed67	-0.5661225
53	0x4009f19f	2.1553724
54	0x3fd5be42	1.6698687
55	0xbfb3ba75	-1.4041277
56	0x3f812cfb	1.0091852
57	0xbeedc87a	-0.46442014
58	0x3f1ed649	0.62045723
59	0x3fc63190	1.5483875
60	0x40046bac	2.0690718
61	0x3f3c149e	0.7346896
62	0x3f01f37b	0.50762147
63	0xbfe0f3a0	-1.7574348
64	0xbf491b24	-0.7855704
65	0x3f8ca307	1.0987252
66	0xbf71a98f	-0.9439935
67	0xbf913c30	-1.1346493
68	0x3f3d23c5	0.73882705
69	0x3faf6d6c	1.3705268
70	0xbeb131fa	-0.34608442
71	0xbf7e8d0c	-0.9943397
72	0x3e894bf4	0.2681576
73	0x3efc8433	0.4931961
74	0x3f56b832	0.8387481
75	0x3fde02ab	1.7344564
76	0x3fb3c06e	1.40431
77	0xbf2dfed7	-0.6796698
78	0x3fc19a26	1.5125167
79	0x3fa88886	1.3166664
80	0x3f146e99	0.5798126
81	0xbfea66d6	-1.8312633
82	0xbfb40162	-1.4062922
83	0xbe9f36e7	-0.31096575
84	0xbeb06566	-0.3445236
85	0xbd900f39	-0.070341535
86	0x3eb2407f	0.34814832
87	0xbdbe7406	-0.092994735
88	0xbea7ec99	-0.32797697
89	0x3f4d0b5c	0.8009546
90	0xbef5795c	-0.47944152
91	0x3dce716e	0.10080229
92	0x3ea7bd6a	0.327617
93	0x3b8aa365	0.004230904
94	0xc0125ee7	-2.2870424
95	0x3e425d81	0.18980981
96	0xbfa94292	-1.3223441
97	0x3f2d4bdf	0.67693895
98	0xbef4c321	-0.47805122
99	0xbf2c60fa	-0.67335474
100	0x3f2cc9d3	0.6749546
101	0x3d5decf4	0.054181054
102	0x3ebcdac2	0.3688565
103	0xbf48a541	-0.7837716
104	0xbf5dac78	-0.8659129
105	0x3ee726cd	0.4514679
106	0x3f8f57bb	1.1198648
107	0x3ccb55d2	0.024821196
108	0xbb78ab04	-0.003794373
109	0xbf4b5019	-0.79419094
110	0x3f010255	0.50394183
111	0xbdaf5980	-0.08561993
112	0x3f419982	0.7562486
113	0xbfb33130	-1.3999386
114	0xbf059b3c	-0.52189994
115	0xbf7947cc	-0.9737518
116	0x3f40e9bc	0.7535665
117	0xbf7605fe	-0.96102893
118	0xbf849131	-1.0356809
119	0x3fb25cf7	1.3934621
120	0x3f4332b2	0.7624923
121	0xbe4840b2	-0.1955593
122	0x3ddbf57a	0.1074018
123	0xbf30d716	-0.69078195
124	0xbcac052c	-0.02099856
125	0xbda035c6	-0.078227565
126	0x3f02081b	0.5079362
127	0x3f8be7d1	1.093012
128	0x3f555d38	0.83345366
129	0xbf1095dd	-0.56478673
130	0x3f234368	0.6377473
131	0x3ddd666b	0.1081055
132	0xbe56f2bc	-0.20991033
133	0xbe1cb708	-0.15304196
134	0xbfd0c24e	-1.6309297
135	0xbf3efab2	-0.7460128
136	0xbf1f2545	-0.62166244
137	0xbdd88c11	-0.105735905
138	0x3f285057	0.6574759
139	0x3fe2e07f	1.7724761
140	0x3cfad4cf	0.030619053
141	0x3fcf3fda	1.6191361
142	0xbf7d94fb	-0.9905545
143	0xbfc9d375	-1.5767657
144	0xbca6dfd3	-0.0203704
145	0xbf5345c3	-0.8252832
146	0x3f2fa6da	0.6861397
147	0x3e7cf094	0.24701148
148	0xbd32e8ee	-0.04367917
149	0xbf05cf8a	-0.52269804
150	0xbfe99494	-1.8248467
151	0xbf5dfdf2	-0.86715615
152	0xbdd84cf9	-0.10561556
153	0x3e882166	0.2658798
154	0x3f9d56ba	1.2292092
155	0x3feb5af7	1.8387135
156	0xbe889893	-0.26678905
157	0x3ebe6277	0.37184498
158	0xbeda6ec1	-0.42662624
159	0xbf7d9feb	-0.9907214
160	0xbf14b2c1	-0.58085257
161	0xbe0f1cfa	-0.13975897
162	0xbf4479a7	-0.76748127
163	0x3f610fa0	0.87914467
164	0x3fb9b5c9	1.4508601
165	0xbf033c3a	-0.51263773
166	0x3cf066a4	0.029345818
167	0x400dd1c2	2.2159276
168	0xbe42cc63	-0.1902328
169	0x3f321c61	0.6957455
170	0x3d920ccf	0.07131349
171	0x3fc01c79	1.5008689
172	0xbfac63ba	-1.3467934
173	0x3d8e076c	0.06935009
174	0x3ef0c89e	0.4702806
175	0xbe4571b8	-0.19281662
176	0xbf30cc75	-0.69061977
177	0xbf756dd3	-0.95870703
178	0xbf335b7a	-0.7006146
179	0x3fd1dd82	1.6395724
180	0x3fb3cd35	1.4046999
181	0xbedf9e65	-0.43675533
182	0xc00bddd7	-2.185415
183	0xbf13ba92	-0.5770656
184	0xbefac5d0	-0.48979044
185	0x3f00f238	0.50369596
186	0xc0033cf2	-2.0505948
187	0xbf4717d8	-0.7777076
188	0x3f2432b4	0.64139867
189	0x3eec60cb	0.46167597
190	0x3f4cbadb	0.7997262
191	0xbf479b5b	-0.7797143
192	0x3f305a23	0.6888754
193	0xbe06ab0a	-0.13151184
194	0xbf3e7b22	-0.74406636
195	0x4000ee35	2.014539
196	0xbfc33980	-1.5251923
197	0x3fe5bb59	1.7947799
198	0xbfbb811a	-1.4648774
199	0xbf6f6989	-0.9352041
200	0x3f8b5d04	1.0887761
201	0xbff9e47d	-1.9522854
202	0x3e8fbacd	0.28072205
203	0x3ec2e639	0.3806627
204	0x3f979c2a	1.1844532
205	0xbe952e56	-0.29136914
206	0x3f43d17b	0.76491517
207	0xbe56d8f2	-0.20981196
208	0x3f3a740b	0.7283332
209	0x3f3860dd	0.720228
210	0xbeba91c6	-0.3643934
211	0xbdab3678	-0.083599985
212	0x3c06b6cb	0.008222292
213	0x3f22613b	0.6342961
214	0x3f88a491	1.0675222
215	0x3f6b9ca7	0.9203591
216	0x3f481008	0.7814946
217	0xbee2dbc9	-0.44308308
218	0x3f6c7b13	0.92375296
219	0xbf672afb	-0.9029996
220	0xbeb266db	-0.34844097
221	0xbf9ba961	-1.2161065
222	0xbfc18d7c	-1.5121303
223	0x3eb11b93	0.3459135

weight f4 [100, 16]
0	0xbf8a7a14	-1.0818505
1	0x3f9ed8a6	1.2409866
2	0x3e577cf6	0.21043763
3	0xbfab7ec1	-1.3398057
4	0x3fb17df1	1.3866559
5	0xbf0addc5	-0.54244643
6	0xbfa667ea	-1.3000462
7	0xbf5a42f0	-0.8525839
8	0x3faefd97	1.367114
9	0x3db2563e	0.08707856
10	0x3e552413	0.20814542
11	0xbe387468	-0.18013155
12	0x3e82aa55	0.25520578
13	0x3f0859b1	0.5326186
14	0x3f4e2a48	0.80533266
15	0x3f6a4176	0.91506135
16	0xbfa29444	-1.2701497
17	0xbf0caa64	-0.54947495
18	0xbdaf0c50	-0.0854727
19	0xbe974fd8	-0.29553103
20	0x3f4a2d6e	0.7897557
21	0x3fa120c9	1.258813
22	0xbfc9a1f4	-1.5752549
23	0xbdcc79d3	-0.099841736
24	0x3f563da2	0.83687794
25	0xbf0435f4	-0.51644826
26	0x3e547b2e	0.20750114
27	0x3c2eb035	0.010662128
28	0xbfd1ea0e	-1.6399553
29	0x3f20c3c3	0.6279871
30	0x3f39f382	0.7263719
31	0xbfe498a2	-1.785908
32	0x3f37405a	0.7158257
33	0xbf5dabac	-0.86590075
34	0x3fa9ee64	1.3275876
35	0xbfcb99dc	-1.5906329
36	0xbfeea06c	-1.8642707
37	0xbf249db9	-0.64303166
38	0x3fbc23c6	1.4698417
39	0xbf04c3d0	-0.51861286
40	0xbe0a2c71	-0.13493516
41	0xbfbab47d	-1.4586331
42	0xbafeadb1	-0.0019430426
43	0xbfae03f5	-1.3594958
44	0xbe842c44	-0.25815022
45	0xbfcd7921	-1.6052591
46	0x3f55e945	0.83559066
47	0xbf1868c4	-0.5953486
48	0x3f81cdfc	1.0140986
49	0xbff8f2bf	-1.944908
50	0xbf399732	-0.7249633
51	0xbe4207fb	-0.18948357
52	0x3f81fa25	1.0154463
53	0x3e4e2749	0.20132174
54	0x3de8d149	0.11368043
55	0xbcce2005	-0.025161752
56	0x3f13171f	0.57457155
57	0x400c98b5	2.1968205
58	0xbf072092	-0.52784073
59	0x3e97540e	0.29556316
60	0x3f03faf2	0.5155479
61	0x3f2c91bb	0.6740987
62	0xbf33c1ff	-0.7021789
63	0xbbbca683	-0.0057571544
64	0xc0059860	-2.0874252
65	0xbd46dc66	-0.048550032
66	0xbf3d818e	-0.7402581
67	0x3f92a028	1.1455126
68	0x3ee941cd	0.45558015
69	0xbf03f8b8	-0.5155139
70	0xbe03445b	-0.12819044
71	0x3ee34879	0.4439123
72	0x3e52c59e	0.20583197
73	0x3f23773c	0.6385381
74	0xbf4a5eb8	-0.7905078
75	0xbf79373a	-0.97349894
76	0x3b07d194	0.0020724284
77	0x3f58e568	0.84725046
78	0x3d7fa8ce	0.062416844
79	0x3f41dc4f	0.7572679
80	0xbfb8f384	-1.4449315
81	0xbeb14fb6	-0.34631127
82	0xbdc92ada	-0.098226264
83	0xbecd11cc	-0.4005264
84	0x400b2661	2.1742175
85	0x3e2c837c	0.16847032
86	0x3f968e40	1.1762161
87	0x3fca4861	1.5803338
88	0x3f629aec	0.8851764
89	0x3f335e21	0.70065504
90	0xbf0632f5	-0.52421504
91	0x3e9228b4	0.2854668
92	0x3fe4d133	1.7876343
93	0x3f1bbbfe	0.6083373
94	0x3f3d9e4d	0.7406967
95	0x3af1ff5c	0.0018462944
96	0x3f655dd7	0.89596313
97	0xbf0c7b03	-0.548752
98	0x401a4053	2.410176
99	0xbe1ebf95	-0.1550277
100	0xbfb11f61	-1.3837701
101	0xbf172c16	-0.59051645
102	0x3f309364	0.689749
103	0x3ec97369	0.39345863
104	0x3e0ad606	0.13558206
105	0x3ff7b626	1.9352462
106	0x3f6daa2c	0.92837787
107	0xbf0e5deb	-0.5561206
108	0xbeab7498	-0.3348739
109	0x3ed554f0	0.41666365
110	0xbf99abde	-1.2005575
111	0x3f3ccf10	0.7375345
112	0xbfbfc864	-1.4983029
113	0x3fe8d0fc	1.8188777
114	0xbf3c1072	-0.73462594
115	0xbf178e27	-0.5920128
116	0xbe84da10	-0.25947618
117	0xbec6470a	-0.38726074
118	0x3e5126b9	0.20424928
119	0xbeb2530c	-0.34828985
120	0x3fd0f893	1.6325859
121	0x3f0d701b	0.55249184
122	0x3cc67f8a	0.024230737
123	0xbe43b8a3	-0.19113402
124	0xbec7ba54	-0.39009345
125	0x3d9cfdbe	0.07665585
126	0xbf9fd081	-1.2485505
127	0x3f0951f5	0.5364068
128	0xbf5c7a2d	-0.86123925
129	0xbdea6d3c	-0.11446616
130	0xbeef7ee5	-0.467765
131	0xbfb1515e	-1.3852956
132	0xbf72974f	-0.9476213
133	0x3e64a44e	0.22328302
134	0x3ef7d04e	0.4840111
135	0x3f083fdd	0.5322245
136	0xbf4d6218	-0.80227804
137	0x3e8eac16	0.27865666
138	0xbdd602c0	-0.10449743
139	0xbe68111d	-0.22662778
140	0x3f969b74	1.176619
141	0xbb312a12	-0.0027033133
142	0x3fcb496e	1.5881784
143	0xbe37a72c	-0.17934865
144	0xbfac9595	-1.3483149
145	0x3e9b1ec8	0.30296922
146	0x3ec85003	0.39123544
147	0x3f00827f	0.5019912
148	0x400e7944	2.2261515
149	0xbf5ec0b5	-0.870128
150	0xbfca45ec	-1.5802588
151	0xbfed9d1c	-1.8563571
152	0xc00ae3f4	-2.1701632
153	0xbfaabcf1	-1.333891
154	0xbe99755e	-0.29972357
155	0xbf76ea49	-0.9645124
156	0xbd08db22	-0.033412106
157	0x3e20ffa7	0.15722524
158	0xbf49100c	-0.7854011
159	0x3f461d14	0.7738812
160	0x3f935eab	1.1513265
161	0xbe2c1751	-0.1680577
162	0xbdbac3b8	-0.09119362
163	0xbf87d4a3	-1.0611767
164	0x3fa345c2	1.2755663
165	0x3eff8b31	0.49910882
166	0xbf7a0c3f	-0.97674936
167	0xbf719b97	-0.94378036
168	0x3ed1377b	0.4086264
169	0x3fab7dc5	1.3397757
170	0x40285643	2.630265
171	0xbf0a3c4c	-0.53998256
172	0xbf62a7a8	-0.88537073
173	0xbde45531	-0.111490615
174	0xc0033932	-2.050366
175	0x3f1f5984	0.62245965
176	0xbf7ee001	-0.9956055
177	0xbffb44b0	-1.9630337
178	0x3e411e36	0.18859181
179	0x3f87c076	1.060561
180	0xbe78da90	-0.24302125
181	0x3facc66a	1.3498051
182	0xbfbff2a5	-1.4995924
183	0xbe456758	-0.19277704
184	0x3e84c169	0.2592881
185	0xbf24404a	-0.641606
186	0x3d213c7a	0.039364316
187	0x3e7408bb	0.23831455
188	0xbf31109b	-0.6916596
189	0x3ed58870	0.41705656
190	0xbf1b7ff4	-0.60742116
191	0xbe2f2fb5	-0.17108043
192	0x3e5e778c	0.21725291
193	0x3f187d92	0.59566605
194	0x3f233f86	0.63768804
195	0xbe2069b4	-0.15665323
196	0x3f604ac7	0.876141
197	0x3c43b72c	0.011945527
198	0xbfcb2886	-1.5871742
199	0x3fbaa8cd	1.4582764
200	0x3b97963e	0.0046260646
201	0xbfa54967	-1.2913026
202	0x3f975163	1.1821712
203	0x3ea4ddab	0.3220037
204	0x3de0c7e2	0.109756246
205	0x3f589c48	0.84613466
206	0xbffdf617	-1.9840726
207	0x400ebecf	2.230396
208	0xbf84e1ec	-1.0381446
209	0xbeabef9e	-0.3358125
210	0x3fc2cc51	1.5218602
211	0x3dfed422	0.12442805
212	0xc007f908	-2.1245747
213	0x3f220652	0.63290894
214	0x3f43fb4b	0.7655532
215	0x3f5cd656	0.8626455
216	0xbee3303f	-0.44372746
217	0xbf90b121	-1.1304055
218	0xbf78c74f	-0.9717912
219	0xbf34b695	-0.705911
220	0x3f923d1c	1.1424899
221	0x3f0b89aa	0.54506934
222	0xbf7e58c2	-0.99354184
223	0x3f1d3919	0.6141525
224	0xbe17f57a	-0.14839736
225	0xbfe7fdc0	-1.8124313
226	0x3e2a309c	0.16620106
227	0xbf010282	-0.5039445
228	0x3ffa6b5d	1.9564015
229	0xbf9fbbde	-1.2479208
230	0x3f14427d	0.57913953
231	0xbf5d1e31	-0.86374193
232	0xbf6c7d58	-0.9237876
233	0x3f871d16	1.0555751
234	0xbfb14a0f	-1.3850726
235	0xbe79f532	-0.24409941
236	0xbda6c45d	-0.08142922
237	0x3f43a4ff	0.7642364
238	0xbda21a91	-0.079152234
239	0x3e823c09	0.25436428
240	0xbf5197d0	-0.8187227
241	0xbf28389a	-0.6571137
242	0x3e40de6b	0.18834846
243	0x3e9390ab	0.2882131
244	0xbeed6807	-0.4636843
245	0x3f3c6fd3	0.7360813
246	0x3e3d320e	0.18476126
247	0x3fb7b35e	1.4351614
248	0xc00b3f83	-2.1757514
249	0x3e8114a1	0.2521105
250	0x3fb244aa	1.3927205
251	0xbf99125c	-1.1958728
252	0xbe7f2779	-0.24917401
253	0x3ef80d10	0.48447466
254	0x3ff4d606	1.9127815
255	0xbe8ec604	-0.2788545

weight f4 [4, 16]
0	0x3db8623b	0.09003111
1	0xbe5ce707	-0.21572505
2	0xbdaffdd9	-0.085933395
3	0xbdbc7187	-0.09201341
4	0xbe559649	-0.2085811
5	0xbdd069a2	-0.10176398
6	0x3e73bb49	0.23801912
7	0x3d8181e4	0.06323603
8	0xbe120bab	-0.14262263
9	0x3c2f0f75	0.010684838
10	0xbcdc800b	-0.026916524
11	0xbe5ff40c	-0.2187044
12	0x3e058bd2	0.13041618
13	0xbe4bb891	-0.19894625
14	0x3e62e455	0.22157414
15	0xbd176d5b	-0.036969524
16	0x3ce7fb89	0.028318183
17	0x3e0ba4b0	0.13637042
18	0x3d3d932e	0.04628294
19	0x3e0585a2	0.13039258
20	0x3e18d356	0.14924368
21	0x3d0ea401	0.034824375
22	0xbe16aef5	-0.14715178
23	0xbe184770	-0.14871001
24	0x3b2a3a4b	0.0025974687
25	0x3d1ae9d2	0.037820645
26	0x3e6d24d9	0.23158588
27	0x3e8945ea	0.26811153
28	0x3dba2c9c	0.0909054
29	0x3d32f556	0.043691
30	0x3df04589	0.11732013
31	0x3e1a3ef3	0.15063076
32	0x3e68499e	0.22684333
33	0xbdc70b87	-0.097189955
34	0x3e2c64db	0.16835348
35	0x3e1e7978	0.15476024
36	0x3e0833be	0.13300988
37	0x3e302d5f	0.17204808
38	0xbbd2f77e	-0.006438195
39	0x3dac6f7f	0.08419704
40	0xbe30ecc2	-0.17277816
41	0xbe3b969c	-0.18319172
42	0x3df1a010	0.117981076
43	0x3da4ea15	0.0805246
44	0x3db70f63	0.08938482
45	0xbe1f53ed	-0.15559359
46	0xbe161e1b	-0.14659922
47	0x3e762559	0.24037685
48	0xbdf59015	-0.11990372
49	0xbe57bce2	-0.21068147
50	0x3da71149	0.08157594
51	0xbd1c0ebb	-0.038099986
52	0x3e5eaae8	0.21744883
53	0xbd450d1a	-0.048108198
54	0x3c6832d6	0.0141722765
55	0x3df108f9	0.117692895
56	0xbdcf3244	-0.10117009
57	0x3d5c1618	0.053732008
58	0xbd882873	-0.0664834
59	0x3dc30aa5	0.09523515
60	0xbc04a9d0	-0.008097127
61	0xbe3f62dc	-0.18690056
62	0xbd0444d9	-0.03229222
63	0xbdb922e3	-0.09039857

weight f4 [4, 16]
0	0x3db8c33d	0.09021614
1	0x3e335bb5	0.17515452
2	0xbe180ef8	-0.1484946
3	0xbe9c29be	-0.30500597
4	0xbd6531a6	-0.05595555
5	0xbdc0d133	-0.094149016
6	0xbe2bb485	-0.16768081
7	0x3c2416b7	0.010015181
8	0xbe3953d6	-0.18098387
9	0xbe087cae	-0.13328812
10	0x3debbed4	0.11511007
11	0x3d89c52d	0.067270614
12	0xbdfd7088	-0.12374979
13	0xbe7174a3	-0.2357965
14	0xbda5d2d7	-0.08096855
15	0xbdaab36f	-0.083350055
16	0xbdb1bdcc	-0.08678779
17	0xbe5cb6f5	-0.21554168
18	0xbe212a98	-0.15738904
19	0x3e073be4	0.1320644
20	0x3e36adfd	0.17839809
21	0xbd91cedf	-0.07119536
22	0xbe77454f	-0.24147533
23	0xbddd23bb	-0.10797831
24	0xbaf59183	-0.0018735382
25	0xbdd91658	-0.10599965
26	0x3d82f2ff	0.06394004
27	0xbe1a6145	-0.15076168
28	0xbe706a57	-0.23478065
29	0xbd821045	-0.063507594
30	0xbe52592d	-0.2054183
31	0x3d2e4e71	0.042555276
32	0xbe0f862a	-0.14016023
33	0xbd0fdad2	-0.035120793
34	0x3cceeb84	0.025258787
35	0x3df631e2	0.12021233
36	0x3c29de93	0.010368007
37	0x3dd2517f	0.102694504
38	0x3e75483e	0.2395334
39	0xbd6ae9d7	-0.057351913
40	0xbb9cc508	-0.00478423
41	0x3e75f94c	0.2402088
42	0xbe3fd4e4	-0.18733555
43	0xbdff42a4	-0.124638826
44	0x3e85a64e	0.26103443
45	0xbdf80f28	-0.12112266
46	0x3e03abb7	0.12858473
47	0x3d90aad0	0.0706383
48	0x3d4e5653	0.050375294
49	0xbe09204e	-0.1339123
50	0xbe454845	-0.1926585
51	0xbdda311a	-0.10653897
52	0xbdec07c6	-0.1152492
53	0xbe8144cf	-0.2524781
54	0xbdcfacb8	-0.10140365
55	0x3daa55bf	0.08317136
56	0xbda66673	-0.081250094
57	0x3e42dbc9	0.19029154
58	0xbe3693b3	-0.1782978
59	0x3e443510	0.19160867
60	0x3e24e722	0.16103795
61	0xbe35cba5	-0.17753465
62	0xbca77cab	-0.020445189
63	0xbe7b3b97	-0.2453445

weight f4 [4, 16]
0	0x3d885e0e	0.066585645
1	0xbe5f34e2	-0.21797517
2	0x3e229835	0.15878375
3	0xbe20045b	-0.15626661
4	0xbe3138d3	-0.17306833
5	0xbe4052fb	-0.18781655
6	0x3e1e82ef	0.15479635
7	0xbd5a1e4e	-0.053251557
8	0xbd0d50d6	-0.03450092
9	0x3e7b0250	0.24512601
10	0xbd8f3e28	-0.06994277
11	0xbe40930c	-0.18806094
12	0xbe3f37ff	-0.18673705
13	0xbd86d069	-0.0658272
14	0x3e739865	0.23788603
15	0xbe4dcf03	-0.200985
16	0x3e43e910	0.19131875
17	0x3e3a771f	0.18209504
18	0x3e401cd2	0.18760994
19	0xbdc5e1ec	-0.09662232
20	0xbe34f845	-0.17672832
21	0x3e5e096c	0.21683282
22	0xbe637786	-0.22213563
23	0x3e2f1ce3	0.17100863
24	0x3e40bb04	0.18821341
25	0xbd807cff	-0.06273841
26	0xbdfa59ff	-0.12224197
27	0x3d1b62fe	0.037936203
28	0x3da8ee21	0.082485445
29	0xbbf1937c	-0.007372318
30	0x3dd2a6c1	0.10285712
31	0xbdd21f18	-0.10259837
32	0xbd29cf20	-0.041457295
33	0x3d7bb8be	0.06145548
34	0xbda29fb1	-0.07940615
35	0xbe229bdb	-0.15879767
36	0xbe45201b	-0.19250529
37	0xbe5a7389	-0.21333136
38	0x3e3a4fc4	0.1819449
39	0x3e2d8056	0.16943488
40	0x3e609c58	0.2193464
41	0x3c139e19	0.009009861
42	0xbd30007d	-0.042969216
43	0xbe448e86	-0.19194993
44	0xbe5ee3de	-0.21766612
45	0x3e5754aa	0.2102839
46	0x3dae5f8b	0.08514317
47	0x3da3f6e5	0.08006076
48	0xbe3ef5e3	-0.18648486
49	0xbddc12d5	-0.107457794
50	0xbd068422	-0.032840855
51	0x3d8e7646	0.069561526
52	0xbd2f11d4	-0.04274161
53	0x3dd9ccb2	0.10634746
54	0xbe81b95f	-0.2533674
55	0xbd4accd7	-0.049511757
56	0xbdfad9d9	-0.122485824
57	0x3e1eade0	0.15496016
58	0x3ca5f2a0	0.020257294
59	0xbe592824	-0.21206719
60	0xbd92cbdc	-0.07167789
61	0xbd9979fa	-0.07493968
62	0x3e486f79	0.19573773
63	0xbda041d7	-0.07825058

weight f4 [4, 16]
0	0x3d107976	0.035272084
1	0x3d094301	0.033511166
2	0x3dc0ac31	0.09407843
3	0xbe43d725	-0.1912504
4	0x3d49ad2b	0.04923741
5	0x3cb388b0	0.021915764
6	0xbe4115c7	-0.18855964
7	0x3dff880b	0.1247712
8	0x3df2d821	0.118576296
9	0xbc6f8ebf	-0.014621436
10	0x3dc85c6a	0.097832516
11	0xbe2337e6	-0.15939292
12	0xbe37a324	-0.17933327
13	0xbe73b1fb	-0.23798363
14	0xbe43a1ea	-0.19104734
15	0xbe6be074	-0.23034841
16	0xbe749821	-0.23886158
17	0x3decefc8	0.11569172
18	0xbd8da2fe	-0.06915854
19	0xbdf340e4	-0.11877611
20	0xbd415124	-0.047196522
21	0x3e78d33a	0.24299327
22	0x3e5019bc	0.20322317
23	0xbdca4b7b	-0.09877678
24	0x3e8741ed	0.26417485
25	0x3dc5cf5a	0.0965869
26	0xbd3b234e	-0.045687966
27	0xbdc84bc1	-0.09780074
28	0xbe4b490d	-0.19852085
29	0xbe1a8a4c	-0.15091819
30	0x3cbe7a5e	0.023251709
31	0xbe2f51db	-0.17121069
32	0x3e28bf78	0.1647929
33	0x3e2ddd0a	0.16978851
34	0xbd656d95	-0.05601271
35	0x3dab70b0	0.08371103
36	0xbd6601c5	-0.05615403
37	0xbcb968ed	-0.02263304
38	0xbdbb0625	-0.09132031
39	0xbe6f2c7d	-0.23356815
40	0x3e2a97fb	0.16659538
41	0x3e72b6b1	0.23702504
42	0xbcbf9c6b	-0.023390016
43	0xbb852ae8	-0.0040639527
44	0x3e3c5262	0.18390802
45	0x3e02fbaa	0.12791315
46	0x3bc4cd21	0.0060058986
47	0x3e1793d3	0.14802484
48	0x3e7a90b7	0.24469267
49	0x3e364339	0.17799081
50	0xbde6c444	-0.112679034
51	0x3e43ec9c	0.19133228
52	0xbdf054cb	-0.11734923
53	0xbe4da9f0	-0.20084357
54	0xbd95362c	-0.07285723
55	0x3e19ee87	0.15032397
56	0xbe66fbfc	-0.22557062
57	0x3e073a5b	0.13205855
58	0x3dd23fab	0.1026605
59	0xbd07f61b	-0.03319369
60	0x3e33dce2	0.17564729
61	0x3e03d312	0.12873486
62	0x3dabdfa4	0.083922654
63	0xbe3139c7	-0.17307197

weight f4 [4, 16]
0	0x3bf5af5a	0.00749771
1	0xbe5de340	-0.2166872
2	0x3e119ec7	0.14220725
3	0xbe80b32d	-0.251367
4	0x3d8a19fe	0.06743239
5	0xbd820c59	-0.063500114
6	0x3ddc1796	0.10746686
7	0xbd243583	-0.040090095
8	0xbd2e0f8f	-0.042495307
9	0x3d9b01d2	0.075687066
10	0x3e789495	0.2427543
11	0xbddf3aa0	-0.10899854
12	0x3d8e39aa	0.06944592
13	0x3e40a67c	0.18813509
14	0xbe2a7cb4	-0.16649133
15	0x3ddb538b	0.10709294
16	0xbe69b7ac	-0.22823972
17	0x3e0b1a43	0.13584237
18	0xbdfcbb1d	-0.123403765
19	0xbe89d727	-0.2692196
20	0xbe7d8387	-0.24757205
21	0xbdcb9586	-0.09940629
22	0x3d22423e	0.039613955
23	0x3e00b788	0.12570012
24	0x3de29eb2	0.11065425
25	0x3cbf7bf4	0.023374535
26	0x3c9722c9	0.018449204
27	0x3de2a091	0.11065782
28	0x3d80aca4	0.062829286
29	0xbe63d3b9	-0.22248735
30	0xbd639759	-0.05556426
31	0x3c92330c	0.017846607
32	0xbe01eda1	-0.12688304
33	0x3d943bd7	0.07237976
34	0xbe727acd	-0.23679657
35	0xbe29fc99	-0.16600265
36	0x3e52a222	0.20569661
37	0xbe2c6ab4	-0.16837579
38	0x3d587993	0.052850317
39	0x3df8b3e6	0.12143688
40	0xbe23e8fd	-0.16006847
41	0x3e51bddc	0.20482582
42	0x3dcf3122	0.10116793
43	0x3d933c0d	0.07189188
44	0xbe522b7f	-0.20524405
45	0x3e5a5e57	0.2132505
46	0x3e34e6e4	0.17666203
47	0x3defe4b4	0.117135435
48	0xbdab5fda	-0.083678916
49	0x3db5bc4c	0.088738054
50	0xbe501201	-0.20319368
51	0x3d30822f	0.043092903
52	0x3b763434	0.0037567737
53	0x3dd5ad9c	0.10433504
54	0x3e042477	0.12904535
55	0x3d53a954	0.051675156
56	0x3e325185	0.1741391
57	0x3e77e70d	0.24209233
58	0x3e31bf8a	0.17358223
59	0xbc140efb	-0.009036775
60	0x3e54f5a6	0.20796832
61	0xbe71b764	-0.23605114
62	0xbe7895d8	-0.24275911
63	0x3e296f04	0.16546255

weight f4 [4, 16]
0	0xbe1b0b9c	-0.15141147
1	0x3e4ad127	0.19806348
2	0xbd12b836	-0.03582021
3	0xbd49953c	-0.049214587
4	0xbe118bd7	-0.14213501
5	0xbe3da9a7	-0.18521748
6	0xbe2fb68f	-0.17159484
7	0xbe71203b	-0.23547451
8	0x3e1b61a4	0.15173966
9	0x3ca6dba5	0.020368407
10	0x3da1c0ca	0.078981
11	0x3e5614c6	0.20906362
12	0x3dde19c0	0.10844755
13	0xbdccab0a	-0.099935606
14	0xbb18d43f	-0.0023319868
15	0xbdb75fa0	-0.08953786
16	0xbe4bede4	-0.19914967
17	0x3e28f3de	0.16499278
18	0xbe10256d	-0.14076777
19	0x3da3e889	0.08003337
20	0x3dea3a16	0.1143686
21	0xbc65ba73	-0.014021504
22	0x3d149e96	0.03628405
23	0x3c3bf437	0.0114718
24	0x3c21e48c	0.00988115
25	0xbdfc5422	-0.123207346
26	0x3d9cd3fe	0.07657622
27	0x3d7561d7	0.05990776
28	0xbdb371b4	-0.087619215
29	0x3d8b69e8	0.068073094
30	0xbdaaa158	-0.08331555
31	0x3e47e109	0.19519438
32	0x3cc6ed84	0.024283178
33	0x3c6a414e	0.014297796
34	0x3dc7e8ab	0.09761175
35	0x3e0d8620	0.13820696
36	0xbe0f64f3	-0.14003353
37	0x3c205bba	0.009787494
38	0xbc4b432f	-0.012406155
39	0xbc7c7aa0	-0.015410095
40	0x3db1a2e1	0.08673645
41	0xbda6d445	-0.08145956
42	0xbd2eaca5	-0.042645115
43	0xbdc84b0c	-0.09779939
44	0x3d644b09	0.05573562
45	0x3e0bfa94	0.13669807
46	0xbdaf519e	-0.08560489
47	0x3e1e46c2	0.1545668
48	0x3d32229b	0.043490034
49	0x3cc88350	0.024476677
50	0xbe89096d	-0.26765004
51	0xbe02d541	-0.12776662
52	0x3e2e3812	0.17013577
53	0x3e4c48f4	0.19949704
54	0x3dabd677	0.08390515
55	0xbe2d80f5	-0.16943724
56	0x3e457f72	0.19286898
57	0xbdf1788b	-0.1179057
58	0x3ad3082b	0.0016100457
59	0x3e1577f2	0.14596537
60	0xbce8ffd7	-0.028442306
61	0x3e1a5b91	0.15073992
62	0x3d2c830c	0.042117164
63	0x3dfd38e8	0.1236437

weight f4 [4, 16]
0	0x3e214084	0.15747267
1	0xbd4bda9d	-0.049769033
2	0x3d32a255	0.043611843
3	0xbe17af4f	-0.14812969
4	0x3e71b1c6	0.23602971
5	0xbe50c614	-0.20388061
6	0x3cd22633	0.02565298
7	0x3d120103	0.035645496
8	0x3c9b955e	0.018992122
9	0xbe3ca7aa	-0.18423334
10	0xbcef66c2	-0.029223803
11	0xbde5e9b0	-0.11226213
12	0x3d7dfaff	0.062006947
13	0x3e415a2b	0.18882053
14	0x3d42b75f	0.047538158
15	0x3db907e9	0.09034712
16	0x3e0e0894	0.1387046
17	0x3dddbb5f	0.10826754
18	0xbe256f01	-0.16155626
19	0xbdacede5	-0.08443812
20	0xbd805196	-0.06265561
21	0xbe161705	-0.14657219
22	0x3d5a6cb8	0.05332634
23	0xbdf3d066	-0.11904983
24	0xbe488e83	-0.19585614
25	0xbca38114	-0.01995901
26	0x3e3937b6	0.18087658
27	0xbe6b1be1	-0.22959854
28	0xbe1a9e3b	-0.15099423
29	0x3d89ec63	0.0673454
30	0x3e39cc7a	0.18144408
31	0xbc2f7026	-0.010707891
32	0xbdccbf6f	-0.099974506
33	0xbe39d653	-0.18148164
34	0x3e7eca61	0.24881889
35	0xbe1e9745	-0.15487392
36	0x3d6c67ab	0.057716053
37	0x3d501db0	0.050809562
38	0xbdff5e70	-0.124691844
39	0xbccaae47	-0.024741305
40	0xbe2a0fbf	-0.16607569
41	0xbe304f5d	-0.17217775
42	0x3c6d0d20	0.014468461
43	0xbe1fe686	-0.15615281
44	0x3e765939	0.24057473
45	0x3dacce08	0.08437735
46	0x3e4c92bd	0.19977851
47	0xbd887a9f	-0.06664013
48	0xbcd7c59a	-0.026339341
49	0xbe33b566	-0.17549667
50	0x3e1f66bd	0.15566535
51	0x3d5deb44	0.054179445
52	0x3cf1d571	0.029520722
53	0xbd0a032d	-0.033694435
54	0x3e32f610	0.17476678
55	0x3e500f13	0.2031825
56	0x3df16b07	0.11787992
57	0xbe03160b	-0.12801377
58	0x3d58176d	0.052756716
59	0xbde884e8	-0.11353475
60	0xbe03d99b	-0.12875979
61	0xbd96b5e6	-0.07358913
62	0x3e2f0a45	0.17093761
63	0x3d5c31fd	0.05375861

weight f4 [4, 16]
0	0xbd4486eb	-0.04798023
1	0x3dac96bb	0.08427187
2	0x3e2c320d	0.16815968
3	0x3d14cff9	0.03633115
4	0xbd8c0166	-0.06836204
5	0x3af12eb5	0.0018400761
6	0xbe07d54b	-0.13264959
7	0x3e4532eb	0.19257705
8	0xbd1b61e8	-0.037935168
9	0x3e566384	0.209364
10	0xbd25c439	-0.040470336
11	0x3dbf2389	0.0933295
12	0xbe4699cf	-0.19394611
13	0x3d957b5b	0.07298919
14	0x3dcaa4f7	0.09894746
15	0x3e7fc4ca	0.24977413
16	0xbde8701a	-0.11349507
17	0x3e16d196	0.14728388
18	0x3d3cb7e2	0.0460738
19	0x3d68a2cc	0.05679588
20	0xbe252951	-0.16129042
21	0x3da43a28	0.08018905
22	0x3e1aa048	0.15100205
23	0x3c7152d5	0.014729221
24	0xbddf8e7e	-0.1091585
25	0x3e404acf	0.18778537
26	0xbdc458aa	-0.09587224
27	0xbd8838f5	-0.06651489
28	0xbe68894f	-0.22708629
29	0x3e7f314a	0.24921146
30	0xbd0c915a	-0.034318306
31	0x3dd23e91	0.1026584
32	0xbe562a1f	-0.20914505
33	0xbd4314b7	-0.047627177
34	0x3e0bea3b	0.1366357
35	0xbda75c2f	-0.081718795
36	0x3d726bcb	0.05918483
37	0x3e46f341	0.19428732
38	0x3e1b4190	0.15161729
39	0x3dee3a01	0.11632157
40	0xbe1cc4a0	-0.15309381
41	0x3e1541ae	0.14575836
42	0xbde0a54d	-0.109690286
43	0xbd812b02	-0.06307031
44	0xbd3f8ed5	-0.046767075
45	0x3d314101	0.043274883
46	0x3b8aeb8d	0.0042395056
47	0xbdb31c52	-0.08745636
48	0x3d8dd1d9	0.06924791
49	0x3d266edc	0.040633067
50	0xbc07ef8b	-0.008296858
51	0xbdab2cf8	-0.083581865
52	0x3d2dea70	0.042459905
53	0x3e385141	0.17999746
54	0x3e3a86a3	0.18215422
55	0x3dafe0c3	0.08587792
56	0x3cbde48e	0.023180272
57	0xbdd85273	-0.10562601
58	0xbe5a392a	-0.21310869
59	0x3c9b792c	0.018978678
60	0x3da27a56	0.0793349
61	0xbdcb2f39	-0.099211164
62	0xbd243eb2	-0.040098853
63	0x3c25d41f	0.010121374

weight f4 [4, 16]
0	0xbe571df2	-0.21007517
1	0x3d9b9e38	0.07598537
2	0x3e3ef29c	0.18647236
3	0x3deeb80a	0.116561964
4	0x3e113dd1	0.14183737
5	0x3e1b4b23	0.15165381
6	0xbcd9dd17	-0.026594682
7	0x3db0990e	0.08622943
8	0xbdd5da6f	-0.104420535
9	0x3dc65111	0.09683431
10	0xbe05ac4d	-0.13054009
11	0xbe4f4601	-0.20241548
12	0x3d87c2c3	0.06628945
13	0x3d00f958	0.031487793
14	0xbe650b69	-0.22367634
15	0xbddf91e6	-0.109165
16	0xbe0a5a1a	-0.13510934
17	0x3d89feca	0.0673805
18	0x3d9bd3f0	0.07608783
19	0xbe4c6bc3	-0.19962983
20	0xbe39bfca	-0.18139568
21	0xbc34a719	-0.011026167
22	0x3dc58e0b	0.09646233
23	0xbd4247a2	-0.047431596
24	0xbe359e1b	-0.17736094
25	0xbe6effe6	-0.23339805
26	0x3d2d10c2	0.04225231
27	0xbe5d6525	-0.21620615
28	0x3c3facb2	0.011698889
29	0x3cc39441	0.023874404
30	0xbe1f8b61	-0.15580513
31	0x3d831bfc	0.06401822
32	0xbd89e031	-0.06732214
33	0xbd1fd5fe	-0.03902244
34	0xbe6df560	-0.23238134
35	0xbe3d26a4	-0.18471771
36	0xbd2bccfa	-0.041943528
37	0xbe71baf2	-0.2360647
38	0x3dd47fe1	0.103759535
39	0xbd2f127e	-0.042742245
40	0xbc705c03	-0.014670375
41	0xbe6a6f02	-0.22893909
42	0xbe6aec44	-0.2294169
43	0x3ca234a4	0.019800492
44	0xbe4c4352	-0.19947556
45	0xbe6e50c8	-0.23273003
46	0xbe69021d	-0.22754712
47	0x3e3b40e1	0.18286468
48	0x3e40f693	0.1884406
49	0xbd88cede	-0.06680082
50	0x3dd46aec	0.10371956
51	0xbd0245a8	-0.03180471
52	0x3e0403b3	0.12892036
53	0xbd53fa1e	-0.051752202
54	0x3e2c1e45	0.16808422
55	0xbe30d846	-0.17270002
56	0x3df8c46c	0.121468395
57	0xbe321769	-0.17391743
58	0xbe2f1926	-0.17099437
59	0xbe2b0f4d	-0.16705056
60	0xbe47bc87	-0.19505511
61	0xbdcd7ec6	-0.10033946
62	0x3e7d5fd5	0.24743588
63	0xbd05b858	-0.032646507

weight f4 [4, 16]
0	0x3d7ef138	0.062241763
1	0x3d6f83c5	0.058475275
2	0x3e0dace6	0.13835487
3	0xbe534cb4	-0.20634729
4	0x3e14416f	0.14478086
5	0xbc0af74c	-0.008481812
6	0xbd1cb525	-0.03825869
7	0xbdc2ada3	-0.09505775
8	0x3dc390c7	0.095490985
9	0xbcb8dfe6	-0.0225677
10	0x3e2aa613	0.16664915
11	0xbe2b2c22	-0.16716054
12	0xbe0f813f	-0.14014147
13	0x3de42562	0.11139943
14	0x3e2695fa	0.16268149
15	0x3d9165cd	0.07099495
16	0x3dcc5b7a	0.09978385
17	0xbe43621b	-0.19080393
18	0x3d71f38f	0.059070166
19	0x3e01470c	0.12624758
20	0xbdd39ff7	-0.10333245
21	0xbdad040f	-0.0844804
22	0x3c9fe390	0.01951769
23	0x3d2b7771	0.041861955
24	0xbe1b2daa	-0.15154138
25	0x3d9601a5	0.073245324
26	0xbd03db2a	-0.032191433
27	0xbe458ba3	-0.19291548
28	0x3e79e750	0.24404645
29	0x3d7225bd	0.05911802
30	0x3d231c89	0.039822135
31	0x3d23e98f	0.04001766
32	0x3dc4265f	0.09577631
33	0x3e3d24f2	0.18471125
34	0xbe34a6c7	-0.17641746
35	0x3dc9c930	0.098528266
36	0xbd6c2c32	-0.057659335
37	0x3e2ef8c1	0.1708708
38	0x3e7dcb39	0.24784555
39	0xbc9c180e	-0.019054439
40	0xbe3dad12	-0.18523052
41	0x3e173c6e	0.14769146
42	0x3e6ba8fe	0.23013684
43	0x3e1ab2ee	0.15107319
44	0x3cf0a163	0.02937383
45	0x3d8572d8	0.06516045
46	0xbd6406e1	-0.055670623
47	0xbdb51c47	-0.08843284
48	0xb9aec467	-0.00033334197
49	0x3e4311ad	0.19049712
50	0x3e1cedbd	0.15325065
51	0xbd384276	-0.044985257
52	0xbdb12c62	-0.086510435
53	0xbe238224	-0.15967613
54	0xbe80b49b	-0.2513779
55	0xbe788d6a	-0.24272695
56	0x3cbcdcd1	0.023054512
57	0x3e4c158d	0.19930096
58	0xbe0c5e1c	-0.13707775
59	0xbd697aa3	-0.05700172
60	0x3d90f346	0.07077651
61	0x3df75347	0.12076431
62	0xbdc584ec	-0.096444935
63	0xbe42c7ac	-0.19021481

weight f4 [4, 16]
0	0x3dee08df	0.11622786
1	0x3cba5dca	0.0227498
2	0x3dfac64f	0.122448556
3	0xbd739672	-0.059469648
4	0x3e08d86d	0.1336381
5	0x3cb5860d	0.022158647
6	0xbe56e478	-0.20985591
7	0xbe6e2513	-0.2325633
8	0xbe75e0a8	-0.24011481
9	0x3d05298a	0.032510318
10	0xbb7b36cc	-0.0038332222
11	0xbe1e655e	-0.15468356
12	0x3cd4ddcd	0.02598467
13	0xbd7837d5	-0.06060012
14	0xbdf18560	-0.117930174
15	0x3e60acfd	0.2194099
16	0x3e0577b3	0.13033943
17	0x3e66f507	0.22554408
18	0x3d91d240	0.0712018
19	0x3e595429	0.21223511
20	0xbd9a28bd	-0.075273015
21	0xbe4fa74b	-0.20278661
22	0xbe604b27	-0.21903668
23	0xbe200c6d	-0.1562974
24	0xbe41fdcb	-0.1894447
25	0x3e15d110	0.14630532
26	0x3e8a0028	0.26953244
27	0x3dec0b9f	0.11525654
28	0x3e2aec9e	0.16691825
29	0x3d48f50e	0.049061827
30	0x3e256226	0.16150722
31	0xbe2c475b	-0.16824095
32	0x3d931185	0.07181076
33	0xbc48c1f2	-0.012253271
34	0x3e6ab8f5	0.22922118
35	0x3d2a5893	0.041588377
36	0x3d4ac6de	0.04950606
37	0x3d5251ea	0.05134765
38	0x3e762bf9	0.24040212
39	0xbbb4b21a	-0.0055143954
40	0x3df86bef	0.12129962
41	0x3e59bb71	0.2126291
42	0xbe139f00	-0.14416122
43	0xbd3a348c	-0.04546027
44	0xbd2fde76	-0.042936765
45	0xbd6fed88	-0.058576137
46	0x3e1f4026	0.15551814
47	0xbdd5f292	-0.10446657
48	0xbdb0163e	-0.08597992
49	0x3e4003ff	0.18751524
50	0xbe5ef6b6	-0.217738
51	0x3e4df96c	0.20114678
52	0x3e6c8a12	0.23099545
53	0x3e1bf08a	0.15228477
54	0xbe643350	-0.22285199
55	0x3cd68240	0.026185155
56	0xbcd5d8e5	-0.0261044
57	0x3b1e21ce	0.0024129036
58	0x3e132b6c	0.14372033
59	0xbce3142c	-0.02771958
60	0xbe75c526	-0.24000987
61	0x3d18464f	0.037176427
62	0x3e3a345f	0.1818404
63	0xbe777e4f	-0.24169277

weight f4 [4, 16]
0	0xbe018220	-0.12647295
1	0x3da65d0f	0.08123218
2	0x3e108882	0.14114574
3	0x3e0ea6f7	0.1393088
4	0xbdb93f43	-0.09045269
5	0xbe3db668	-0.18526614
6	0x3e4583f1	0.19288613
7	0x3c9237d4	0.017848887
8	0x3e16a530	0.14711452
9	0x3d414c84	0.04719211
10	0xbd1883b1	-0.037234966
11	0xbe3960a8	-0.18103278
12	0x3e09fa6a	0.13474432
13	0x3de5ade8	0.112148106
14	0x3dd19538	0.10233539
15	0xbdbae056	-0.0912482
16	0x3e199e48	0.15001786
17	0x3e25dc73	0.16197376
18	0xbd8b3573	-0.06797304
19	0xbe3c9588	-0.18416417
20	0xbe623cdf	-0.22093533
21	0x3d17e889	0.037086997
22	0xbe3dcb39	-0.18534555
23	0x3e1a2c35	0.15055926
24	0xbe00af1f	-0.12566803
25	0xbd450f5e	-0.04811036
26	0x3cec9c70	0.028883189
27	0xbe3940c4	-0.18091112
28	0x3e67258e	0.2257292
29	0x3d1a5149	0.037675176
30	0x3b9fda6b	0.0048783324
31	0xbc9066c9	-0.017627137
32	0xbe578049	-0.2104503
33	0xbdfcf69a	-0.12351723
34	0x3dca6f2c	0.098844856
35	0xbe640de9	-0.22270931
36	0x3de92119	0.11383266
37	0xbda50c14	-0.08058944
38	0x3e027eec	0.1274373
39	0x3e55683a	0.2084054
40	0xbe08baff	-0.13352583
41	0xbdbedc6e	-0.093193874
42	0x3dcbd157	0.09952038
43	0x3e28ba47	0.16477309
44	0xbdfdcf5a	-0.12393065
45	0x3e5b406e	0.21411297
46	0x3e13a632	0.14418867
47	0xbd67fa50	-0.0566352
48	0xbd654272	-0.05597157
49	0x3e00de46	0.1258479
50	0xbcec5a04	-0.028851517
51	0x3d9d4ff8	0.076812685
52	0x3e5e5281	0.2171116
53	0x3d07fd5e	0.033200614
54	0x3e0fa787	0.1402875
55	0x3e31dbc2	0.17368987
56	0x3e1b7f9b	0.15185396
57	0xbdf50c74	-0.11965266
58	0xbe445e78	-0.19176662
59	0xbb8f2252	-0.004368105
60	0x3d296b4b	0.04136209
61	0x3d8385b5	0.06421987
62	0xbe0d7a97	-0.13816296
63	0x3e13225e	0.14368579

weight f4 [16, 16]
0	0x3df15692	0.1178409
1	0x3bf23e17	0.0073926556
2	0x3e519f2b	0.20470874
3	0xbdb0133c	-0.08597419
4	0x3cf98a6d	0.030461514
5	0x3d227b9b	0.03966866
6	0x3e52192b	0.20517413
7	0x3e4d894f	0.2007191
8	0xbe2ca01c	-0.16857952
9	0x3e36ace0	0.17839384
10	0xbe1ba5bf	-0.15199946
11	0xbe145718	-0.14486349
12	0x3e0f3c80	0.13987923
13	0xbe527177	-0.20551096
14	0x3c37dc4b	0.0112219555
15	0xbe4febcf	-0.20304798
16	0xbe83cb9a	-0.25741273
17	0x3d79656c	0.06088774
18	0xbc67faf8	-0.014158957
19	0x3c4a5176	0.012348523
20	0x3e26f58f	0.1630461
21	0x3e1ae4e7	0.15126382
22	0x3e3ca307	0.18421565
23	0xbe020390	-0.12696671
24	0x3bced3ae	0.0063118553
25	0xbe5b898e	-0.21439192
26	0x3de71c7e	0.11284731
27	0x3cdae4bc	0.026720397
28	0x3c226700	0.009912252
29	0xbe0e636c	-0.13905114
30	0x3d805929	0.06267006
31	0x3e4df5cd	0.20113297
32	0x3e27eaa9	0.1639811
33	0xbe13b17e	-0.14423177
34	0xbd5142d5	-0.051089127
35	0x3d46f472	0.048572965
36	0xbda3cf6c	-0.07998547
37	0xbdcbc988	-0.099505484
38	0xbcb42d02	-0.021994118
39	0xbd3e877d	-0.04651593
40	0x3d4890a8	0.04896608
41	0x3dad0224	0.08447674
42	0x3e6e0c4e	0.23246881
43	0xbcc3ba1d	-0.023892457
44	0xbdc4af6d	-0.09603772
45	0x3d8abb8b	0.06774052
46	0x3e79711c	0.24359554
47	0xbd00e5ce	-0.03146916
48	0x3c2de485	0.010613565
49	0xbde0d4ea	-0.1097811
50	0xbcfdaed7	-0.03096716
51	0xbcc91185	-0.024544487
52	0xbe3a4de5	-0.18193777
53	0xbe19e86f	-0.15030073
54	0x3e63f4f2	0.22261408
55	0x3d7031d8	0.058641285
56	0x3e2413b1	0.16023137
57	0xbe0084f0	-0.12550712
58	0xbe3d50d1	-0.1848786
59	0xbe3673a0	-0.17817545
60	0x3dd79ff5	0.10528556
61	0xbe197cf3	-0.1498907
62	0xbe6199e5	-0.22031362
63	0xbe01cff6	-0.12676987
64	0x3c92f25d	0.017937833
65	0xbd711a5e	-0.058863036
66	0x3e38d5ca	0.18050304
67	0x3e746160	0.2386527
68	0x3e57bca1	0.2106805
69	0xbe8e19b2	-0.2775398
70	0x3d942922	0.07234408
71	0xbda42a9e	-0.08015941
72	0x3ddcfdd4	0.107906014
73	0xbe76aad7	-0.24088608
74	0x3d80af87	0.06283479
75	0xbe00c07b	-0.12573425
76	0x3df54202	0.119754806
77	0xbddd1408	-0.10794836
78	0xbd037103	-0.0320902
79	0x3d804313	0.062627934
80	0xbe326137	-0.17419897
81	0xbe6505ca	-0.2236549
82	0xbe26d6b0	-0.16292834
83	0xbd55f257	-0.052233066
84	0x3d4977f2	0.049186654
85	0xbe3c68ec	-0.183994
86	0x3d97c9d1	0.0741154
87	0xbc43bd3b	-0.0119469715
88	0xbe6a6f2e	-0.22893974
89	0x3e5ec92c	0.21756428
90	0x3d8eebe3	0.069785856
91	0x3e686ec8	0.2269851
92	0xbe65becd	-0.22436066
93	0xbe3368c4	-0.17520434
94	0x3c6b2d05	0.014353995
95	0x3dc39f89	0.09551913
96	0x3ddbdada	0.10735102
97	0x3e44c1db	0.19214575
98	0xbe5f25b3	-0.21791725
99	0x3d0910ad	0.03346317
100	0x3cb77a0f	0.02239707
101	0x3d755d19	0.059903238
102	0xbdc837e5	-0.09776286
103	0xbe490e91	-0.19634463
104	0x3e56c58f	0.209738
105	0x3e38d639	0.1805047
106	0x3e684fc8	0.22686684
107	0xbe18416f	-0.14868711
108	0x3dfe80f6	0.12426941
109	0x3dcf0bfa	0.10109706
110	0xbdeb4227	-0.11487227
111	0x3d9d3441	0.07675982
112	0x3e36e7c9	0.17861857
113	0xbe7b9c97	-0.24571453
114	0x3d6679de	0.056268565
115	0xbdb0e456	-0.086373016
116	0x3dc4def3	0.09612837
117	0x3e7fea7e	0.24991795
118	0xbd5a8c5c	-0.053356513
119	0x3e302b63	0.1720405
120	0xbe2ef059	-0.17083873
121	0x3e377ed4	0.17919475
122	0xbe203953	-0.15646867
123	0xbe71922b	-0.23590915
124	0xbd61abb5	-0.055095393
125	0x38739618	5.80755e-05
126	0xbb89c563	-0.0042044385
127	0xbd212a1c	-0.0393468
128	0x3e501ce8	0.20323527
129	0xbe504972	-0.20340517
130	0xbdd784f6	-0.10523407
131	0xbde02793	-0.10945048
132	0xbe2461ca	-0.16052929
133	0xbdbf0dd9	-0.09328813
134	0x3e3a977a	0.18221846
135	0xbd2dd70c	-0.042441413
136	0xbcce57c3	-0.025188332
137	0x3da9ae2e	0.08285175
138	0x3e1b30f2	0.1515539
139	0x3de723a1	0.112860925
140	0xbd28b877	-0.041191544
141	0xbe0a4c1b	-0.13505594
142	0x3d9065cd	0.07050667
143	0xbe436ac2	-0.19083694
144	0xbe22769b	-0.15865557
145	0x3e3c9053	0.1841443
146	0xbdbd4924	-0.09242466
147	0x3d878408	0.0661698
148	0xbe58705d	-0.21136613
149	0x3e4c215a	0.19934598
150	0x3cd2a196	0.025711816
151	0x3dcf937d	0.10135553
152	0xbe669759	-0.22518672
153	0x3e1ebd06	0.15501794
154	0x3e358815	0.17727692
155	0xbe7620f9	-0.24036016
156	0x3e1810a7	0.14850102
157	0xbe16aafc	-0.14713663
158	0xbe35ecff	-0.17766188
159	0xbd9b29a5	-0.075763024
160	0x3e472757	0.194486
161	0x3d745d59	0.059659336
162	0xbdf707bf	-0.12062024
163	0x3e02f0fe	0.12787244
164	0xbe174b08	-0.14774716
165	0xbe5b8d4d	-0.2144062
166	0xbe20b747	-0.15694915
167	0x3e4267de	0.18984935
168	0x3e34ad45	0.17644222
169	0xbd8e58e9	-0.06950552
170	0x3e06968e	0.1314337
171	0x3d3b32d6	0.045702778
172	0xbe22118c	-0.15827006
173	0x3e1f1f68	0.15539324
174	0xbe3206bc	-0.17385381
175	0x3e553332	0.2082031
176	0xbe70eb51	-0.23527266
177	0xbe4bccd2	-0.19902351
178	0x3d800fa7	0.062529854
179	0x3da3fd28	0.0800727
180	0xbc0ea790	-0.008706942
181	0xbe0d7118	-0.13812673
182	0x3d88ff68	0.0668934
183	0x3cd63ede	0.026153024
184	0x3e1b5bf4	0.15171796
185	0xbe3c7490	-0.1840384
186	0xbe30be21	-0.17260028
187	0x3e3532a9	0.17695107
188	0xbd7cf6f2	-0.061758943
189	0x3dc794fb	0.09745213
190	0x3d0ff9cb	0.03515033
191	0x3d94185d	0.072312094
192	0xbde6b6d2	-0.11265339
193	0x3d0fca9d	0.035105336
194	0xbd9771b2	-0.073947325
195	0xbe1a3bf1	-0.15061928
196	0x3de81352	0.1133181
197	0xbe4cc8b9	-0.19998445
198	0x3e0c780c	0.13717669
199	0xbcadc033	-0.021209812
200	0x3d34965e	0.044088714
201	0x3e15ace1	0.1461673
202	0x3d1f79a3	0.03893436
203	0xbe05c299	-0.13062514
204	0x3dec9ea0	0.11553693
205	0x3e15451a	0.14577141
206	0xbd536be4	-0.051616564
207	0x3e453bee	0.19261143
208	0x3d5eac9f	0.054363843
209	0xbe2c153c	-0.16804975
210	0xbc36fb2f	-0.011168285
211	0xbd4dc05c	-0.050232276
212	0x3e42f898	0.19040143
213	0x3e308094	0.17236549
214	0xbde37404	-0.111061126
215	0x3d369994	0.044580057
216	0x3e288383	0.16456418
217	0xbe4e1da9	-0.20128502
218	0xbe3dd45d	-0.18538041
219	0xbe8bef17	-0.2733085
220	0xbd400300	-0.04687786
221	0x3e5e3eff	0.21703719
222	0xbe309cda	-0.17247334
223	0x3baba178	0.0052377544
224	0xbe21305b	-0.15741102
225	0xbdfe2a6d	-0.12410436
226	0xbd97a2b6	-0.074040815
227	0xbbe31070	-0.0069294497
228	0x3d962f01	0.07333184
229	0xbe4100c1	-0.18847944
230	0xbdcb682e	-0.0993198
231	0xbe3f9e61	-0.1871276
232	0xbe4ab2fa	-0.19794837
233	0xbe407223	-0.1879354
234	0x3e043848	0.12912095
235	0xbe1d97a2	-0.15389875
236	0x3de9112a	0.11380227
237	0x3d5a3ca7	0.0532805
238	0x3e5573f1	0.2084501
239	0x3bd7bd89	0.0065838736
240	0xbe1fe4a9	-0.1561457
241	0x3e101d12	0.1407359
242	0x3b4753f5	0.0030415033
243	0x3d399751	0.045310322
244	0xbda76899	-0.08174247
245	0x3e3120b8	0.17297637
246	0xbdbfb056	-0.09359805
247	0xbe229a04	-0.15879065
248	0x3dc4d1ab	0.096103035
249	0xbbe54ccc	-0.0069976803
250	0x3e3a1486	0.18171892
251	0xbdaa2a2e	-0.083088264
252	0x3d13106d	0.035904337
253	0x3d4e0d5e	0.050305717
254	0x3dcebff0	0.10095203
255	0xbdfbf04a	-0.12301691

bias f4 [16]
0	0xbe123bfa	-0.14280692
1	0xbe453154	-0.19257098
2	0xbe4a3877	-0.19748102
3	0xbde6ccc2	-0.11269523
4	0x3c8448b6	0.016147953
5	0xbe68bd9a	-0.22728577
6	0x3d33bbe5	0.043880362
7	0xbe0250fa	-0.12726203
8	0xbe08ed41	-0.13371755
9	0xbe0e108a	-0.13873497
10	0xbe42b057	-0.19012581
11	0x3e415570	0.18880248
12	0xbd15e2c5	-0.036593217
13	0x3b60f1e8	0.0034323875
14	0xbddb42a3	-0.10706069
15	0xbd787f57	-0.060668316

weight f4 [64, 16]
0	0x3c73d1f0	0.014881596
1	0x3d0fab0f	0.035075244
2	0xbbb0fef3	-0.005401486
3	0x3d884569	0.06653864
4	0xbe452b93	-0.19254903
5	0xbde662e0	-0.11249328
6	0x3d8247ba	0.06361337
7	0x3dcfd4c1	0.101480015
8	0xbe76f209	-0.24115767
9	0x3d1bad77	0.038007226
10	0xbe0c007e	-0.13672063
11	0x3e1e3b35	0.15452273
12	0x3e21517f	0.15753745
13	0x3d39a00e	0.045318656
14	0xbd24ce8c	-0.04023604
15	0xbd34bf20	-0.044127584
16	0xbd6c5d3a	-0.057706095
17	0xbe543547	-0.20723449
18	0xbe381972	-0.17978457
19	0xbe730844	-0.23733622
20	0x3e2e73f8	0.17036426
21	0xbda72a53	-0.081623696
22	0x3deaab5d	0.11458466
23	0x3c9b1dc5	0.018935094
24	0xbe554f3f	-0.20831011
25	0xbe5265ae	-0.205466
26	0xbe77f8c2	-0.24215987
27	0x3da85ccd	0.08220825
28	0xbb9a7d83	-0.004714669
29	0xbe7b829d	-0.24561544
30	0x3de1e298	0.110295475
31	0xbe01abff	-0.12663268
32	0xbe6f7aa7	-0.23386632
33	0x3e21c513	0.15797834
34	0xbd9df63f	-0.07712983
35	0x3db4a3f3	0.08820333
36	0xbdcd4900	-0.10023689
37	0xbe44d15b	-0.19220488
38	0xbd862da6	-0.065516755
39	0xbd2ca9ee	-0.042154245
40	0x3dc4df29	0.09612877
41	0x3e37208a	0.17883506
42	0x3e3546e6	0.17702827
43	0xbe3b8be3	-0.18315081
44	0x3e80864c	0.2510246
45	0x3c538b84	0.012911681
46	0xbe02d168	-0.12775195
47	0xbe2a04fe	-0.16603467
48	0x3e2c55cc	0.16829604
49	0x3e0ddb57	0.13853203
50	0xbc3cb371	-0.011517392
51	0xbe3eea90	-0.18644166
52	0xbdae3b91	-0.08507455
53	0xbd3c3272	-0.045946546
54	0x3e5031f4	0.20331556
55	0x3dc3bed7	0.09557884
56	0x3dda0dae	0.106471404
57	0xbd754ac5	-0.05988576
58	0xbd746ace	-0.05967217
59	0x3e6f456c	0.23366326
60	0x3e764a62	0.24051812
61	0xbca78b76	-0.020452242
62	0xbe1ffc16	-0.15623507
63	0xbdfb7971	-0.122790225
64	0xbdd28805	-0.1027985
65	0x3e46350c	0.19356173
66	0xbd6a234d	-0.05716257
67	0x3d9c087a	0.07618804
68	0x3de3930d	0.11112032
69	0x3d6ab9f0	0.05730623
70	0xbe38512b	-0.17999713
71	0x3e3565e5	0.17714651
72	0x3e626cbd	0.22111793
73	0xbe12e18f	-0.14343856
74	0x3e270c82	0.16313365
75	0xbdc26ade	-0.094930395
76	0xbdb5a109	-0.08868606
77	0x3e841460	0.25796795
78	0x3e421b19	0.1895565
79	0xbe48276f	-0.19546293
80	0xbe66d965	-0.22543867
81	0xbe617b00	-0.22019577
82	0xbd5d8498	-0.05408153
83	0x3e097315	0.13422807
84	0xbdb8f576	-0.09031193
85	0x3e3a9ec5	0.18224628
86	0xbe588f0a	-0.21148315
87	0xbdd33191	-0.103121884
88	0xbda69a92	-0.08134951
89	0x3e0e52df	0.138988
90	0xbd5a0e12	-0.053236075
91	0x3e29687b	0.16543762
92	0xbd1de851	-0.038551632
93	0xbe2691e8	-0.16266596
94	0x3dc99a86	0.09843926
95	0xbde9d284	-0.11417106
96	0xbe0a29c9	-0.13492502
97	0x3d1abd4a	0.037778176
98	0xbe20a8f7	-0.15689455
99	0xbe3fff39	-0.18749703
100	0x3e609760	0.21932745
101	0xbc5ab245	-0.013348167
102	0xbe1d141d	-0.15339704
103	0xbc18d9d2	-0.009329276
104	0xbdd28f3d	-0.10281227
105	0xbe35cbee	-0.17753574
106	0x3e4197ac	0.18905514
107	0x3d7803b4	0.060550407
108	0x3e1dda71	0.1541536
109	0x3e171652	0.14754608
110	0x3e37926b	0.17926948
111	0xbaf4b44e	-0.0018669458
112	0x3e63d37b	0.22248642
113	0xbdcc97cf	-0.09989893
114	0xbb3e0914	-0.002899711
115	0x3e86aff6	0.26306123
116	0x3e1c94db	0.15291159
117	0x3e600940	0.21878529
118	0xbe3378c8	-0.17526543
119	0x3e28686c	0.16446084
120	0xbdfbb771	-0.12290848
121	0x3e848a77	0.2588689
122	0x3e56781d	0.20944257
123	0x3e416170	0.18884826
124	0x3df1d5a2	0.11808325
125	0xbcb1c195	-0.021698752
126	0xbe1a702a	-0.1508185
127	0x3d88b501	0.06675149
128	0x3e5df28d	0.21674557
129	0xbe91246d	-0.28348103
130	0xbd24264a	-0.040075578
131	0xbdf5323b	-0.11972471
132	0x3d46766b	0.048452776
133	0x3e440448	0.19142258
134	0xbb51fe72	-0.003204253
135	0xbcf787fe	-0.030216213
136	0x3cb2414d	0.021759653
137	0x3e6869a7	0.22696553
138	0xbd08a261	-0.03335798
139	0x3e21fda2	0.1581941
140	0xbe27cfcd	-0.16387863
141	0xbd6aac62	-0.057293303
142	0x3d9aa50b	0.07551011
143	0x3e24f515	0.16109116
144	0x3e2088b5	0.1567715
145	0xbe41037f	-0.1884899
146	0x3e0c38cd	0.13693543
147	0x3db6e0cb	0.089295946
148	0xbe4605f7	-0.19338213
149	0xbd17dac5	-0.03707387
150	0xbe80d7f5	-0.25164762
151	0xbe6fda5d	-0.23423143
152	0xbe08e88c	-0.1336996
153	0xbdef8b73	-0.1169652
154	0x3dcc0686	0.09962182
155	0x3e02d792	0.12777546
156	0x3d0dd4a5	0.03462662
157	0x3e0faaa6	0.14029941
158	0x3e7b10b6	0.24518093
159	0xbe6e8417	-0.23292576
160	0xbe8fca12	-0.28083855
161	0x3d3993a0	0.0453068
162	0xbe5ef351	-0.21772505
163	0x3d951fe8	0.07281476
164	0x3dd9486c	0.106095165
165	0xbda2c85a	-0.0794837
166	0xbda5e05e	-0.08099435
167	0xbe31c5cd	-0.17360611
168	0x3dfc725c	0.123265
169	0x3e84456a	0.2583421
170	0x3e55a05e	0.20861956
171	0x3d36f908	0.04467109
172	0x3d89e568	0.06733209
173	0x3cd4da60	0.025983036
174	0x3dd726bb	0.10505434
175	0x3e0989b9	0.13431443
176	0xbdf8bf68	-0.12145883
177	0xbe49ff3d	-0.19726272
178	0x3e5f87c0	0.21829128
179	0x3e91486d	0.2837557
180	0xbe67b169	-0.2262627
181	0xbe758716	-0.23977312
182	0x3e06c14f	0.13159679
183	0x3e25760b	0.16158311
184	0x3e621cea	0.22081342
185	0x3dd13f23	0.102171205
186	0xbe488570	-0.19582152
187	0xbd82deee	-0.06390177
188	0xbcdc3ef2	-0.026885483
189	0x3d10290f	0.035195407
190	0xbdcfca83	-0.10146048
191	0xbe65f03c	-0.22454923
192	0x3e24d4c0	0.16096783
193	0xbe06cdbb	-0.13164417
194	0x3e8bd29a	0.27309114
195	0x3e29a2cf	0.16566013
196	0xbd8eaf57	-0.06967037
197	0x3e2e243a	0.17006007
198	0x3c8cb843	0.017177707
199	0xbe1c2be2	-0.15251115
200	0xbe14fe60	-0.14550161
201	0x3cd55e1a	0.026045848
202	0x3e2b15f7	0.16707598
203	0xbe640d0c	-0.22270602
204	0x3d8cc6c0	0.06873846
205	0xbcf369aa	-0.02971347
206	0xbdc01f1d	-0.093809344
207	0x3e8c047e	0.27347177
208	0x3e0043be	0.12525842
209	0xbcc4e219	-0.024033593
210	0xbdbf58c0	-0.093430996
211	0x3e1776ef	0.14791463
212	0x3d9a14c2	0.075234905
213	0xbc035137	-0.008014969
214	0xbdaba2b3	-0.08380642
215	0x3e54fd1f	0.20799683
216	0xbde16bb6	-0.11006872
217	0xbe2c4b92	-0.16825703
218	0xbe2d2b08	-0.16910946
219	0xbdfc0e32	-0.12307395
220	0x3e0d5416	0.13801607
221	0xbe7212a6	-0.23639926
222	0x3ca3dc8b	0.020002624
223	0xbd93a68b	-0.072095
224	0x3e216e85	0.15764816
225	0x3c89ac00	0.016805649
226	0x3e6aca9f	0.22928856
227	0xbe098253	-0.13428621
228	0xbdb239d4	-0.08702436
229	0x3e0e55fb	0.13899986
230	0xbe0c0208	-0.1367265
231	0xbe3c157f	-0.18367575
232	0x3d96fbd4	0.07372251
233	0xbe7de2a8	-0.24793494
234	0x3d1d1334	0.03834839
235	0xbd090efc	-0.033461556
236	0x3e137c63	0.14402919
237	0x3e026cc6	0.12736806
238	0x3e848409	0.25881985
239	0x3d90596b	0.07048305
240	0xbe6ec583	-0.23317532
241	0xbe352766	-0.1769081
242	0x3e4d16e4	0.20028263
243	0x3e2bf02e	0.1679084
244	0x3e61beeb	0.22045486
245	0x3da46d72	0.080286875
246	0xbd3e6614	-0.046484068
247	0x3d754028	0.059875637
248	0xbdd56301	-0.10419274
249	0xbc7324e9	-0.014840343
250	0x3ddd7402	0.10813142
251	0xbe411bf2	-0.18858317
252	0xbca5ea2d	-0.020253265
253	0xbe1de1a7	-0.15418111
254	0x3d2f4be1	0.042796973
255	0xbe6cfac0	-0.23142529

bias f4 [64]
0	0x3e63f2f6	0.22260651
1	0xbe654e8f	-0.22393249
2	0x3e4ddf52	0.20104721
3	0x3e0c535e	0.13703677
4	0x3d126719	0.035742853
5	0xbddd7611	-0.10813535
6	0xbd90a349	-0.07062394
7	0xbc92f3da	-0.017938543
8	0x3e7243b2	0.23658636
9	0xbc3ee719	-0.011651778
10	0xbd82c890	-0.063859105
11	0xbe456e19	-0.1928028
12	0xbe4ef2aa	-0.20209756
13	0x3e09bcc4	0.13450915
14	0xbdde2bd3	-0.108482026
15	0xbdc53a08	-0.09630209
16	0x3e5b41c5	0.21411808
17	0xbe032adb	-0.12809317
18	0x3da266c5	0.07929758
19	0x3dd2e9cb	0.10298499
20	0x3e4bab07	0.1988946
21	0x3d73e443	0.05954386
22	0x3dfc7a26	0.123279855
23	0x3d68769e	0.056753747
24	0x3e3f0d30	0.18657374
25	0xbe275dce	-0.16344377
26	0xbdc10fc3	-0.094268344
27	0x3dcaf0db	0.09909221
28	0x3e655738	0.22396553
29	0x3d0a68a2	0.033791192
30	0xbcfa09ab	-0.030522188
31	0x3e0ee561	0.13954689
32	0x3d6b5d38	0.057461947
33	0x3d32a818	0.043617338
34	0x3d884f40	0.06655741
35	0xbded6d18	-0.115930736
36	0x3da2eda4	0.079554826
37	0xbe1233cb	-0.1427757
38	0xbdbb2b52	-0.09139122
39	0xbda0287b	-0.07820221
40	0xbe415bf1	-0.18882729
41	0xbbb5725c	-0.0055373143
42	0xbe475416	-0.1946567
43	0x3e5f17bf	0.21786402
44	0xbe5f1464	-0.21785122
45	0x3e0e2ba6	0.13883838
46	0xbd82d179	-0.0638761
47	0x3e3de776	0.18545327
48	0x3dd37976	0.10325901
49	0x3df21ebd	0.11822269
50	0x3e35f7b3	0.17770271
51	0xbe3d85e0	-0.185081
52	0xbd0137f0	-0.031547487
53	0xb9ef440e	-0.00045636337
54	0xbe1dcee6	-0.15410957
55	0x3e5c7613	0.21529417
56	0xbcb4db45	-0.022077212
57	0xbdb9b67c	-0.09068009
58	0x3e80da82	0.25166708
59	0xbe3f46f3	-0.18679409
60	0xbe2a7e9b	-0.16649859
61	0x3e24a264	0.16077572
62	0xbe19c23a	-0.15015498
63	0x3e0a4b6c	0.13505334
