model/final_model_340486.pth (torch, 170278 bytes, 136 tensors)

weight f4 [14, 16]
000000 30 ea 45 be 39 57 d5 3e 39 0a 18 bf 1b 3e 01 3e
       -0.19327617 0.41668108 -0.593906 0.12621348
000010 0c 4b 4c bf 75 85 80 3f 75 03 33 3e 20 eb 8d be
       -0.7980201 1.0040728 0.17481788 -0.2771845
000020 6e 1c a8 bd d0 28 50 3f c7 9d 02 3e d6 49 d4 be
       -0.082085475 0.81312275 0.127555 -0.41462582
000030 66 e8 55 bf 4f 41 21 3f 8e 9a 31 3e 35 b6 8b 3f
       -0.83557737 0.6299028 0.17344114 1.091498
000040 67 a4 f6 b9 68 eb cd 3e b8 d8 a3 3f 63 2c 03 3f
       -0.00047043266 0.40218663 1.2800512 0.51239604
000050 17 b1 c7 bf 99 ec e7 be 10 93 df be 1d 7a 31 be
       -1.5600919 -0.45297697 -0.43666887 -0.17331739
000060 0c d7 88 be 2c e7 cb 3d 43 53 16 3e 7c f4 f3 3e
       -0.26726568 0.09956202 0.146802 0.47647464
000070 45 ec 06 be 62 f4 4b 3f df 53 2e 3d d8 45 06 3f
       -0.13176067 0.79669774 0.042560454 0.52450323
000080 da 7f 3a bf 73 83 7e 3f 72 4a a8 bf df bc 30 be
       -0.72851336 0.99419326 -1.3147719 -0.17259549
000090 91 7e 96 3f cd b4 b6 3f e1 45 58 be 2d c5 e0 be
       1.1757375 1.4273926 -0.21120407 -0.43900433
0000a0 a1 3c de be 98 ae 92 3f 8e 08 e7 3f 43 cb 8c bf
       -0.4340563 1.1459532 1.8049486 -1.099953
0000b0 65 31 79 3f 4d 3c ab be e1 6a 86 bf 72 45 8e 3e
       0.97340995 -0.33444443 -1.0501367 0.27787358
0000c0 20 b2 ea 3d 5f 26 fb 3e 6d 40 63 be 97 3c 77 3e
       0.11459756 0.49052712 -0.22192545 0.24144207
0000d0 1f 35 4c 3e 1d d3 66 bf f7 e6 6a bd de 01 42 bf
       0.19942139 -0.90165883 -0.05734917 -0.757841
0000e0 a2 a3 1c bd 4d a9 78 3d 11 80 38 3e c1 1f 36 bf
       -0.03824199 0.060708333 0.18017603 -0.711422
0000f0 59 d4 a7 3e 73 eb 9c 3f 94 9c 9d bf 80 c9 1a bf
       0.32779196 1.2259353 -1.2313409 -0.60463715
000100 7b ac 75 3f df 95 cb be df 6c 3c 3f d6 17 97 bc
       0.9596631 -0.3976278 0.73603624 -0.018443983
000110 33 a6 9d 3d d1 75 8f be 5c 45 eb be 5d cf 0d be
       0.076977156 -0.28019574 -0.45951355 -0.13848634
000120 07 01 1c 3f 4a 74 ba 3e de f6 89 bc 6a 20 ab be
       0.6093907 0.36416847 -0.016841348 -0.33423167
000130 e8 29 04 bf 04 76 59 3e 37 6a 3e bd 73 16 06 bf
       -0.51626444 0.21236426 -0.046488013 -0.52378005
000140 95 d9 c4 be a1 bd 0f bf 3b 12 ae bf 41 84 a6 be
       -0.38447252 -0.56148726 -1.3599313 -0.32522777
000150 56 d2 e0 be dc 22 8d 3f d3 e3 a7 be 93 ba 00 3f
       -0.43910474 1.1026263 -0.32791004 0.5028469
000160 1e 3c 8e 3f 99 66 72 bf 6d 53 ec 3e b3 b4 2b 3e
       1.1112096 -0.946878 0.461574 0.1676815
000170 88 18 4e 3f 21 a1 d3 be 4b 30 b4 3f fe 1f 24 bb
       0.8050618 -0.4133387 1.4077238 -0.0025043483
000180 66 a9 03 bf 4f 7c 88 bc 1b 8f 0b 40 af 88 1e 3f
       -0.51430357 -0.016660837 2.1806095 0.6192731
000190 df 14 ba 3d 30 89 39 bc 72 f9 00 bf e7 3a f6 3f
       0.09086012 -0.011324212 -0.50380623 1.9236726
0001a0 ab 22 07 3f fd b0 8f be 32 64 44 3e 7e ed 8d 36
       0.52787274 -0.2806472 0.19178846 4.229775e-06
0001b0 11 ba 40 3d 5c 4e a2 be b7 de 80 3f 4f 57 98 3f
       0.047052447 -0.31700408 1.0067967 1.1901644
0001c0 85 3d 80 3f a8 a6 34 3f 25 aa f8 be 23 eb 96 bd
       1.0018774 0.705668 -0.4856731 -0.073690675
0001d0 d7 9e 74 3e 21 c1 9d 3e 06 a8 b5 be e2 80 e0 3f
       0.23888718 0.30811408 -0.35479754 1.7539332
0001e0 49 b3 d9 bd 8b 24 38 bf 8e 3e 0a 3f e7 5e 2b 3d
       -0.10629899 -0.7193076 0.540017 0.041838553
0001f0 2d 52 96 3d d0 89 cd be 1c f3 4f 3f 42 cb 8d 3f
       0.073398925 -0.40144205 0.8123033 1.1077654
000200 0c ef 39 bd ec b7 b5 bf 65 37 a8 be 5e cb b4 3e
       -0.04539399 -1.4196754 -0.32854763 0.35311407
000210 14 f5 ce be 6e fb 0d 3f 4e be dc 3e 05 c5 a0 bf
       -0.40421355 0.55461776 0.4311394 -1.2560126
000220 d3 e8 10 bf 48 5b 25 be 64 f5 1f bf d7 e0 35 bf
       -0.5660526 -0.16148102 -0.6248381 -0.71046203
000230 72 8e 02 bf 5d ca 8c bf 2e 43 20 3f 62 0c 51 3e
       -0.50998604 -1.0999256 0.6260251 0.2041488
000240 30 dc 3c bf dc bb 9e bf c7 76 8f 3f d4 4d 51 bd
       -0.7377348 -1.240108 1.1208123 -0.051099613
000250 e9 8c 26 be bb 06 68 3f 27 cb 35 3d 33 62 67 3f
       -0.1626469 0.9063527 0.044383194 0.90384215
000260 11 03 8d bf 16 d7 cb be 88 26 04 bf 76 54 b0 be
       -1.1016561 -0.39812535 -0.51621294 -0.3443944
000270 dd bd a3 bf 33 1f e1 bd c6 4e d4 3e ed a1 dc 3f
       -1.2792317 -0.10992279 0.4146635 1.7236916
000280 15 8a 15 bf c8 99 81 bf fe ae 01 bb c2 a2 dd 3f
       -0.5841382 -1.0125055 -0.0019788141 1.7315295
000290 ba a7 06 3d 80 bc 89 bf ee a5 4f 3f de 9f ba bf
       0.0328748 -1.0760651 0.81112564 -1.4580038
0002a0 17 83 35 bf 03 c5 38 3f 33 ab 91 be 16 2f 03 3c
       -0.7090315 0.72175616 -0.28450927 0.008006832
0002b0 e9 ec 3d bf 2e 3d 59 3f fc c5 d0 bf 4d c1 2d 3f
       -0.7418962 0.8485898 -1.631042 0.6787308
0002c0 ce 12 52 3f 29 33 1f 3c 33 1d 78 bf bc 07 8d 3e
       0.82059944 0.009716787 -0.96919554 0.27544963
0002d0 68 d6 df be 4f 24 d1 bf ad 6d f8 3e 4a c0 7a 3f
       -0.43718266 -1.6339206 0.48521176 0.9794966
0002e0 41 bc 95 bf 73 af d2 bd a4 12 1e bf 71 71 bd be
       -1.1698076 -0.102873705 -0.61747193 -0.3700061
0002f0 82 4a b0 be 42 6b 02 3d e0 cd 50 bf e4 26 a7 bd
       -0.34431845 0.03184057 -0.8156414 -0.08161715
000300 3c d2 d3 3b 62 96 5f bf 7a bf 12 bf 41 71 a2 3e
       0.006464271 -0.8733884 -0.5732342 0.3172703
000310 e1 ea 35 3e 5e b7 35 bf cd 03 a3 3f c9 0e 05 bf
       0.1776538 -0.7098292 1.2735535 -0.51975685
000320 14 3b 2a 3e 3c 94 70 be 71 e6 ff bf 26 ae 81 be
       0.16624099 -0.23494047 -1.99922 -0.25328177
000330 39 ec a9 bf 6e 54 b0 be 09 60 f5 3e 42 ab 43 3f
       -1.3275214 -0.34439415 0.47924832 0.76433194
000340 44 55 10 3f ce 63 08 3f 78 c1 22 be 18 85 25 be
       0.56380105 0.5327729 -0.15894115 -0.16164052
000350 95 0d 95 3f 60 3a c5 be 11 85 ff be 25 b4 12 3d
       1.164477 -0.385211 -0.4990621 0.03581633
000360 84 32 6d bf e8 ba fe bd b4 0f 3f 3f 43 94 ba 3e
       -0.92655206 -0.12437993 0.74633336 0.3644124
000370 27 30 a9 3e 20 60 c2 3e 80 d6 bd 3e c5 5c 2e 3e
       0.3304455 0.37963963 0.37077713 0.17027576

weight f4 [100, 16]
000000 90 2e ed 3e d5 e2 dd 3e 45 52 b0 bd b2 7f 6c 3f
       0.46324587 0.43337122 -0.08609442 0.9238235
000010 14 d6 69 be 43 62 42 3f 31 4d 7e bc 9c 30 de 3e
       -0.2283557 0.75931185 -0.015521334 0.4339646
000020 17 5e 05 bf 23 35 ec be 88 d5 a3 bf f7 d5 20 3e
       -0.52096695 -0.4613429 -1.279954 0.15706621
000030 1e 4b 92 3e 43 06 05 bd 0e 9f b1 3e 87 2c 09 3f
       0.28572935 -0.032476675 0.34691662 0.5358357
000040 4c a9 45 3f df 3c 5d 3f c9 d2 d6 bd bf c1 24 bf
       0.7721145 0.86421007 -0.10489423 -0.64358133
000050 07 9a 25 bf f3 be de 3d e8 c5 ed 3c fe 2f b3 3f
       -0.6468815 0.108762644 0.029025033 1.3999021
000060 e0 3d bf 3f 6c 58 07 3e 00 97 8c bf 60 bd 92 3e
       1.4940758 0.13217324 -1.0983582 0.28660107
000070 84 2e f2 bd 0c a3 8b 3f 0f b3 05 3d 0e 1b 89 be
       -0.118252784 1.0909133 0.032641467 -0.26778454
000080 8b 41 2e be b1 31 1a be 61 2f 50 bf a9 e7 6e 3f
       -0.1701719 -0.15058018 -0.81322294 0.93322235
000090 4c 36 93 3f 11 f4 e4 3e 4f 7d 20 3e 8a db a2 bf
       1.1500945 0.44717458 0.15672801 -1.2723248
0000a0 28 e4 ff bd ba 79 cd 3f 79 b3 19 be c5 a0 02 3f
       -0.12494689 1.6052773 -0.1500987 0.51026565
0000b0 2b 84 26 bf 55 47 71 3e 36 7a 33 3e 8b 73 1c be
       -0.6504542 0.23562367 0.17527089 -0.15278451
0000c0 cd 57 e2 be 9f 2f bc 3e 69 e3 6a be 1f 03 2f be
       -0.44207612 0.36755082 -0.22938313 -0.17091034
0000d0 c9 33 93 3d d5 d3 39 bf eb ed a5 bd 55 53 30 3f
       0.071876116 -0.72588855 -0.0810202 0.68877155
0000e0 cd 3d d9 bd c5 31 1b 3f 5b ef 6e bf a3 39 08 be
       -0.10607491 0.6062282 -0.9333398 -0.13303237
0000f0 c7 fe 70 3f 2b e0 83 3f 25 9e d1 3e 22 77 22 3e
       0.9413876 1.0302786 0.40940967 0.15865758
000100 90 bc 1c 3e cc b0 c1 bf a8 22 e0 be d2 bf 31 bf
       0.15306306 -1.5132079 -0.4377644 -0.6943332
000110 70 fc df be 68 24 05 bf 1f 0b b7 be 20 d8 3c be
       -0.43747282 -0.52008677 -0.35750672 -0.1844182
000120 66 e4 10 3e cd c3 ac be c2 20 45 3e ac c3 82 3f
       0.14149627 -0.33743134 0.19250777 1.0215964
000130 ef 6d 5e bf 04 1f b5 bf 4b 02 4b 3f 72 a0 8e be
       -0.86886495 -1.415009 0.79300374 -0.27856785
000140 d3 8c 4a 3f 9b 5c 25 3d b3 19 92 3e 84 39 83 bf
       0.7912113 0.04037152 0.28535232 -1.0251927
000150 4a 71 05 be 88 0c 75 bf 6e aa 34 3f 14 77 d5 be
       -0.13031498 -0.95722246 0.70572555 -0.41692412
000160 9b 08 ba be 39 10 7d bd 02 41 d9 3e 5a ba a5 be
       -0.3633469 -0.06178305 0.4243241 -0.32368737
000170 ba 87 ec bd 97 db db be 01 6e 70 bf dc 08 ee 3e
       -0.11549325 -0.4294097 -0.9391785 0.46491134
000180 c1 c9 de 3f a3 a2 34 bf 22 2e 1b be a4 28 08 be
       1.740532 -0.70560664 -0.15154317 -0.13296753
000190 54 17 10 3f 7f b5 d2 3e 9e 8e 9e bc 65 fc 3f be
       0.56285596 0.41154096 -0.019355115 -0.18748625
0001a0 7d 81 33 3e 13 28 a9 3e 39 17 c5 3e 64 9c 68 bf
       0.17529865 0.33038387 0.3849428 -0.90863633
0001b0 95 4b d8 3f 11 a0 c3 3f fe 5d 2d bf fd 05 8a 3c
       1.6898066 1.5283223 -0.67721546 0.016848559
0001c0 ba e8 b0 be c8 da 0c 3f 0d f3 5f 3e 93 26 81 3f
       -0.34552556 0.55021334 0.2187006 1.0089897
0001d0 0a aa 0f 3e b3 fa 17 3f 8e 50 b0 3e 55 74 8e be
       0.14029709 0.5936691 0.34436458 -0.2782313
0001e0 28 17 45 3d 4e 20 eb be 7f 43 ee bf 6a a4 06 3e
       0.048117787 -0.45923084 -1.8614348 0.13148656
0001f0 eb 78 85 bf d4 23 3d bf 6f c2 2c 3e 77 9a 21 bf
       -1.0427526 -0.73882794 0.16871046 -0.6312632
000200 79 9a e4 3f 4a 61 31 bf ec 13 8c c0 a2 d9 06 40
       1.7859641 -0.69289076 -4.377432 2.1070333
000210 42 24 3a 3f a4 df c4 bf 0a 17 5e bf 85 09 ef bf
       0.72711575 -1.538075 -0.86753905 -1.867478
000220 ac 58 9b be 74 a6 19 bf 79 d6 c5 bf bd 64 22 40
       -0.3034109 -0.6001961 -1.5456077 2.5373986
000230 dc e2 7e bf 49 80 f4 3f b9 95 a9 3f fb 9b 0b 3e
       -0.9956491 1.910165 1.3248817 0.1363372
000240 90 63 41 bf ed 8a 3b bd 78 3f aa 3e e0 3f 05 bf
       -0.75542545 -0.045786787 0.33251548 -0.5205059
000250 f9 8f 80 3e d1 de 6a 3e 1a 6c 0b 3c 5d 28 f0 3e
       0.25109842 0.2293656 0.00850966 0.46905795
000260 be ec fc be a7 9e 86 bd d1 a4 ee 3e cf a1 bd be
       -0.4939937 -0.06573229 0.4661012 -0.37037513
000270 75 7b b5 be ec 1a b2 3f a8 f7 3c 3f b0 3c 0e 3c
       -0.35445753 1.3914466 0.73815393 0.008681461
000280 f9 43 1a 3f b1 e4 b6 be db 9c 2a 3f 7f d8 95 3f
       0.6025997 -0.35721353 0.6664559 1.1706694
000290 14 d7 af bd a5 ed 04 40 7d d4 3a 3e 40 bd e5 3e
       -0.08585945 2.0770047 0.1824512 0.4487095
0002a0 ce 26 28 bf 54 26 85 3e 45 db ea 3d af 01 82 bf
       -0.6568421 0.26005805 0.114676036 -1.0156764
0002b0 3d b3 88 bf a8 a2 6a bf 25 03 73 3f 0c 53 b8 be
       -1.0679699 -0.91654444 0.94926673 -0.3600086
0002c0 70 6b c8 3c c6 24 54 be 92 32 94 3f c6 38 04 3d
       0.024465293 -0.20717153 1.1577933 0.032280706
0002d0 bc 29 df 3e a2 3e 46 bf 52 44 a6 be 4d 19 8f 3f
       0.43586528 -0.7743932 -0.32474 1.1179596
0002e0 df d4 a6 bf 3e 5e 52 bf 4e ec 1f be 96 42 05 bf
       -1.3033713 -0.8217505 -0.15617487 -0.5205473
0002f0 f6 4b 07 c0 79 4e fa be 82 39 31 3f c1 39 0a bc
       -2.1140113 -0.48887995 0.69228375 -0.008436621
000300 17 2d 8a 3e 6c 64 6d 3f 8d de 36 be 46 52 df 3e
       0.26987526 0.92731357 -0.17858334 0.43617457
000310 e7 fd f7 bd b2 49 51 bf ac f1 8a 3e 42 29 5b bf
       -0.12108975 -0.81753075 0.27137506 -0.8560983
000320 47 7a a9 be 01 17 2c 3f d7 1e 35 40 d7 71 85 bf
       -0.33101103 0.672226 2.8300073 -1.0425366
000330 a7 cf 84 3e 47 40 1f 3f 8d ed b2 3d 9f cc c5 3f
       0.25939676 0.62207454 0.087367155 1.545307
000340 91 f4 bd be ad 8f eb be 5c e6 09 3f 49 d8 14 bf
       -0.37100652 -0.46008053 0.53867126 -0.58142525
000350 7f a3 9a bb 8d 13 e2 3f 72 25 ca 3d e4 bd f9 3e
       -0.0047191973 1.7662216 0.098704234 0.48777688
000360 c7 4c f8 be 3c 88 d2 3f d5 26 77 be 46 02 60 3e
       -0.48496076 1.6447825 -0.24135907 0.21875867
000370 65 35 e7 bf d8 69 cd 3e 70 d1 08 be a7 d7 87 3f
       -1.806317 0.40119815 -0.13361144 1.0612687
000380 92 8e 55 bf 05 c6 a8 bf 19 40 85 3f 67 53 b2 bf
       -0.8342067 -1.3185431 1.0410186 -1.3931702
000390 57 07 5b 3e e5 2d 0c 3f de 3f da be b2 3c da be
       0.21389519 0.5475753 -0.42626852 -0.42624432
0003a0 11 5e a3 bd af a0 0e 3f 28 35 5c 3f 28 c6 c9 bd
       -0.07976926 0.55713934 0.8601861 -0.098522484
0003b0 61 2c 11 bf 8e c1 7a be 61 a9 71 be 03 b2 72 3d
       -0.5670834 -0.24487898 -0.23599769 0.059251796
0003c0 18 bc 84 3f 15 67 aa 3e c2 3e 99 bf 17 d5 34 bf
       1.0369902 0.3328177 -1.1972277 -0.7063765
0003d0 9b 9f 62 bd 77 74 32 3f ce 65 a9 bf 2d 6d f2 be
       -0.055327993 0.6970896 -1.3234193 -0.4734892
0003e0 eb 99 9d 3e f0 21 ad bf d9 ae 9a be de 84 bd 3d
       0.30781493 -1.3525982 -0.30211523 0.09253858
0003f0 61 e5 a9 3e 28 39 9d 3e 61 cb ce bf 1e 89 a4 3d
       0.33182815 0.3070767 -1.6155816 0.080339655

weight f4 [4, 16]
000000 6c 32 f7 bd b2 3e 12 be 8e bf 11 3e aa cb ec 3d
       -0.12070164 -0.14281729 0.14233229 0.11562283
000010 93 16 9a bd 49 e7 46 3d a5 5d 24 be 1d 98 09 3e
       -0.07523837 0.048560414 -0.16051348 0.13436933
000020 90 de 4a 3c 23 08 f2 bb 8f b2 6a bd 3c 80 16 3d
       0.012382165 -0.007386224 -0.057299193 0.036743388
000030 5f c1 17 bc 5c 2c 5f 3d 09 c1 28 3e 4b 38 05 bd
       -0.009262412 0.054485664 0.16479887 -0.03252439
000040 49 d6 ff 3d ac 4a 59 be f3 ef 92 bd 7f 41 20 bd
       0.124920435 -0.21219891 -0.07174673 -0.039124962
000050 a8 c3 c9 bc fb 9c 48 3d 19 e2 f7 3b db 90 3e be
       -0.024629429 0.048977833 0.0075647947 -0.18609945
000060 0e f8 11 3c 69 b9 3c 3e 5a 86 bf 3c 90 eb 00 3d
       0.0089092385 0.18430103 0.023379494 0.03147465
000070 a2 49 d9 3d 40 46 c0 bd 30 e3 97 3d 44 d7 f4 bd
       0.106097475 -0.09388399 0.074163795 -0.11955121
000080 7a 65 ae bd 7b 94 21 3e 83 5c 06 3e 29 a3 0b be
       -0.08515449 0.15779297 0.13121228 -0.1363646
000090 1c ce 46 3e 65 7c 2a 3e 0a 19 88 bd 38 b9 a8 bd
       0.19414562 0.16649015 -0.06645401 -0.08238453
0000a0 91 cd 6a bc ec 54 65 3d 51 6e f5 bc 57 7a 01 be
       -0.014331237 0.05598919 -0.02995983 -0.12644325
0000b0 d6 03 ca 3d 8b 1b 56 3c 0a f9 0d 3e cd 33 92 bd
       0.09864013 0.01306809 0.13864532 -0.071387865
0000c0 f9 c0 ab 3d 05 9d f1 3d a8 e4 8f 3d d8 c6 2d be
       0.08386416 0.11797527 0.070260346 -0.16970384
0000d0 26 b0 a3 3d 82 44 01 3e 92 b6 97 3c fa a4 72 bd
       0.07992582 0.1262379 0.018519673 -0.059239365
0000e0 c8 44 17 3d 82 94 63 3e 5e 0a 2d 3d 06 b8 3c be
       0.03693083 0.2222462 0.042246215 -0.18429574
0000f0 a4 02 90 bd cc 66 78 3e 3b 75 ea 3d 2d c8 08 3e
       -0.07031754 0.24257964 0.11448141 0.13357611

weight f4 [4, 16]
000000 fa 80 c8 3d 16 be c6 bd 84 ef d8 bc 39 c3 e6 bd
       0.09790225 -0.09704225 -0.026481397 -0.112677045
000010 71 57 8b 3d df af 3e 3e f6 3e 10 be 2d 73 bd 3c
       0.068037875 0.18621777 -0.14086518 0.02312621
000020 66 13 1f 3e 0d ea 1e 3c a2 67 83 3d 7c 0e e7 3c
       0.15534744 0.009699357 0.06416251 0.028205149
000030 ca 25 be 3d 76 80 6b bd 47 10 e4 3b 03 27 96 bd
       0.092845514 -0.057495557 0.006959948 -0.0733166
000040 68 57 69 bd be 8a 8b bc 98 61 ae bc 12 23 d2 bd
       -0.056968123 -0.01703393 -0.02128677 -0.102605954
000050 c6 2d 61 3e 5a f6 02 3e 8b 05 92 3e cb 06 54 be
       0.21990117 0.12789288 0.28519854 -0.20705716
000060 55 bb 8c bb 64 c2 2f bc 19 8b b2 bd cd eb 1e bc
       -0.0042947927 -0.010727499 -0.08717937 -0.009699774
000070 48 54 b0 3c 89 8b 07 be cf 4b 0f be 18 7c b3 3d
       0.021524563 -0.13236822 -0.13993762 0.087639034
000080 a5 30 ba 3d 07 b3 6f 3e 2d 70 0a 3d ae 8a c7 3c
       0.090913095 0.23408137 0.033798385 0.02435812
000090 57 4e c7 3c 86 6e 63 bd 23 6e 62 3e e4 a5 2f 3e
       0.024329348 -0.055525325 0.22112326 0.17153126
0000a0 b7 c9 28 be 2a ef b8 3d 36 06 e6 3c e3 15 2c be
       -0.16483198 0.09029992 0.028079133 -0.16805224
0000b0 1d c4 e9 bd d4 90 96 bd d2 ec 07 bb 5d d4 79 bd
       -0.11414359 -0.073518425 -0.002074052 -0.06099354
0000c0 39 58 14 3d 3b 62 95 bd ad b8 22 bc 2f 58 3c 3d
       0.03621695 -0.072941266 -0.009931725 0.045982536
0000d0 e9 11 34 bd 60 81 68 3d 93 e5 75 3d cf 30 0d 3e
       -0.043962393 0.056764007 0.060033392 0.1378815
0000e0 80 3a 5d be 57 ba df bd 8c 4b 2b be 07 75 3b 3e
       -0.21604347 -0.109242134 -0.16728038 0.18306361
0000f0 5d ee 8c bd 38 40 10 3e de 3b 25 bd eb b4 01 3e
       -0.06881402 0.14086998 -0.040340297 0.12666671

weight f4 [4, 16]
000000 35 1f eb bb be b8 a9 3c 12 8e e7 3d d8 6d 33 bd
       -0.007175351 0.020717975 0.11306395 -0.043805927
000010 82 5b 20 3e 0e b2 53 3d 07 a3 c8 bd 7c 44 d6 bc
       0.15659907 0.051683478 -0.0979672 -0.026155703
000020 a1 2d 20 be 62 0d a9 3d a8 7d f3 3d 7e ae 62 3c
       -0.15642406 0.08254506 0.118892014 0.0138355475
000030 75 4d 0e bc 33 62 bb bc 03 23 c7 3d 73 7c 1b be
       -0.008685459 -0.022873973 0.09723475 -0.15184192
000040 6e d7 e0 bd 59 ad 21 3d b8 36 17 3d 13 ae 8e bc
       -0.1097859 0.039471958 0.03691742 -0.01741699
000050 0a 7c 22 3e 5c 97 80 bc 74 74 1c 3e 14 31 d4 ba
       0.1586763 -0.015697174 0.15278798 -0.0016188943
000060 e0 4d 2a 3c b1 53 2e 3e 7b 5a d8 bd 47 b1 1a 3e
       0.010394543 0.17024113 -0.10564133 0.15106688
000070 61 65 03 be bb 2f 84 3d 39 0d 90 bd 1a b5 c3 3b
       -0.12831642 0.06454416 -0.07033772 0.0059725167
000080 59 27 51 3d 8b 7e 22 be b5 04 89 3c bb df de 3d
       0.051062915 -0.15868585 0.016725877 0.10882517
000090 8c f1 e7 3b d3 92 20 3b 26 21 25 3e 63 83 05 bd
       0.007078355 0.0024501577 0.16125926 -0.032596003
0000a0 5c 38 d1 3d fc 18 d3 3d 37 8f 32 be a4 a7 27 3e
       0.10215828 0.103075 -0.17437445 0.16372544
0000b0 c4 bf ef bc 3f 9b eb bd 16 59 63 bd 3f f2 20 bd
       -0.029266246 -0.1150422 -0.05550488 -0.039293524
0000c0 0b 5a 89 bd 05 c9 d2 3d e3 b9 be bd a4 ea 17 3e
       -0.067066275 0.10292248 -0.09312799 0.14835602
0000d0 f4 b7 38 bc e1 aa b9 3d 67 cb 9a bd 59 01 20 bc
       -0.011274327 0.09065796 -0.07558327 -0.009765946
0000e0 08 41 2f be dc 36 25 3d ba 4d 40 3d ab 0a 1a 3e
       -0.17114651 0.04033552 0.046949126 0.15043132
0000f0 35 10 a9 bd 52 3f b4 bd 5d 48 84 3b 9d 57 8d bd
       -0.08255044 -0.0880114 0.0040369467 -0.069014765

weight f4 [4, 16]
000000 0d 08 31 3e 3b 79 b4 bc c3 6f 84 3c ee 9d 30 be
       0.17288227 -0.022030463 0.016166573 -0.17247745
000010 65 47 82 3e ce f1 c6 3d 34 af 02 3e f8 a3 15 be
       0.25445095 0.09714089 0.12762147 -0.1461333
000020 39 d5 2c bd 1e 1e 49 3e d2 5c 68 3e b5 57 47 be
       -0.042195532 0.19640395 0.22691658 -0.19467051
000030 07 1b 8a 3e 0d cd cd 3d 2e 27 41 be dd a8 f4 3d
       0.26973745 0.10048876 -0.18862602 0.119462706
000040 11 60 2b 3c d1 3e b9 3d 05 95 e0 bd 6a f1 e0 bb
       0.010459916 0.090451844 -0.10965923 -0.0068647163
000050 6d 05 7c be a3 c7 85 bc f3 a7 a5 3d 5b d8 76 bb
       -0.24611445 -0.016330546 0.080886744 -0.003766558
000060 ca 61 73 bd 31 06 ea bd 9d b9 0e 3c 6b 55 e8 bd
       -0.05941943 -0.11426962 0.008711246 -0.11344417
000070 74 2e f8 3d df de 2e bd 34 44 93 bd c3 5c 3c 3e
       0.12118235 -0.042693015 -0.07190743 0.18394761
000080 1c 86 01 3e 2d 01 1a be 29 f2 3c bb 7f cc 9e 3d
       0.12648815 -0.15039511 -0.0028830862 0.07753848
000090 3a 49 23 bd f0 5b 10 bd 56 75 10 3d 49 98 45 3d
       -0.039864756 -0.03524393 0.03526815 0.048240934
0000a0 bf 8d 1c 3e 5d 49 a7 3d 45 87 ec bc 61 79 80 3e
       0.15288447 0.0816829 -0.028873095 0.25092605
0000b0 2e 6b 0e 3e 09 be c6 3d 5b 28 23 3e 1f 6e 1a be
       0.13908073 0.09704215 0.15933363 -0.1508107
0000c0 e1 15 81 3d c1 de ad 3d bf 88 17 3e 6c 6c 10 bd
       0.06303001 0.084897526 0.14798258 -0.03525965
0000d0 a4 36 a0 be 2a 4f 30 3e 3f 4a 62 3d ed 7f 2a be
       -0.31291687 0.17217699 0.055246588 -0.16650362
0000e0 ec 7c 0c 3d 00 3e d2 3d a3 15 c7 bd 11 11 11 be
       0.034298822 0.10265732 -0.09720924 -0.14166667
0000f0 f2 fa 10 be 0f da 5e 3d 94 7c 10 3e 38 f3 8e bd
       -0.14158228 0.054407176 0.14110023 -0.06979984

weight f4 [4, 16]
000000 63 a3 ac bd 6b a2 59 be 5c d6 a1 3c 56 3b 8e bd
       -0.08429601 -0.21253364 0.019755535 -0.06944911
000010 38 ae a1 bd 2a ff 3c be 65 51 0c 3c 60 08 85 bc
       -0.07894558 -0.18456712 0.008564328 -0.016239345
000020 cd 15 d6 bd 2d b2 3c be f9 67 b9 3d 5b 02 ff 3d
       -0.10453377 -0.18427344 0.09053034 0.12451621
000030 a5 9a f5 bd 7d 14 8b be a9 c8 71 bd e7 0a c6 3c
       -0.11992387 -0.2716407 -0.059029255 0.02417512
000040 9c 7b df bd 3d 8b 14 3d a6 87 9c bd a0 30 28 bd
       -0.109122485 0.0362656 -0.076430604 -0.041061997
000050 59 7c 58 be f2 3d 11 3e c9 c9 25 bd 1e 92 55 3d
       -0.21141185 0.14183787 -0.04047564 0.0521413
000060 8b 5c f3 bb 94 b8 8d bd c1 f6 30 3e 49 da 0d be
       -0.0074268035 -0.06919971 0.17281629 -0.138528
000070 33 da 89 bd 60 1f 90 bd 0b e2 30 be 4f 85 c0 3d
       -0.06731071 -0.07037234 -0.17273729 0.094004266
000080 76 af 9c bd a6 57 07 3e 05 75 72 3c 18 0a ea bd
       -0.07650654 0.13217029 0.014798407 -0.114277065
000090 9d 22 5e bd 7c bc 13 3d 6f 31 5f bd 48 60 74 bd
       -0.05423223 0.036068425 -0.054490503 -0.059662133
0000a0 a9 45 f9 3d e5 ab 9d bd 94 cd 85 be bd bf a9 bb
       0.1217149 -0.07698802 -0.26133406 -0.0051803277
0000b0 a9 8e e1 3d a0 19 88 3d 8c b7 f1 3d 70 ff 3a be
       0.110135384 0.066455126 0.11802587 -0.18261504
0000c0 fc d7 ca bd bd 01 49 3e f9 22 02 3e 49 e4 84 bd
       -0.09904477 0.1962957 0.12708654 -0.064888544
0000d0 43 38 16 bd a9 b8 70 3e f4 54 26 3d 94 50 c9 bb
       -0.03667475 0.23507942 0.04060836 -0.006143639
0000e0 c4 16 c9 bd 52 13 88 3c 4a 35 f4 3d 62 63 02 3e
       -0.09818795 0.016610775 0.119242266 0.12733224
0000f0 c3 10 06 be 1f 84 2c bd b6 51 ec bc 7e 62 03 bd
       -0.13092332 -0.042118188 -0.028847557 -0.03207635

weight f4 [4, 16]
000000 97 ca d7 bd 68 dd 0c 3d 3b 58 bc bd 26 d9 4b 3e
       -0.10536688 0.034390837 -0.09196516 0.19907054
000010 95 48 72 be d5 5c 30 3d 12 d0 46 3e 46 f7 29 bc
       -0.236605 0.04305728 0.1941531 -0.010373896
000020 55 d8 f1 3d 33 d5 48 3d 7a f5 c5 bd f8 86 01 be
       0.1180884 0.049031448 -0.096659616 -0.12649143
000030 bc aa 54 bd 97 f8 e8 bd e7 25 06 be 79 d9 e8 3d
       -0.051920637 -0.1137554 -0.13100396 0.113696046
000040 aa bf f4 bd ce df ba 3d 83 63 2b bb 70 c1 0f be
       -0.119506195 0.091247186 -0.0026151843 -0.14038634
000050 7b 5c 26 bd 90 24 4b 3d cd d2 92 3d 55 83 81 3d
       -0.04061554 0.049595416 0.07169113 0.06323878
000060 a2 4e fb 3d 10 43 a1 3d 20 3d a7 3d 44 c4 ba 3d
       0.122708574 0.07874119 0.081659555 0.09119466
000070 c1 9a 85 bd 81 aa 53 3e 0e b8 4a bd 15 02 bd bd
       -0.065236576 0.20670511 -0.049491934 -0.09228913
000080 65 90 14 be 3b 08 00 3e 6d 3a 77 3d 45 2d 8f 3e
       -0.14508207 0.1250314 0.060358454 0.27964225
000090 cd 75 13 be 9e 60 fc 3d 90 d4 dd bd 84 b2 13 3e
       -0.14400406 0.12323116 -0.10831559 0.14423567
0000a0 1b d2 03 3e 1d 63 a3 bd e7 d9 f1 3c eb a0 07 be
       0.12873118 -0.07977889 0.02952285 -0.13244979
0000b0 93 3f d4 bd 82 7a ae 3d 8d 15 37 3d 00 fa 6a be
       -0.10363688 0.0851946 0.044698287 -0.2294693
0000c0 63 f8 19 3e 2e 16 85 3c dc 9c da 3d 09 e4 12 be
       0.15036158 0.016245928 0.1067445 -0.14344801
0000d0 9e 3c d2 bd 86 1a e4 3d 07 19 d2 bd 52 e2 a3 3d
       -0.10265468 0.111378714 -0.1025868 0.080021515
0000e0 c4 07 9d 3e 46 88 9e bd e0 d4 8d 3d a6 0c 1e 3d
       0.30669987 -0.07740836 0.06925368 0.03858628
0000f0 e5 5a 8c 3d 45 d0 58 3d 56 0d 22 bd db fa f7 3d
       0.06853274 0.052932996 -0.0395635 0.12108394

weight f4 [4, 16]
000000 f8 36 2a 3d a6 37 a6 bd 8c 7a 48 3d 5a e9 d8 3d
       0.04155633 -0.08116083 0.048944995 0.10591383
000010 5c 38 2e be 5c f1 1b be 63 93 25 bd b5 46 9a bd
       -0.17013687 -0.1522879 -0.040423762 -0.075330175
000020 29 00 61 be 45 18 20 3e bf 40 d7 3c 8a 7b af bd
       -0.21972717 0.15634258 0.02627599 -0.08568485
000030 93 2e 29 be 4a 32 d1 bd 3f 1f 61 3d f0 78 d4 bd
       -0.16521673 -0.1021467 0.05496144 -0.103746295
000040 24 73 5f 3c 5f 69 78 be 63 3a 03 bb 9c fa 94 be
       0.0136382915 -0.24258946 -0.0020023815 -0.2909745
000050 31 55 08 3e 1e c9 fb bd bd 4c 7f bd 73 07 c2 3d
       0.13313748 -0.122942194 -0.062329043 0.09474077
000060 dd f2 47 3e f5 86 3e 3c 6f f5 2b 3d f0 a1 94 3d
       0.19526239 0.011628856 0.04198211 0.072574496
000070 e2 32 74 3d 0c 0d 0e 3e 7a 9b 9e 3d 10 1a 5e bc
       0.059618838 0.13872164 0.077444986 -0.0135560185
000080 7c 9d 30 3e ea 27 c7 bd 6c 64 5e 3e 88 02 90 bd
       0.17247576 -0.0972441 0.21717995 -0.07031733
000090 c7 b6 3a be a8 42 87 3c ad d8 eb bd b7 0b 08 be
       -0.18233787 0.016511276 -0.11515937 -0.13285719
0000a0 a4 b5 a5 3d 6c de a7 bc f5 03 8b 3c d7 dd 27 3e
       0.08091286 -0.020491801 0.01696966 0.16393219
0000b0 72 9f ea 3a f6 b9 30 3d 1d e6 bd bd 2c cd f4 bd
       0.0017900302 0.043146096 -0.09272406 -0.11953196
0000c0 d4 2f 97 bd f9 9b 08 be 01 09 23 be f9 20 40 bc
       -0.07382169 -0.13340749 -0.15921403 -0.011726611
0000d0 bc 2c 43 3e ae 15 83 bc d6 bd 19 bd 6a 30 2f 3d
       0.19060034 -0.016001549 -0.037534557 0.04277078
0000e0 43 99 98 bd 95 04 5e 3e 0c be 9c 3b 76 f1 c7 bd
       -0.07451107 0.21681435 0.0047833975 -0.09762852
0000f0 a2 09 90 bb 9a 61 8f 3d 36 33 32 bd ff 1e 17 3e
       -0.0043956796 0.07001038 -0.04350587 0.14757918

weight f4 [4, 16]
000000 72 a0 cb 3c 5a c7 f2 3d cd e0 1b bc ef f4 45 bd
       0.02485678 0.118544295 -0.009514046 -0.04832929
000010 29 9a c1 3d 4d bb 07 3e 7c 40 42 3e 7a 70 c4 bc
       0.09453232 0.13255043 0.18969911 -0.023979414
000020 f5 0c 88 3d ba 50 c2 3b d6 e9 bf 3c ce 08 38 3d
       0.06643096 0.0059300335 0.023426931 0.04493027
000030 41 0a 83 bd 8a ca 55 3d 80 8e 1f be 9a 7c 26 be
       -0.0639844 0.05219511 -0.15581703 -0.16258469
000040 71 ae de bd 8c 66 c8 bd 0c 38 86 be 71 79 40 3e
       -0.10873116 -0.09785184 -0.26214635 0.18796326
000050 3e d6 a9 bd 22 c6 39 3d d4 f4 a3 3c 84 cf 28 3d
       -0.082928166 0.04535497 0.020014204 0.041213527
000060 18 24 41 3e 33 a2 28 3e c8 01 b6 bd 0e d0 5f be
       0.18861425 0.16468124 -0.088870585 -0.2185671
000070 6c aa 67 bc 9f d7 a2 bd 1e 06 19 be 99 ab 36 3e
       -0.014139753 -0.07951283 -0.1494374 0.17838897
000080 5c a9 e3 bb 23 59 20 be 5b 13 ed bc 55 9e 47 3e
       -0.0069476794 -0.15659003 -0.028939893 0.19493993
000090 0f 2d 62 be 5e d9 15 b9 de 95 b2 bd 38 d1 79 3d
       -0.22087501 -0.00014290723 -0.08719991 0.060990542
0000a0 d3 95 7a 3e f7 b3 14 3e 47 24 8b be 2e 0c 27 3e
       0.24471216 0.14521776 -0.27176115 0.1631324
0000b0 98 ec ae bc 93 bd 5f bd a1 ad 84 3d 8e c3 f9 bc
       -0.021353051 -0.05462415 0.064784296 -0.030488756
0000c0 43 32 12 be 7d 7b c3 bd c5 be 04 be c6 b8 12 be
       -0.14276986 -0.09545038 -0.12963398 -0.14328298
0000d0 9a e1 12 3e 10 b9 46 3d 3e 1d e2 3d 3f b6 64 3d
       0.14343873 0.048516333 0.11040734 0.055837866
0000e0 37 f1 01 3e 3f 6d ca bd b6 7e 40 3e 15 d1 0c be
       0.12689672 -0.09884118 0.18798336 -0.13751633
0000f0 5a dc d9 3d 81 33 94 bd 66 a6 40 be ce 01 46 bd
       0.10637732 -0.07236386 -0.18813476 -0.048341565

weight f4 [4, 16]
000000 b6 2d 00 be 70 ad c0 3d 30 35 96 3d 28 7a a6 bd
       -0.12517437 0.094080806 0.073343635 -0.08128768
000010 71 49 9c bd 6f 4c 36 3e eb 42 a0 bd 90 89 60 bd
       -0.07631195 0.17802595 -0.078252636 -0.05481869
000020 bc 46 45 3e 1e 1e 06 3e 4d 33 7f 3e a8 10 d2 3d
       0.19265264 0.13097426 0.24921913 0.10257083
000030 0a ce e2 3c aa d8 53 3c 9a e9 dd bd 72 9c 34 bd
       0.027686138 0.012930075 -0.108355716 -0.04409451
000040 4d 5b 84 bd 1f ab ec 3d c6 41 60 3d 20 bd 55 be
       -0.06462727 0.11556076 0.054750226 -0.20872927
000050 5e 02 e5 bc e8 bb 60 3d cf 59 84 bd b0 92 da bd
       -0.02795523 0.0548667 -0.06462442 -0.1067251
000060 c9 0a 48 3e 17 c1 f1 3d bf 83 fd 3b 80 87 90 bd
       0.19535364 0.11804407 0.0077366526 -0.070570946
000070 20 f6 65 3e f4 be ca bc 50 f3 68 3c 31 7f 9c bd
       0.2245717 -0.024749257 0.0142181665 -0.07641447
000080 c0 3b 71 3c da f3 17 bd 1b 43 e3 bd f8 9c b1 3d
       0.014723718 -0.03709779 -0.11096784 0.086725175
000090 65 fb a6 bd 41 ca ee bd 4d 09 71 3e fc 14 61 bd
       -0.081534185 -0.116596706 0.23538704 -0.054951653
0000a0 9e 74 c6 bc b8 58 0b be ad 1c 11 be 81 b4 ad 3d
       -0.02422553 -0.13608062 -0.14171095 0.08481694
0000b0 34 db 9d bd 9a 81 02 3e 3c a5 36 bd ed bc 3d 3e
       -0.07707825 0.12744752 -0.044591174 0.185291
0000c0 7e 77 37 bd eb 37 1f 3d c4 13 ab 3d 7c 56 d2 bd
       -0.04479169 0.038871687 0.08353379 -0.10270402
0000d0 5c 0e 5c bd 5f 34 44 be 7a e1 82 3e 51 0b bf 3d
       -0.05372463 -0.19160603 0.2556265 0.0932833
0000e0 39 31 1a be bc 33 df 3d 9b 76 16 be fb 6b 22 3e
       -0.1505784 0.108985394 -0.14693682 0.15861504
0000f0 34 6a 34 be 6f 31 eb 3c 29 02 8f 3c 20 a4 f2 bc
       -0.17618638 0.028710095 0.017457085 -0.029619277

weight f4 [4, 16]
000000 c9 63 2d bc 5a db e5 3b 02 20 d5 3c 12 71 08 bd
       -0.010582873 0.007014674 0.02601624 -0.033310957
000010 bb ab 77 bc be c4 5d bd 18 a8 64 bd 03 0c 54 be
       -0.015116627 -0.054142706 -0.05582437 -0.20707707
000020 e6 f6 4b 3e c2 89 16 3d b6 79 2f be 24 7d 7a ba
       0.19918403 0.03675247 -0.17136273 -0.00095553906
000030 70 d2 b2 bc 63 36 1e 3e 50 97 86 3d e7 61 4d be
       -0.02182886 0.15450434 0.06571829 -0.20056878
000040 c4 bc 49 be e7 03 3e be 16 76 ad 3d 1d 51 00 be
       -0.19700915 -0.18556176 0.08469789 -0.12530942
000050 6e 56 37 be 7b eb 17 3e 4f c9 30 3e 09 14 0f be
       -0.17904064 0.14835922 0.17264293 -0.13972487
000060 1f fb 25 be d6 39 c6 3d 10 13 ff bd e4 30 dc 3c
       -0.16209076 0.09679 -0.12454808 0.026878782
000070 98 3d 8a bd 48 0b 99 bc 9c 45 09 be 09 7d 6a 3e
       -0.06750029 -0.018682137 -0.1340546 0.2289926
000080 4a b6 8a bd ae 13 2b 3d 3e 0d 24 be 34 46 11 bd
       -0.0677305 0.041766815 -0.16020676 -0.03546734
000090 89 e3 6e be ff 3b 40 3e a6 0a 4a 3d 93 12 58 bd
       -0.23328985 0.18772887 0.04932656 -0.05275209
0000a0 63 3e 53 3e 52 84 96 3d f8 51 59 3c 71 d4 3b 3e
       0.20629267 0.07349457 0.013264172 0.18342759
0000b0 a3 cc 3d 3d ab 62 d5 bc 69 a7 d6 bd 96 89 38 3d
       0.046337735 -0.026048025 -0.1048115 0.045053087
0000c0 42 71 cb 3d 85 63 66 be f1 be 20 3e db 66 97 3d
       0.099337116 -0.22498901 0.15697838 0.07392665
0000d0 02 4c f5 bc 08 ca 83 bd 45 5b 09 be d1 3b 00 3e
       -0.02994347 -0.06435019 -0.13413723 0.12522818
0000e0 77 3b 53 3c e4 e2 4d 3d c4 85 27 3d f9 1d 39 3d
       0.0128925955 0.050265208 0.040899053 0.0451946
0000f0 3b 6a d7 3d e3 3d 84 bd b7 a1 44 3c 1f 18 a3 bb
       0.10518309 -0.064571165 0.012001446 -0.0049772407

weight f4 [4, 16]
000000 b0 bc a2 bd 96 75 7d 3c 20 81 a2 bd 60 07 31 3b
       -0.079461455 0.015469929 -0.07934785 0.0027012452
000010 ab 83 6e 3e 7b 35 a5 3d b0 9b fc 3c 22 a2 02 be
       0.23292415 0.08066841 0.030835956 -0.12757161
000020 3b ae f3 bd 4b e8 f4 3d ee 4b 76 3e 91 12 f3 3c
       -0.11898466 0.11958369 0.24052402 0.02967194
000030 74 7c 38 bd 4b a6 3c 3e 39 a3 16 3e f1 2b a7 3d
       -0.045040563 0.1842281 0.14710702 0.08162678
000040 2a 88 f1 3c 57 e6 e9 bd 3d cd b9 3d 28 20 5a 3d
       0.029483873 -0.11420887 0.09072349 0.053253323
000050 84 7b b2 bc 88 7f 2b be 70 2e 00 be e1 7a 25 bd
       -0.021787412 -0.16747868 -0.12517715 -0.04040039
000060 72 2f 83 3e 2c 65 77 be a5 42 06 3e f5 e9 77 3d
       0.25622135 -0.24159688 0.1311136 0.060525853
000070 c7 23 51 bc 05 4f c5 3d 16 b5 67 3d 4f db 5c be
       -0.012764878 0.096342124 0.05656918 -0.21568035
000080 38 f6 9b 3d ab c9 84 3d c6 c7 76 bd e5 7e ea 3d
       0.07615322 0.064837776 -0.060249113 0.114499845
000090 a5 32 c9 bc 90 80 91 3e 72 c4 b2 3c df 64 0a be
       -0.024560282 0.28418398 0.021822188 -0.13515042
0000a0 02 19 fe 3d 7b dd b1 3d f8 f1 18 3e 78 d2 99 bc
       0.124071136 0.08684822 0.14936054 -0.018777117
0000b0 66 91 e0 bc 3b de 95 3d bb fb d9 3d ad 23 fc 3d
       -0.027413081 0.07317778 0.10643717 0.12311492
0000c0 aa 5d ee bd 0e 77 b4 bc 40 61 c6 bd 45 e1 cb 3d
       -0.11638959 -0.022029426 -0.09686518 0.09955076
0000d0 09 ba 70 3e 57 65 35 be 79 62 95 3c 03 c9 89 3c
       0.23508467 -0.1771444 0.018235432 0.016819483
0000e0 1d 93 66 3d db e5 01 bd 73 7b fe bd 30 bf 51 bd
       0.056292642 -0.031713348 -0.1242589 -0.05120772
0000f0 e5 23 2b 3d e0 7e 21 3e 0e e4 a3 3c 8b 17 5b bd
       0.04178228 0.15771055 0.020006206 -0.05348925

weight f4 [4, 16]
000000 17 73 bd bc ae bd 2f be cc 78 50 bd cf 67 c0 bd
       -0.023126168 -0.17162201 -0.05089645 -0.093948
000010 2b 23 79 bc d4 8b 10 be cc 72 99 3d 8c 64 23 be
       -0.015206139 -0.1411584 0.07492599 -0.15956324
000020 64 f6 31 3d e3 9a 1d 3e 65 fb 1d 3d 97 28 17 3e
       0.043447867 0.15391116 0.038569827 0.14761578
000030 61 74 29 3e 8e 20 c7 3d 4b 35 91 3d b7 88 90 3d
       0.16548301 0.09723006 0.07090243 0.07057326
000040 80 0f ca bd 3d 1e 3b 3d 6c 44 24 bd 50 59 77 bb
       -0.09866238 0.045683134 -0.040104315 -0.0037742443
000050 ac b1 a5 bc 04 7c 1d be 2b 05 b9 3d df a3 37 3e
       -0.020226322 -0.1537934 0.09034189 0.17933606
000060 86 da e1 bc fe 88 12 3e c7 07 cd 3d ca 0a b0 3c
       -0.02757002 0.14310071 0.10011249 0.02148952
000070 a9 32 1b be 2d 10 fc bd 3b 74 83 bd 39 7f 83 3d
       -0.15156044 -0.12307773 -0.064186536 0.0642075
000080 8c 05 4a 3d 97 3d 01 be 29 d1 3e bd 7c a9 c3 bd
       0.049321696 -0.12621151 -0.04658619 -0.09553811
000090 f9 33 f2 bd b9 53 19 3e 7a 58 1a be 14 6b f2 bb
       -0.11826319 0.14973344 -0.15072814 -0.0073980186
0000a0 6f 01 20 be 44 10 7e 3d a7 f5 89 bd 20 86 48 3d
       -0.15625547 0.06202723 -0.067363076 0.048956037
0000b0 87 d0 e9 3c 72 24 a5 3c 6c da ca bd 8e e6 47 bd
       0.028541816 0.02015898 -0.09904942 -0.04880386
0000c0 52 c5 4a be 89 94 16 3e a2 1f 94 3d 0d 6b 13 3e
       -0.19801834 0.14705099 0.07232596 0.14396305
0000d0 fa d8 af bd 99 76 84 3e 6d dc 1d 3e 63 86 7c bc
       -0.08586307 0.25871733 0.15416117 -0.0154129
0000e0 fa e6 b0 bd af cb cf 3c 72 e8 76 3d 1b 98 5f 3e
       -0.08637805 0.025365679 0.06028027 0.21835367
0000f0 ce 99 17 be 23 be a7 bd e3 0c f3 3d 8b 5f 2d bd
       -0.14804766 -0.081905626 0.11867692 -0.042327445

weight f4 [16, 16]
000000 45 45 f7 bd 44 28 19 3e c8 0b 80 3e 72 d9 b3 bd
       -0.12073759 0.14956766 0.25008988 -0.08781709
000010 86 70 0d be d7 76 ab bd 9d a2 18 be d5 0a 68 3e
       -0.13812456 -0.08372276 -0.14905782 0.22660382
000020 79 76 72 3a d4 d1 13 3e 69 f9 5b be fd 26 45 be
       0.0009249221 0.14435512 -0.21481861 -0.19253154
000030 6a bb d6 bb c3 19 48 ba 43 b5 89 3c 1d 04 87 bd
       -0.006553103 -0.00076332333 0.016810065 -0.065925814
000040 b0 47 98 3c 06 a1 03 be cf e1 a6 bd da cb 7e 3b
       0.01858887 -0.12854394 -0.08148538 0.003887883
000050 51 36 37 3e b6 23 1e 3e 17 4c e0 b9 2f 91 fa 3c
       0.17891814 0.1544331 -0.000427813 0.030586807
000060 bf 20 3a 3e be 45 84 bd fb b6 01 be 4b 64 21 be
       0.18176554 -0.06458615 -0.12667458 -0.15760915
000070 2c d3 91 3d 67 99 95 3c 35 f1 5f bc 3f ef ec 3c
       0.07120356 0.018261625 -0.013668348 0.028922675
000080 fe 93 cc bb 9b 2f 28 3e 8a 2a 05 be b7 b8 9d 3e
       -0.006243228 0.1642441 -0.13004509 0.3080499
000090 78 19 32 3d ac 9f e6 3d b0 a2 98 3d 7a 61 18 3e
       0.04348132 0.11260924 0.07452905 0.14880934
0000a0 d9 40 18 3e 06 91 2b 3e 10 f5 f6 3d ba bb dd 3d
       0.14868487 0.16754541 0.12058461 0.108268216
0000b0 10 8d 9f 3d da c9 49 be 63 df 18 bc cd d4 70 3e
       0.077905774 -0.19705907 -0.009330603 0.23518677
0000c0 94 e3 e2 bd ee f0 b4 bd da 1e d4 bd 69 fa 53 3d
       -0.11078563 -0.08835016 -0.10357447 0.05175248
0000d0 86 81 2b be cb d5 03 3e 8e 90 88 3d 38 93 0c bd
       -0.16748628 0.12874524 0.066681966 -0.034320086
0000e0 2c 3f 4e be fd c7 37 3d b7 86 2a 3c 67 a7 88 3d
       -0.20141286 0.044868458 0.010408095 0.066725545
0000f0 6b a4 4a bd 1d ce 71 be c7 48 39 bc 45 3f 3f bd
       -0.049473207 -0.23613782 -0.011308855 -0.046691198
000100 10 80 fc 3d 80 c9 6e 3d 98 b9 96 3c 9f c1 67 3d
       0.123291135 0.058297634 0.018399045 0.056581136
000110 1b e6 5d 3e 3c 44 6b bd 15 22 61 3e d8 6c 57 3d
       0.2166981 -0.05743812 0.21985658 0.052594036
000120 5f 96 23 bd c5 9e a7 bd e2 01 c8 3d 3c ae 58 3c
       -0.039938327 -0.0818458 0.09765984 0.013225134
000130 94 8a f0 3c df 26 8c 3d 6a 9c 16 3e a0 ac b5 bd
       0.029362954 0.068433516 0.14708105 -0.08870816
000140 22 e0 87 bd fd d6 ff bc 0f a1 18 be a9 43 fa bc
       -0.06634547 -0.031230444 -0.14905189 -0.030549841
000150 22 a2 9e 3d cf b9 8d 3d 82 3a 2b 3e d5 42 18 be
       0.07745768 0.06920206 0.16721538 -0.14869244
000160 4c c7 e2 bc 54 b2 22 be 89 d6 0c 3e 76 6f 48 3d
       -0.027682923 -0.1588834 0.13753714 0.048934422
000170 f8 17 be bd ba 03 b2 3d 26 c3 34 3d 74 3e 78 bd
       -0.092819154 0.08692117 0.04413142 -0.060606435
000180 57 b1 c1 bc 1f 20 8b 3d f6 0e 06 be e8 e4 42 3d
       -0.023644133 0.06793236 -0.13091645 0.047581583
000190 2f 08 24 3d 15 40 14 be 7d 3a 57 3d 59 6f 50 3c
       0.040046867 -0.1447757 0.052546013 0.01272186
0001a0 ad df 22 be 62 6e 97 bc 17 cd 21 3e 7d 60 20 3e
       -0.15905638 -0.018485252 0.15800892 0.15661807
0001b0 a7 20 28 bc 9f 8d 2f 3d 5a 44 1e 3e d0 e4 a1 3c
       -0.010261691 0.04285967 0.15455762 0.019762427
0001c0 7b 81 09 3d df 64 8c 3d c4 8c 0e 3e cc ec 71 3d
       0.033570748 0.06855177 0.13920885 0.059063718
0001d0 4e ed d9 b9 e6 db 86 bd 23 02 73 be 34 a7 5b bc
       -0.0004156627 -0.06584911 -0.23731284 -0.013406564
0001e0 84 fa 07 3d 6c 78 e2 bd 03 c4 9f bc b6 03 26 3d
       0.033197895 -0.11058125 -0.019502645 0.040530883
0001f0 91 06 6e bd ab c0 31 be 57 76 34 3e f0 7c 74 3e
       -0.05811173 -0.17358653 0.17623268 0.23875785
000200 9b 65 72 bd 31 28 70 bd af 1f ee 3c 22 01 1a 3d
       -0.05917893 -0.05863208 0.029067842 0.037598737
000210 a3 f0 c5 bb 48 91 db 3d 20 9a 92 be 55 cf ad bd
       -0.006040649 0.107210696 -0.28633213 -0.08486811
000220 1b 4b 50 bd e9 f6 76 be 94 ab 48 3d d4 e2 47 3d
       -0.050852876 -0.24117626 0.048991755 0.048800305
000230 24 8d 6a 3e 16 c7 d8 3d 13 ef f7 bc 0b 51 e6 bd
       0.22905403 0.10584848 -0.030265367 -0.112459265
000240 9c 64 12 be 4d ed ea 3d d4 88 c7 bd df d9 87 bd
       -0.14296192 0.11471043 -0.09742895 -0.066333525
000250 a1 6b f0 bd cd 62 89 bd 98 ec aa 3d b9 58 ba 3c
       -0.117392786 -0.06708298 0.08345908 0.022747384
000260 6e 9d b3 3c d0 2c 73 3e 5b 3c 08 be 5c 0d 31 be
       0.021925654 0.23747563 -0.13304274 -0.17290252
000270 b9 42 ff bd 15 4f bd 3c ee 8a 3f be 57 e0 de bd
       -0.12463898 0.023108998 -0.18705341 -0.10882633
000280 fc 1f 69 be 8e d2 91 bd 09 6b 9e bd 70 fb 19 be
       -0.22766107 -0.07120238 -0.07735259 -0.15037322
000290 8d 4c db 3d 17 12 48 bd 00 c2 3f 3d b0 6a 6f 3c
       0.1070796 -0.048845377 0.046815872 0.014612839
0002a0 c8 8c 0a 3e 8d 77 e9 3c f4 d8 3c be ef be 9c 3d
       0.13530266 0.028499389 -0.18442136 0.07653605
0002b0 b3 4c 27 3c 9f ce 7a bd 09 4e 99 3d 65 28 55 3d
       0.010211158 -0.061232205 0.07485587 0.052040476
0002c0 c3 17 04 bc 98 a5 25 bc c6 dc a6 bd 57 64 9c bb
       -0.008062306 -0.010110281 -0.08147578 -0.0047727036
0002d0 2c e8 89 bd b1 fd 55 bd 21 7e cd bc bf 83 14 be
       -0.067337364 -0.052243892 -0.025084557 -0.14503382
0002e0 2d d8 5a 3e 24 46 20 3d 48 11 02 be a6 a8 93 bd
       0.21371527 0.03912939 -0.12701905 -0.072099015
0002f0 4c 1e 95 bc 5e bd 41 bc 5d 2b 8c 3c 36 a5 f7 bd
       -0.018202923 -0.011824934 0.017110521 -0.12092058
000300 a2 e3 cd bc d0 84 21 be 66 bf 30 bd 7e 0b 50 3d
       -0.025132958 -0.1577332 -0.04315128 0.05079221
000310 3d 04 bb bd 4e 90 d2 bc 39 d1 5a 3d e1 f9 41 be
       -0.09131668 -0.025703575 0.053422187 -0.18942977
000320 f5 ee 58 be cf 74 3a be c9 9c f4 3d e4 de 26 3e
       -0.21184905 -0.18208621 0.11943967 0.16295964
000330 99 68 28 bd e9 00 99 3d 56 b4 19 bd 3f d7 30 3e
       -0.041115377 0.07470877 -0.037525497 0.1726961
000340 d4 d4 2e bc fa e2 95 bb 95 dd 90 bb 40 61 a3 bd
       -0.010670859 -0.004574177 -0.004420946 -0.07977533
000350 3b 5d 10 bc db 22 27 3e e7 d6 86 3d be dc 3f bc
       -0.00881129 0.1632189 0.06583958 -0.011710344
000360 5e 63 f6 3c b4 34 d4 bd 41 f7 f8 3c dc cb f8 3d
       0.030076679 -0.10361615 0.030391337 0.12148258
000370 03 f5 0a be 4d af 2f 3d d0 e4 ac bc cb 8f a8 3c
       -0.13570027 0.04289179 -0.0211052 0.020576378
000380 5f 4d 06 be c7 2a 9d bd 3d 51 18 3e ad 4e 17 3e
       -0.13115452 -0.07674175 0.1487474 0.14776106
000390 e1 16 60 bd fd f3 ad bd b7 61 ff 3b 8c fe 28 bd
       -0.05470932 -0.08493803 0.007793631 -0.04125838
0003a0 6f e7 ca 3d ef 29 05 be e0 97 98 3d fe 63 6a 3b
       0.09907424 -0.13004278 0.07450843 0.0035765166
0003b0 88 05 1c 3e 4c cd 38 3e 42 96 30 3e e5 b6 e5 ba
       0.15236485 0.18047065 0.17244819 -0.001752582
0003c0 9f c9 ee bd 77 f5 1c be b4 7a 7c bd 99 10 b7 3b
       -0.1165955 -0.15328012 -0.061640456 0.0055866954
0003d0 02 4b d2 3d 0a 25 92 3d 7d e7 d0 bd 15 a4 1c bd
       0.10268213 0.07135971 -0.10200403 -0.03824242
0003e0 be ee 29 be f3 0b d9 3c 87 7c c3 3d ef 61 b8 bb
       -0.16594979 0.026494956 0.09545236 -0.005626909
0003f0 7f 9d 19 bd a1 24 6b 3e 58 cd 8b bd 88 f4 81 3d
       -0.037503716 0.22963192 -0.068262756 0.06345469

bias f4 [16]
000000 77 3d fa ba b1 e4 2b 3d b7 82 4a bd 10 5b 3e 3e
       -0.0019091804 0.041966144 -0.049441066 0.18589425
000010 82 c8 a4 bd f5 fb 17 bd 7a d1 38 be e5 ff 1a 3d
       -0.08046056 -0.03710552 -0.18048659 0.037841696
000020 e0 12 a9 bc 8d d4 17 bd f0 e2 48 3e 8f e1 89 bd
       -0.020638883 -0.03706794 0.1961782 -0.06732475
000030 d5 2d 17 be 4e 7d 02 be 65 79 fe 3d d5 7e 4f bd
       -0.14763577 -0.12743112 0.12425498 -0.050658066

weight f4 [64, 16]
000000 b6 e9 0a be 41 dd 02 3d 7e 63 10 be ce 0c 1a 3e
       -0.13565716 0.031949285 -0.14100453 0.15043947
000010 42 a3 59 bc 5a d4 3e 3e 8b 78 49 be dd e5 0a be
       -0.013283553 0.18635693 -0.1967489 -0.13564248
000020 f9 3c 1e ba 78 de 0a 3e e3 f4 a6 bd e3 69 83 3c
       -0.00060363073 0.13561428 -0.08152177 0.016041702
000030 2a 4b 4d 3d b5 c1 39 3d 28 5c d4 3d e9 3a 23 3e
       0.05012051 0.04535075 0.1036914 0.15940441
000040 a1 84 62 3d e1 6e ea 3d 2c b9 10 be 0a 0e ec 3d
       0.055302266 0.1144693 -0.14133137 0.11526115
000050 af b4 08 3e 89 69 e0 3d 6f ac d3 3d 7a d6 6b 3e
       0.13350175 0.10957629 0.103356235 0.23031035
000060 76 da 14 be 21 aa 84 3d e6 6f 0b be 8a e1 ef 3d
       -0.14536461 0.06477762 -0.13616905 0.1171294
000070 90 c9 36 3e b2 a8 e5 3d 63 87 89 be 14 de 2f bd
       0.17850327 0.11213817 -0.26861104 -0.0429364
000080 ac 10 27 bd 7e 00 0a bd 5f ee 2a be 36 e0 31 be
       -0.040787384 -0.033691876 -0.16692494 -0.17370686
000090 78 74 35 be 08 70 3c 3e bd 97 92 bd f0 2f a9 bd
       -0.1772021 0.18402112 -0.07157848 -0.082610965
0000a0 ac 61 a0 3d e9 f5 22 3d 5f 34 f7 3d 95 6c 86 3c
       0.078311294 0.0397853 0.12070536 0.016409198
0000b0 e8 ff 47 bb 49 5d 98 3d a1 49 b0 bd ab eb 1c 3e
       -0.0030517522 0.07439668 -0.086077936 0.15324275
0000c0 07 37 15 3e 7f e8 00 3d 40 af 4a 3d 5b 15 9c 3c
       0.14571773 0.031471726 0.049483538 0.019053152
0000d0 35 8b 46 be bb 9a cd 3d 25 a0 60 3e 24 5d 20 be
       -0.19389041 0.10039278 0.2193609 -0.1566053
0000e0 c2 b7 39 3e 7c 4d 0d 3e 45 8f 35 bd 77 72 e5 3d
       0.18136504 0.13799089 -0.044326086 0.11203473
0000f0 97 40 d5 3d 30 41 e4 bd 47 55 11 3e 88 88 0a 3d
       0.1041271 -0.11145246 0.14192687 0.033821613
000100 23 6d 82 3c f1 0d ec bc 81 47 83 3e 96 c6 13 3e
       0.015921181 -0.028815242 0.2564049 0.14431223
000110 7e a8 31 bd 56 6a 96 bc cb 8f a5 be d9 7d 5e 3b
       -0.043373577 -0.018361252 -0.32336268 0.0033949523
000120 bb 93 80 3d 2a d9 21 3e b7 72 f8 bc 5b 9b 8c 3d
       0.06278177 0.15805498 -0.030328138 0.06865569
000130 ca c9 1e 3c 1f 4e 0c 3d ad 0b 04 bd 3a 9e 82 be
       0.009691665 0.03425419 -0.032237697 -0.25511342
000140 9a ac 3e 3e 77 ef 31 3e c4 58 a2 3d 52 cd da bb
       0.1862053 0.17376505 0.07927087 -0.006677308
000150 6e c6 26 be 51 b7 1f bc ad a9 b7 3d 77 e0 4e 3d
       -0.16286632 -0.009748296 0.0896791 0.050507035
000160 1c ef 86 bd 49 82 45 3e bd 3c 1a 3e 62 f9 3d 3e
       -0.06588575 0.19287981 0.15062232 0.18552163
000170 c1 80 ac 3d 5d 43 60 3d 34 5f 84 bd 66 1f ec bd
       0.08422995 0.054751743 -0.06463471 -0.11529426
000180 4b b7 f1 bc 5f ff 16 3e 7f a9 af bb f5 3e 1f 3d
       -0.029506346 0.14745854 -0.0053607817 0.0388784
000190 78 84 1c 3e dd 76 67 3d b1 88 45 bd 70 73 59 3e
       0.15284908 0.05650984 -0.048226062 0.21235442
0001a0 26 a5 e4 3d 62 61 e4 bd b6 2a dd bd 71 e3 e9 ba
       0.11164312 -0.11151387 -0.10799162 -0.0017844272
0001b0 ca c0 ca 3c 1b ca 2e 3e 00 ee 52 be b8 1c f1 3d
       0.024750132 0.17069285 -0.20598602 0.11773056
0001c0 a8 74 80 be 8e 86 b5 3d fd e6 00 be 91 30 22 3e
       -0.25089002 0.08863555 -0.12588115 0.15838839
0001d0 72 e8 f8 3d 31 7d f2 3d 6c d8 0f be b5 2f bb 3d
       0.121537104 0.118402846 -0.14047402 0.09139959
0001e0 cc fa 6b 3e aa 5f 67 bd af bf 96 3d f4 66 e3 bc
       0.2304489 -0.056487717 0.073607795 -0.027759053
0001f0 7f 02 03 bd b6 1c df 3d 26 69 96 3d b8 bc bc bc
       -0.031984802 0.10894148 0.07344274 -0.023039207
000200 b0 19 b2 bd ad 78 0e 3e 99 52 87 3d 9f 39 36 3d
       -0.08696306 0.13913222 0.06607551 0.044488546
000210 58 f8 ba 3d 08 1b a9 3d c0 21 41 bd 73 cb 12 bd
       0.09129399 0.08257109 -0.047151327 -0.035838556
000220 2a d3 4d 3d ea f6 cf 3c 85 6d f8 bd 75 b6 1a 3d
       0.05025021 0.025386292 -0.12130264 0.03777166
000230 34 e5 42 3d 2d bf 97 bd ef a2 e5 b8 34 65 28 3e
       0.047581866 -0.07409511 -0.0001094992 0.16444856
000240 0f bb 19 3e 14 bd 6f be bc b4 76 be 98 93 cf 3d
       0.15012763 -0.23411971 -0.24092382 0.10135573
000250 e5 85 0e be 6f e2 c9 bd 7d 65 87 3b 89 dc 31 bc
       -0.13918264 -0.09857642 0.0041319714 -0.010855802
000260 30 30 05 3d 3a cf 15 3d bb 60 1c 3e 41 3f 87 3d
       0.03251666 0.03657458 0.15271275 0.066038616
000270 92 68 28 3e 9e 5d 1e 3e d8 9a 88 bd b1 b1 d4 bd
       0.1644614 0.154654 -0.06670159 -0.103854544
000280 90 c1 0e 3d 03 8b 15 be b4 42 a6 bc 3d 2d a9 bd
       0.034852564 -0.1460381 -0.020295478 -0.08260582
000290 3d dd 89 3d 88 b0 89 3c 5a d3 01 3e 4f 59 0b 3d
       0.06731651 0.01680781 0.1267828 0.03402072
0002a0 af 3c 61 bd 7e 01 3c 3e fd c1 3e 3e 03 4f 14 3c
       -0.054989513 0.18359944 0.18628688 0.009052041
0002b0 98 97 64 be 5d 29 f4 bd b2 36 80 bd 4c b3 79 bc
       -0.22323453 -0.11921952 -0.06260432 -0.015240502
0002c0 00 7f a9 3d 5a 49 4e bc ee 2a 1a be 3e 0f 38 be
       0.082761765 -0.012590731 -0.15055439 -0.17974564
0002d0 11 15 5b bd 93 d2 d1 bd 51 70 12 bd 9f 00 a6 3e
       -0.053486887 -0.10245242 -0.035751645 0.3242235
0002e0 3b d2 2b 3e 13 6a 02 be e8 d9 aa bd ad 03 22 3e
       0.16779415 -0.12735777 -0.083423436 0.15821715
0002f0 ef 3b 26 be 13 bf 02 be a2 7f 69 be c6 02 cb 3d
       -0.162338 -0.12768202 -0.22802594 0.09912638
000300 f1 4b 00 3e fc e4 b4 3d 66 7b 36 bd 2f 63 28 bc
       0.1252897 0.08832738 -0.044551276 -0.010277553
000310 9a dd 4c 3d 7d af bd 3c eb 13 a8 3c 8f 91 31 3e
       0.050016023 0.023154968 0.02051731 0.17340682
000320 db e1 16 be d1 09 5a be fa e8 c7 bd 85 59 d5 3c
       -0.14734595 -0.21292807 -0.09761234 0.026043663
000330 63 fa 89 bd 87 fe 75 3d f5 8b 97 bd 42 96 56 be
       -0.067372106 0.06005719 -0.073997416 -0.20955756
000340 62 6c 5d bd c4 6a 9a 3d 95 71 17 3e 17 5b d6 3d
       -0.05405844 0.07539895 0.14789422 0.10466593
000350 0a c7 d7 3d fd 9f b8 bd 1a 14 b7 bd 03 de 96 3d
       0.105360106 -0.0901489 -0.08939381 0.07366564
000360 fe ca f4 bd c6 5c b7 bc 90 78 a4 3d d4 43 01 3e
       -0.1195278 -0.022383105 0.08030808 0.1262353
000370 b9 05 25 3c a5 a4 a3 bc b2 fa 20 bc ae 63 97 3d
       0.010072165 -0.01997597 -0.009825395 0.07392059
000380 78 0a ea bb dc c1 1a be 77 4a 67 bc a1 df 2e be
       -0.0071423613 -0.15113014 -0.014116875 -0.17077495
000390 5a 00 d5 3c 8b 02 fd 3d 84 06 0d 3e 34 62 9a bc
       0.026001144 0.12354001 0.13772017 -0.018845655
0003a0 b8 9d 26 3e fe 48 0e be c7 67 03 3e e2 23 a5 bc
       0.16271102 -0.13895032 0.12832557 -0.020158712
0003b0 ca ff 46 be ec 33 81 bd 1f 5c 84 bd 5a d4 3e 3e
       -0.19433513 -0.063087314 -0.06462883 0.18635693
0003c0 97 9a c8 bc 00 a8 29 3d cf 46 56 bd 54 f9 99 bd
       -0.024487777 0.041419983 -0.052313622 -0.07518259
0003d0 b2 17 aa 3d a6 a6 81 3d 00 03 b1 3d 2f 4d ef bd
       0.08305301 0.06330614 0.0864315 -0.116846435
0003e0 f5 8c 4a 3e fb fb 37 bd 9c 5b 0c 3e c2 96 07 3e
       0.19780333 -0.04491804 0.13706821 0.13241103
0003f0 bc 9c 31 be a6 3e 21 bc 39 64 0a 3e 08 44 b4 3d
       -0.17344946 -0.009841597 0.13514794 0.088020384

bias f4 [64]
000000 0e cb df bc 9a bc b4 3b 84 b1 7a 3d 40 18 50 be
       -0.027318504 0.005515647 0.06120445 -0.2032175
000010 2a 44 1d 3e 0e 77 0b 3e 02 23 24 bd 49 6b 00 be
       0.15358034 0.13619635 -0.04007245 -0.12540926
000020 c2 7d 71 3d 9e 7e ef bd cf f6 cc 3d 56 9d 10 be
       0.058957823 -0.11694072 0.100080125 -0.14122519
000030 94 70 56 bd 61 9b 7a be e6 29 e4 3d db b9 8f bd
       -0.052353457 -0.24473335 0.11140804 -0.07017871
000040 18 c5 1c 3d 13 8a 2b 3d 99 f1 dd bd ab 5d 5f 3d
       0.0382739 0.041879725 -0.10837097 0.054532688
000050 45 58 0d 3e 99 b4 e7 3d 78 77 ae bd 83 fa 34 be
       0.13803203 0.11313743 -0.085188806 -0.17673688
000060 7b 2f f0 bd d2 79 33 bc c6 3a 9d bd 7a a2 2d bd
       -0.11727806 -0.010954337 -0.07677226 -0.042391278
000070 24 04 de 3d 60 c6 4d be 2a 01 31 be 8b 5d a8 bc
       0.108406335 -0.20095205 -0.172856 -0.020552417
000080 e0 32 c2 3d eb 3a 8b 3c f0 06 d9 bc ff 5a b0 bd
       0.0948236 0.016995868 -0.026492566 -0.08611106
000090 39 e0 a3 bd 9b 2d f3 3d e2 39 a5 3d f0 67 a4 3c
       -0.080017515 0.11873933 0.08067681 0.020069093
0000a0 4a 1e e1 bd 0a a0 18 be 96 e7 d8 bd d8 20 61 3e
       -0.10992105 -0.149048 -0.105910465 0.21985185
0000b0 e7 73 b8 bd fa 8a d9 3d 11 74 08 3d 48 57 ef 3d
       -0.090064816 0.10622211 0.033313815 0.116865695
0000c0 e0 df a8 bd 2f 7c 8a 3d a0 b4 e2 3d 92 c1 b0 3c
       -0.08245826 0.067619674 0.11069608 0.021576677
0000d0 0b 95 fd bd dc eb 6f bc 4d 63 1e bb f0 f6 ba 3d
       -0.12381943 -0.014643636 -0.0024168075 0.09129131
0000e0 9e dd 0a 3c 8c b7 ea 3d b1 34 28 be e1 a5 e2 3d
       0.008475689 0.1146079 -0.1642635 0.11066795
0000f0 5b 3d 0b bd 56 c7 ab bc 6f a6 fa bd 4a 1c f2 bd
       -0.03399406 -0.020969074 -0.12238776 -0.11821802
