model/model_100kD_65kP_2.pth (torch, 533690 bytes, 444 tensors)

weight f4 [15, 16]
00000000: 4008 8cbf 1d06 6a3c 8a26 c1bd 49c6 a1bf
00000010: c300 7c3f fb03 37bf 2d0f babf 0aad 9e3f
00000020: afed 2e3f 7136 9c3e 7033 263f 0bda b2bf
00000030: e9fe 85bf 9fb8 3dc0 c607 fcbe 0f5b 403e
00000040: 9c14 82bf 7eda 483f abee 05bf 5bbc 98bf
00000050: 1c0d 2c3b 86ae d13e 95ac 483f ce79 80be
00000060: c4b8 b93a 5776 a63f d224 54bf 00c5 8e3e
00000070: 3d6b 0a3e d5ba 9a3f 0cae d8be 6086 db3e
00000080: e830 0ac0 4114 9f3e 27f9 b0be c4e0 c0bf
00000090: 23b4 de3d 4fb6 0fc0 d218 903e e7aa 133f
000000a0: 6e81 88be b706 4d3b 35ad 1e3f 2ee1 90bf
000000b0: d5aa 4abf bfa4 74be 49df a7be 5561 ba3f
000000c0: 3c51 fcbe 1dd8 e03f ed62 1fc0 13ed 223f
000000d0: 3492 8abf ce01 dfbe feba 7bbe 98a4 873f
000000e0: 7639 6abf af58 29bf 7779 96bc 6bbe 023f
000000f0: 384a ed3e 29ad 72bd 9653 46bf ff1b 71bf
00000100: 9cbc b23d 08b9 65bf bf3a b13f 737c bcbd
00000110: ddcf 1ebd 8d83 f33e 5e05 24bf 7c28 5b3f
00000120: a258 fb3e 8a38 283e 122c a9bd ffff a0bf
00000130: 47cc 8dbe d01b 92bf 044a cf3f 8802 c5bf
00000140: d615 9bbf ebb6 8e3f d50b 00bf e5df 883f
00000150: 0218 29bf 6bf0 fe3e 1b25 24be 54e5 033e
00000160: d5b8 ce3e d875 24bf ef77 7dbf 286b da3e
00000170: 8bc1 a5bc b52f 82bf 5970 b5bd d501 aebe
00000180: d1fa 3fbf be34 d53f a677 63be 5561 203e
00000190: 4b3c 1abe a152 113f a287 183f fd42 f03d
000001a0: 2b16 2fbf 40a6 c9be 52f2 94bf 409a 59bf
000001b0: 5ca9 eabe 8c81 593f 5c18 193e d403 153f
000001c0: 4129 72be a125 2e3f 0f12 85bf 55e8 b83d
000001d0: 0edb 9f3f 441b 0440 15e5 1cbf 329b 6e3f
000001e0: 1d64 c6be 0815 1bbd 5101 acbf badb bd3f
000001f0: c455 c4bf 21e8 be3e 2beb 07bf 9e2b 343e
00000200: 9e37 90bf 6e68 0b3f d6a0 76bf 1b76 6c3e
00000210: 5c4a 29bf de7d d4bf d334 633f bf63 aabe
00000220: 575c 843f 011b 6abe 4c59 773e dfa8 c8be
00000230: a048 01c0 157c 7bbe afe2 60bf 4ff7 1abe
00000240: f619 43bd 61eb 32bd 83a0 e9bf 8796 0fbf
00000250: 7736 883f 208f 133d 4aa1 313f 67ec e9be
00000260: 61c5 9abf 02c9 c93f 8211 293f 4260 4e3f
00000270: cf35 68bf 1525 223e 0354 07bc 6b7d 65bf
00000280: a149 273e a04a f83f 37a0 b1bf f5f5 0dbe
00000290: 1d42 173f 1020 5a3f 93b2 3bbe 4053 16be
000002a0: 836a 27be 1423 33bf 31f7 7a3e 031e fabf
000002b0: baed 5e3f 288f 2a3f 70cf 9f3e 5c0c cd3c
000002c0: 1802 853f f0ec ab3e 131a 25be f954 81bf
000002d0: dde4 ac3c 942a 083f 516f e53e b872 543f
000002e0: ed42 4dbf 3702 cc3e 37c9 683f db65 d0bf
000002f0: 3607 663f 9754 20bc 0ac7 7fbf 43d7 823e
00000300: 94ad bdbf 89d4 1c3f 337e eb3e 2e96 f53e
00000310: 5f77 4e3f e816 03be 864b dfbe e9f9 87bf
00000320: f86f 823e d92d 2d3f d827 93bf 14bb 633e
00000330: 3a5d 30be fb59 fb3e 24b2 813e 55cf 913f
00000340: c660 9dbf 685f 85be 6d50 d33c e8cd a7bf
00000350: ab81 2b3f d306 49bf 0c2e 443f 1f81 343f
00000360: 5135 2cbf d40a b93f f5ec fabf af58 81bf
00000370: b1b8 983f c45e ca39 7885 9ebe 05c5 16bf
00000380: b2b4 aa3f 4dbb 5a3f 4be1 703f e727 473f
00000390: 01dc 863f 4e22 a23e 6917 7b3f 2644 063f
000003a0: a256 9e3f ce47 303f 783d 603d ff81 6e3f
000003b0: b9e7 4ebe 7a06 f83e e133 8bbf 1b01 8bbe
-1.0940018 0.014283684 -0.09431179 -1.2638637 0.9843866 -0.7149045 -1.4535881 1.2396557
0.68331426 0.30510285 0.6492224 -1.3972791 -1.0468417 -2.9643934 -0.4922468 0.18784736
-1.016254 0.7845839 -0.52317303 -1.1932482 0.002625293 0.40953463 0.7838834 -0.2509293
0.0014169444 1.3004864 -0.82868683 0.27884674 0.1351747 1.2088267 -0.42320287 0.42875957
-2.159235 0.3107014 -0.34565088 -1.5068593 0.10874202 -2.2455022 0.28143936 0.5768265
-0.26661247 0.003128452 0.6198304 -1.1318719 -0.7916692 -0.2389097 -0.3278754 1.4560953
-0.49280727 1.7565953 -2.490413 0.63642997 -1.0825868 -0.43556064 -0.2458305 1.0597105
-0.9149393 -0.66150945 -0.018368466 0.51071805 0.46345687 -0.05924717 -0.7747129 -0.94183344
0.08727381 -0.8973546 1.3846053 -0.09203424 -0.038772453 0.47561303 -0.6407069 0.8560865
0.4909106 0.16427818 -0.08260359 -1.2578124 -0.27694914 -1.1414738 1.6194463 -1.5391397
-1.2116039 1.1149572 -0.50018054 1.0693327 -0.6605226 0.497928 -0.1602978 0.1288045
0.4037539 -0.64242315 -0.9901113 0.4265988 -0.02023389 -1.0170809 -0.08859319 -0.33985773
-0.7499209 1.6656721 -0.22213611 0.15662129 -0.15062062 0.56766707 0.5958196 0.11731527
-0.683932 -0.3938465 -1.163645 -0.8500099 -0.45832336 0.849633 0.14950699 0.58208966
-0.2364855 0.6802617 -1.0396136 0.09028689 1.2488725 2.0641642 -0.6128705 0.9320556
-0.38748255 -0.037861854 -1.3437902 1.483268 -1.5338674 0.37286475 -0.5309321 0.17594764
-1.1266973 0.5445622 -0.96339166 0.23091929 -0.6612909 -1.6600912 0.8875248 -0.33279225
1.034068 -0.22861864 0.24155158 -0.39191338 -2.0200577 -0.24559052 -0.8784589 -0.15133403
-0.04763218 -0.043681506 -1.8252109 -0.5608906 1.0641621 0.036025167 0.6938673 -0.45688173
-1.2091485 1.5764468 0.6604234 0.8061563 -0.90707105 0.15834458 -0.008259776 -0.896445
0.16336681 1.9397774 -1.3877019 -0.13863356 0.59085256 0.85205173 -0.1832984 -0.14680195
-0.16349225 -0.699754 0.24508359 -1.9540409 0.8708149 0.6662469 0.3121295 0.025030307
1.0391264 0.33579206 -0.16123228 -1.0104057 0.021105224 0.5318997 0.4481149 0.82987547
-0.80180246 0.3984544 0.9093203 -1.6281084 0.89854753 -0.009785793 -0.99913085 0.25554857
-1.4818597 0.612618 0.4599472 0.4796614 0.80650896 -0.12801707 -0.43612307 -1.0623142
0.2547605 0.6764808 -1.1496534 0.22239333 -0.17223063 0.49092087 0.25331223 1.1391398
-1.2295158 -0.26049352 0.025795186 -1.3109713 0.6699473 -0.7852604 0.7663276 0.70509523
-0.67268854 1.445643 -1.9603564 -1.0105189 1.1931363 0.00038599048 -0.30961204 -0.5889438
1.3336394 0.8544205 0.9409377 0.7779526 1.053589 0.31666797 0.98082596 0.52447736
1.2370188 0.68859565 0.05474612 0.9316711 -0.20205583 0.4844244 -1.0875207 -0.2714928

weight f4 [10, 16]
00000000: 56cc 17bf 6f61 bbbf 699e 45bf a9c9 493f
00000010: cd2f 523e ccee 9abf 8382 393f bd9a d83e
00000020: 9c5b ffbc 1c94 25be fa92 433f 575c 66bf
00000030: b27c 40bf bdd1 ebbd 4e33 113e 80d0 313f
00000040: 2dd6 dd3e 8cf0 c23e 3036 4cbf 37d7 dfbf
00000050: ecbf 143c b1d8 883e b0ed 183c 8add 693f
00000060: d33f a8be dadd 0abf 26a6 90bf c753 04c0
00000070: b3d4 87be e740 8cbf 64f6 c23f be11 06c0
00000080: d40a 063f 0936 d4bf 0bde 88be c7a8 4e3f
00000090: c639 bbbd e905 d13f 0185 fa3f cabc 6bbf
000000a0: 547e 69bf 544f ca3d c23d 073f 91d5 d8bf
000000b0: 2ae2 933e b1c9 603c 0a8b b0be d56c 7b3f
000000c0: 60b4 83be 5e5b 58bf 7ae9 453f f12a aabe
000000d0: 18d8 95bf 5f1f b0be b729 cabf d8c4 953f
000000e0: fb6f c8bf addb 22bf e9ca 5abe a9db 3b3f
000000f0: a4b9 f7be f528 42bf 075f 93be f7f7 c7bf
00000100: ebe6 e4be ddbf 0c3f d8f1 4c3f 3bf7 a4be
00000110: 8f6f 09be 945c b23e 996c 6bbf 8eec bebf
00000120: 35bd 21bf 9b79 9a3f 1c17 aabf 8855 493e
00000130: b02e b1bf 6c1e b83f 6d0c b2be 2b62 193f
00000140: dd70 c43e 6aa1 cc3f 43ef 3a3e 398d d13e
00000150: db6c 843f 364e 34bf 5846 4e3c 8e92 603f
00000160: 7378 8d3e 4ad4 6d3d 1d3e 0abe ad39 bcbe
00000170: 48ef b5be c096 63bf 4feb 603e 43ae 35bf
00000180: 7f68 5fbf 92bf ffbe ba4e a9bf f66e 3bbf
00000190: b666 92bf 3fa5 5d3e 348e 753f 580b 5cbf
000001a0: c752 a23e c784 933f 3ddf e8bf 97a0 163f
000001b0: 15d9 8e3f a247 c23e 4103 d63e 7aca 813e
000001c0: 5887 ac3e f8ff 4e3f 61ce 0f3f a284 90bf
000001d0: b6a7 783f 599e 2e3f 77a8 1ebf fe3e 03be
000001e0: 470c c83f 8504 d43d e806 433f 5c15 09bf
000001f0: 4ea2 8d3f 7120 a13e fb76 a7be 4391 6a3f
00000200: 7708 bf3f 3742 85bf 3a9c 8ebf 9cd2 473f
00000210: a895 d6be 0288 6fbe 186e 8abf 252b d33f
00000220: 5824 3c3f f950 d1bf 3cca b63d ccc3 c13f
00000230: b522 e33f 7ddb 353e 1e84 833f ff99 213f
00000240: d947 d13d 37e0 63be dd50 113e a542 d2be
00000250: 2dec 863f d596 9b3f 4aba 73be 6efd 37c0
00000260: 9acb 33bf 6b65 2d3f b632 5b3e 6cdb 9bbf
00000270: f43c 323f 1828 593d d457 8b3f 1be4 d63e
-0.59296167 -1.4639109 -0.7719484 0.78823334 0.20526047 -1.2104125 0.7246477 0.42305556
-0.031171612 -0.1616978 0.76396143 -0.8998465 -0.7519027 -0.11514614 0.14179727 0.6945877
0.43327466 0.38074148 -0.79770184 -1.7487553 0.009078961 0.26727822 0.009334013 0.91353667
-0.32861194 -0.5424477 -1.1300704 -2.0676134 -0.26529464 -1.0957307 1.5231442 -2.094833
0.5236027 -1.657899 -0.26731905 0.80726284 -0.09141879 1.6329929 1.957184 -0.92084944
-0.91208386 0.09878412 0.5282861 -1.6940175 0.28883487 0.013719962 -0.34481078 0.9821294
-0.25723553 -0.84514415 0.7730938 -0.33235887 -1.1706572 -0.34398934 -1.579398 1.1700697
-1.5659174 -0.6361645 -0.21366467 0.7338205 -0.4838382 -0.75843745 -0.28783438 -1.5622548
-0.44707426 0.5498026 0.80056524 -0.32219872 -0.13421462 0.34836257 -0.9196258 -1.4915941
-0.6317933 1.2068361 -1.3288302 0.19661534 -1.3842373 1.4384284 -0.34775105 0.5991542
0.38367358 1.598676 0.18255334 0.40928057 1.034572 -0.7043184 0.012590013 0.87723625
0.27630958 0.058063783 -0.13500257 -0.36762753 -0.3553412 -0.889019 0.21964763 -0.7096903
-0.87268823 -0.49950844 -1.322715 -0.7321619 -1.1437595 0.21645068 0.9592011 -0.8595481
0.3170378 1.1524895 -1.8193127 0.5883879 1.1159998 0.37945276 0.41799358 0.2534979
0.3369701 0.8085933 0.56174284 -1.1290476 0.97130907 0.6821037 -0.61975807 -0.12816998
1.5628747 0.103524245 0.76182413 -0.53548217 1.1065156 0.31470063 -0.32707962 0.916279
1.4924458 -1.0410832 -1.1141427 0.7805574 -0.41911054 -0.23391727 -1.0814848 1.6497542
0.73492956 -1.6352836 0.08925292 1.5137877 1.7744967 0.1775951 1.0274694 0.63125604
0.10218782 -0.222535 0.14191003 -0.4106647 1.0540825 1.2155405 -0.23801532 -2.8748431
-0.70232546 0.67732877 0.21406063 -1.2176337 0.6962426 0.053016752 1.0886178 0.41970906

weight f4 [4, 16]
00000000: 55c8 7fbd d029 38be cdec 61be 3c76 d8bc
00000010: d3e0 6d3d 1aa7 22be 5154 c73d 2101 3fbd
00000020: ce8c e53d 2e36 1bbe 7464 2ebe c8b3 1e3e
00000030: b9fc d13d bb09 e7bc cca2 813e 69ef 223d
00000040: 54d3 333e 2f74 1e3e 19da 1dbe a2d7 1c3b
00000050: d9c0 1e3c 91e7 51be f533 24bc 582b 893e
00000060: 95a7 23be 46ea 03be b69c 7c3e bf27 e53d
00000070: a3c6 0f3d c23e b0bd fcb2 633e 8b07 52be
00000080: 1a05 39be f27c ab3d 28f2 103e 9f16 dc3c
00000090: 1494 34bd 25a4 303e 9372 103d 50ee 213b
000000a0: 038e 263d 1c18 03be 602c 083e bfe1 93bd
000000b0: d5df 16bd ed94 a3bd 556f 0cbe 64da 1b3e
000000c0: 7b76 88bc 937c 453c f648 49bc fddc 35bd
000000d0: ba0b 93be e54d f33b 2e33 0f3e c121 16be
000000e0: b8b5 4a3e 45e2 32bd d6a6 483e 405d 193e
000000f0: 9c52 4fbe 2e71 e6bd f32f 39be 511d a13d
-0.06244691 -0.179847 -0.22062989 -0.026423566 0.058075737 -0.15884057 0.09732879 -0.046631936
0.11208497 -0.15157387 -0.17030507 0.15498269 0.10253281 -0.028202882 0.25319517 0.0397791
0.17561084 0.15474008 -0.15415229 0.0023932238 0.009689533 -0.20498492 -0.010022153 0.2679088
-0.15981896 -0.12882337 0.24669155 0.111892216 0.035101544 -0.0860572 0.22236246 -0.2051069
-0.18068352 0.08373441 0.14154875 0.026866255 -0.04408653 0.17250116 0.035265516 0.0024708696
0.040662777 -0.12802166 0.13298178 -0.07220792 -0.036834557 -0.0798739 -0.13714345 0.15220028
-0.016658058 0.012053627 -0.012285462 -0.044400204 -0.28719884 0.0074250572 0.13984367 -0.14661314
0.19795883 -0.04367282 0.19594893 0.14976978 -0.20246357 -0.11252056 -0.18084697 0.0786692

weight f4 [4, 16]
00000000: d31d 68be 0542 8cbd 70b1 153e fcfb babc
00000010: 23ff 3abe b841 ea3c 2386 56be d16a a4bd
00000020: 6958 373e d6b0 37be 3694 8cbe 6a2a bdbd
00000030: a8c0 a43c 523b 3a3e 3cc7 35bd 4b92 1bbc
00000040: 3342 5f3e ce76 c03d f1af 783e dbac b2bd
00000050: fccb 733e 8305 30be 694f 0fbd bb27 2e3e
00000060: 0a7b 2d3d dc6a d53d ac7f f4bd 657e 8cbd
00000070: 365f c6bd 59e6 83be af32 8cbd e0af 8dbd
00000080: 22b5 363e c63c 763c 8ec9 723e baf1 5d3e
00000090: 5d07 16be 9d2a 223e b475 0abe 2527 013e
000000a0: 6162 24bd ef7d e5bd d557 60bd 420a 933c
000000b0: b413 533e a95e 4c3e 7875 65be 6ac8 323e
000000c0: 5f7b 9a3d 8e43 21bd 34ce 203c 52f3 27bc
000000d0: f87f 933d 190d 573b 2d11 37be fa60 2cbd
000000e0: 5fff 33be fce8 ca3d 5f71 f93d 30d0 3e3d
000000f0: 6be8 84be aa7a 42be c085 3fbb 2daf cc3c
-0.22667627 -0.0684853 0.14618468 -0.022825234 -0.1826139 0.02859579 -0.20949607 -0.08028186
0.1790482 -0.17938551 -0.27456826 -0.092366055 0.020111397 0.18186691 -0.044379458 -0.009495328
0.21802597 0.0939766 0.24285866 -0.08724376 0.23808283 -0.17189603 -0.03498784 0.17007343
0.042353667 0.104207724 -0.11938414 -0.06860045 -0.09686129 -0.2576168 -0.06845605 -0.06918311
0.17842534 0.015029138 0.237097 0.21674243 -0.14651246 0.15836568 -0.13521463 0.12612589
-0.040132884 -0.112056606 -0.054771263 0.017949227 0.20612985 0.19957985 -0.22408092 0.17459264
0.075430624 -0.039371066 0.009814788 -0.010250883 0.072021425 0.0032814203 -0.17877646 -0.04208467
-0.17577885 0.099077195 0.12179827 0.04658526 -0.2595857 -0.18992105 -0.0029224008 0.024985874

weight f4 [4, 16]
00000000: 2000 b23d d690 723e 012b 213e 65da 03be
00000010: 72fb 413e ee4e 8ebe 1a94 26bc c2fe 583e
00000020: 74b8 a33d 8bf9 813d dbef 4cbe 83a6 81bd
00000030: d3d9 9a3d 86ed a2be 6657 013e 5ede 12be
00000040: c115 12be d6a4 81be 24bf 503e beb3 98bd
00000050: 45d6 143e 76d2 dabd a5b4 2fbe 6e9e 9fbb
00000060: de4a aa3d edc7 83bd 62c4 363d 94a6 9cbd
00000070: 1e9b 64bd db27 12be 2f45 533e ec24 383e
00000080: 9a27 52be ebd0 52be f31a 113d 27ef 85bd
00000090: 0735 44bd c40f 263e 06cd 383e 8ed4 6fbd
000000a0: e503 25be 9a0e 5cbe 88a4 fe3d 0ba3 4ebe
000000b0: ec18 e33d 7218 9739 62d6 c63c 6af9 2bbe
000000c0: 9cdc 20be 0992 a03d b11e 19be c2a0 673d
000000d0: b04b 2b3b cfb2 63bd 9453 2e3e 8cbc 633e
000000e0: 9c8d 953d 9ad4 4c3e 21df 5e3e fd5e 9f3d
000000f0: ece1 f23d 6762 e8bd a0b1 783d 62bb 71bd
0.0869143 0.23688063 0.15739061 -0.1287628 0.18943575 -0.27794594 -0.010167146 0.21190932
0.07994166 0.06346425 -0.20013373 -0.06330588 0.07561078 -0.3182184 0.12630996 -0.14342639
-0.14266111 -0.25321072 0.20385414 -0.07456158 0.14534862 -0.106846735 -0.17158754 -0.004871181
0.08315061 -0.06434617 0.04462088 -0.0764896 -0.055811994 -0.14273016 0.2063186 0.17982835
-0.2052292 -0.20587508 0.03542609 -0.06539755 -0.047902133 0.16216952 0.1804696 -0.058552317
-0.16114767 -0.21489945 0.124337256 -0.20179383 0.11088738 0.00028819178 0.024272148 -0.16794363
-0.15709156 0.07840354 -0.14953114 0.056549795 0.0026137643 -0.055590447 0.1702407 0.22239894
0.073024005 0.20002976 0.21764804 0.077817895 0.118594974 -0.11346894 0.06071627 -0.059016593

weight f4 [4, 16]
00000000: 651b 203e de87 73be 62c3 833e fc37 51be
00000010: 8bb1 07be 3e03 6d3c f98e bd3d 5366 56bd
00000020: b620 923d 6f1a d13d 0769 873c b857 68be
00000030: 3bcf 223e 1658 3dbe f5a9 f33d 8a51 3c3e
00000040: 9c21 98be 0918 403e 1001 82be 1a57 573e
00000050: a39f 003e 6939 6dbd 4683 ffbd d966 88ba
00000060: 68af 3fbe 7834 603e 23af 1e3e 5c1e d0bd
00000070: 7c05 6fbe e544 e2bb d53f c0bd 3495 3dbe
00000080: 98df 693e 06cb 2a3d fd24 2fbe 2656 9fbb
00000090: 8bae d43d 45f5 793e 4d81 84be 9c61 25be
000000a0: a841 2a3e 3693 0c3d 9b06 debd 2eb8 2e3e
000000b0: 05b0 1abe d25d c4bd 4ba7 673e cd85 75bd
000000c0: aeee c03d a16e 94be ee33 6dbd 14d1 e93d
000000d0: 0aa1 4cbc 6ec8 32be daf9 14be 5217 d43d
000000e0: 484b 3a3e 48a5 663e 7d42 fb3d 5568 a83d
000000f0: 46ff b5bd 55dd f0bd 9c7f 0f3e 88f3 443e
0.1563545 -0.23782298 0.25735003 -0.20431513 -0.13251321 0.014466105 0.092557855 -0.052343678
0.07135145 0.1021012 0.016529573 -0.22689712 0.15899365 -0.18490633 0.11897651 0.1839048
-0.29713142 0.18759169 -0.25391436 0.2102932 0.12560897 -0.05791608 -0.1247621 -0.0010406628
-0.18719256 0.21895015 0.15496497 -0.101620406 -0.23341936 -0.0069051855 -0.09387175 -0.18513948
0.228392 0.041697524 -0.17103954 -0.0048625646 0.10384854 0.24409969 -0.258799 -0.16150516
0.16626608 0.03432008 -0.10841104 0.17062446 -0.15106209 -0.09588207 0.22622411 -0.059942055
0.094205245 -0.28990653 -0.057910852 0.114168316 -0.012489567 -0.1745927 -0.14548436 0.103560105
0.1819278 0.22523987 0.12268541 0.08223025 -0.0888658 -0.11760966 0.14013523 0.19233525

weight f4 [4, 16]
00000000: aa5f 6b3e 20a6 333e 1648 aebd 0bbe ed3d
00000010: ba31 ea3d 2c04 173e 43d9 b0bd 486d d3bd
00000020: 713a 06bd 4af4 0b3e 78cb 77be 95dd 7bbd
00000030: bb47 f4bd 5062 08be d765 623c cb62 13be
00000040: 57dd 963d c1ba c33d cc27 a1be 7c8b d4bc
00000050: d43a 98bd 8f1c 2ebe f8a5 08be 04b2 db3d
00000060: f9a2 70bd 4ece 9c3b 743b 733b 9107 163e
00000070: cdc3 f3bd 1af0 79be 7aac cabc 7367 7abe
00000080: c1b2 fe3b ee7b 863e 8d7d 4e3d 7376 ad3d
00000090: 2ccc 263e c72c bdbd 5a1c d5bd 10f1 23be
000000a0: 6692 9cbd bf5e 9cbd 7fac 083e 5589 4fbe
000000b0: 4eb2 1cbe 0ee5 273e c142 93bc fa04 80bd
000000c0: 8770 20be c9c7 92bd fd3c fc3d db37 58be
000000d0: 3d2a 49be c01a c7bd 3261 24be 9d8d 4abe
000000e0: 609b 323e a470 0e3e cfe1 03be e6d1 533e
000000f0: 10d4 0e3e f84d a23e 655b f0bd db64 923e
0.22985712 0.1754384 -0.08509843 0.116085134 0.11435266 0.14747685 -0.086351894 -0.10323578
-0.032770578 0.13667408 -0.24198711 -0.061490614 -0.11927744 -0.13318753 0.013818226 -0.14393155
0.07366436 0.09557105 -0.31475675 -0.025945418 -0.074330956 -0.17003082 -0.13344562 0.10727313
-0.058749173 0.0047853356 0.0037114294 0.14651324 -0.119025804 -0.24407998 -0.024740446 -0.24453525
0.007772774 0.26266426 0.050412703 0.08469858 0.16288823 -0.09237056 -0.10405798 -0.16009927
-0.07645111 -0.07635259 0.13347052 -0.20267232 -0.15302393 0.16395971 -0.017976167 -0.06250949
-0.15667926 -0.07167012 0.1231632 -0.21115057 -0.19645019 -0.09721899 -0.16052702 -0.19780584
0.17442083 0.13910156 -0.12879108 0.20685539 0.13948083 0.3170011 -0.11736182 0.28592572

weight f4 [4, 16]
00000000: 457a ffbd 6d2f 96bd 10f0 e6bc 4d3f f3bd
00000010: af3c 77be 72be 7abd 8e41 36bb 5a0f ca3d
00000020: 2c49 bcbd 100c c0bd 4bcf 043e ba2e a63d
00000030: 311e c03b f097 ddbd 4dff 023c 2568 1abe
00000040: 9f00 2fbd bcbb 41be a421 ba3d 2132 76be
00000050: 94c7 103e 31e1 92bd 4927 d83d 9917 cd3d
00000060: b28c dc3d f4c2 693e 374e abbd 8a37 1b3e
00000070: ac59 7fbe b06f ebbd 875a bf3d d5b7 653e
00000080: 2c83 ee3c 5e73 f83d 1f86 4f3e 981e 5bbd
00000090: 43a6 a6bd b45d 1c3e f404 1abe d7c3 c53d
000000a0: 2da0 b5bd 6bae 403e f816 783e ac1b 21bd
000000b0: 0e36 67be 81e0 6f3e 781b 183e 33ac 4f3e
000000c0: ecd4 023d 7bcd 1a3e 87a0 2cbe 401a 853e
000000d0: a05d 7e3c 5aea 01be 5cc9 dbbd e390 823b
000000e0: b619 223e cd41 21be cd68 10be 42a3 db3d
000000f0: 4b2e 3b3d 7ef7 86be 6f5a 4ebd 2e67 563e
-0.12474493 -0.073332645 -0.028190643 -0.11877308 -0.24144243 -0.06121678 -0.002781007 0.09866209
-0.09193644 -0.09377301 0.12969701 0.08114381 0.005862974 -0.108199954 0.007995439 -0.1507879
-0.0427252 -0.18919271 0.09088448 -0.2404256 0.14138633 -0.07171858 0.10554368 0.100142665
0.10769023 0.22828275 -0.08364528 0.15157905 -0.24936551 -0.11495912 0.093434386 0.22433408
0.029115282 0.121313795 0.20266007 -0.053495973 -0.08137181 0.1527012 -0.15040952 0.09656494
-0.08868442 0.18816535 0.24227512 -0.03933303 -0.22579214 0.23425485 0.14854228 0.20280533
0.03194134 0.15117447 -0.16858111 0.2599659 0.015525252 -0.12687054 -0.10731766 0.003984557
0.1583012 -0.15747757 -0.14102478 0.10724498 0.045698445 -0.26360697 -0.050379213 0.20937797

weight f4 [4, 16]
00000000: 8aa2 81be 6406 08bd 1a98 0a3e f81f e3bd
00000010: 7df4 41be e6c8 eebd 7db5 39be 117a 0fbe
00000020: efc7 533e d1c0 993d f33e d53d 7bf4 ce3c
00000030: 7d55 d43d eb42 82bc 9563 633d 5c96 0abe
00000040: 0c70 803e e86d 78bd 309e 8ebd d0ee cfbd
00000050: ff39 d33c 8fe2 693e bfd2 203e 2485 c6bc
00000060: 22a8 11be e46e 76be 0602 7bbd 7f55 f63d
00000070: 132f 643e e486 c6bb f386 523e d01b 57bd
00000080: 4b2a 5a3e 0a7b 9bbd c6e5 c3bc a9f4 2bbc
00000090: ec90 213e b0bd 55be 857e 4e3c b6fe cc3d
000000a0: 790c e3bd 5aa6 8c3d 0356 2dbc c06c 313e
000000b0: 2c5c 6b3d 7523 a3bd b64e b33d ae62 303e
000000c0: 8bf1 323e 68ee 093c a01b 50bd 8979 a03d
000000d0: b2b3 89bd 1384 37be e7fe 48be 3669 abbd
000000e0: acf9 27be 5de9 80be 9f72 56be 10ff 75be
000000f0: 3ae7 273e 006f d7bc a46d 543e dd8e c7bd
-0.2531932 -0.03320922 0.13534585 -0.11090082 -0.18940921 -0.11659412 -0.18135639 -0.14011408
0.20681737 0.0750748 0.10412397 0.025263062 0.10367868 -0.01590105 0.05551489 -0.1353392
0.25085485 -0.06065169 -0.069637656 -0.10152972 0.02578449 0.22840331 0.15705393 -0.024233408
-0.14224294 -0.24065739 -0.061281227 0.12028026 0.22283582 -0.0060585607 0.20559292 -0.05251676
0.21305196 -0.07591827 -0.023913275 -0.010495343 0.1577794 -0.20873141 0.012603407 0.1000952
-0.11086363 0.068676665 -0.010579589 0.17326641 0.05746095 -0.07965747 0.08755247 0.17225143
0.17474954 0.008418657 -0.050807595 0.07835681 -0.06723727 -0.17921476 -0.19628488 -0.08369677
-0.16403836 -0.25178042 -0.20942162 -0.2402308 0.163968 -0.026298046 0.2074495 -0.09744046

weight f4 [4, 16]
00000000: 55ab d4bd c82a 08be 0c76 45be 32b3 0cbe
00000010: 6f87 873d b492 0ebe c44e ca3d c67d a2bd
00000020: 377d 1c3e 20b5 4a3e 2f09 52be c968 8ebd
00000030: 3edf 613e 408b 01be f01f d9bd 75e5 82bd
00000040: 8a31 e63d b358 aa3d 59ec 173e b99a b63d
00000050: d891 95bc 3c07 e73d 4630 16be f4c2 90bd
00000060: b740 003e cdd7 90be 1077 253e fc9a 84bd
00000070: a9d3 d43d 6d76 c1bd 3ce1 b6bd c14a 943c
00000080: 46f3 f9bd 7fb8 03be e0b3 303e 954f 15bb
00000090: 3e6b 7e3e 9add e83b 992e 5e3e 42b3 993b
000000a0: 98aa 8b3d 66c2 abbd 23e7 a03d 9f5a 443e
000000b0: decf 38be b2c9 3c3e 2f88 bcbd 5b46 e7bd
000000c0: 54de f5bd fbca 113e 6918 873d b675 aa3d
000000d0: 298c 473e 8ede c33d 8a78 203d e15d bd3d
000000e0: bcef ce3d b43f 983d bfa1 acbd 193a fe3c
000000f0: f8fd cabd 0c06 853e a2e1 973d 10ab 043e
-0.103842415 -0.1329757 -0.19283313 -0.13740233 0.06617629 -0.1392315 0.098783046 -0.07934146
0.1528214 0.19795656 -0.20511316 -0.0695358 0.22057816 -0.12650776 -0.10601795 -0.06391422
0.112399176 0.08317699 0.14836253 0.0891623 -0.01825802 0.11280677 -0.14666852 -0.07068434
0.12524687 -0.28289643 0.161587 -0.064748734 0.103919335 -0.09446416 -0.08929679 0.018102052
-0.12204604 -0.12863348 0.17256117 -0.002278303 0.24845597 0.007106495 0.21697463 0.0046905586
0.068196476 -0.08386688 0.07856586 0.19175194 -0.18048045 0.18436316 -0.092056625 -0.11292716
-0.12005296 0.14237587 0.06596453 0.08323233 0.1948706 0.09563933 0.039177455 0.092464216
0.101043195 0.074340254 -0.08429288 0.031033562 -0.09911722 0.25981176 0.07416083 0.1295588

weight f4 [4, 16]
00000000: cdaa 41be 4e4f 443d 2228 a9bd 916d 283e
00000010: 594a 5ebe 422a 54bd a7e1 4dbc 5750 1cbe
00000020: 4a52 6b3c 93f9 463c ef5c e83d 7d19 d33d
00000030: 5379 1a3e a0b4 8ebe cff1 113e f6d7 51be
00000040: e9e0 debc 3817 993e e8c4 653d 584d abbd
00000050: b709 8fbd b6e2 f8bd 99aa c13d 743f 33bd
00000060: 521b 0e3d a4a7 50bd 442d 113e 7402 04be
00000070: b63c dcbd 9b1c 863d 8cb7 78bd 2f4e ba3d
00000080: 298b 1f3e 7258 4abc 9b13 0c3e eab5 3a3d
00000090: 3aea 71be d255 ce3c ac68 273e b3a0 993c
000000a0: 2330 3c3e 33ea 7dbe 1c51 d0bd 30eb 13bd
000000b0: cb3e 4a3e 6b45 7dbe 6363 55bd dc01 043d
000000c0: 43de 0e3e dcbe 203e 1297 c8bb 64ef 823e
000000d0: d43a 683d bb23 433e 5d50 663e 5cae 473e
000000e0: e534 60be e71c a3bd fb2d 203d be42 103e
000000f0: e8a9 2dbe 3766 8ebe e812 31bd 28c5 b53b
-0.18912812 0.047927193 -0.08259608 0.16448046 -0.21708049 -0.051798113 -0.012566007 -0.15265022
0.014362881 0.012144464 0.11345851 0.10307596 0.15085344 -0.2787218 0.14252399 -0.20492539
-0.027206855 0.29900527 0.056095988 -0.083643615 -0.06984275 -0.12152617 0.09456367 -0.043761685
0.034694023 -0.050941125 0.14177424 -0.12891561 -0.10753767 0.06548425 -0.06072192 0.090969436
0.15580429 -0.012350189 0.13679354 0.045583643 -0.23624507 0.025187407 0.16348523 0.018753385
0.18377738 -0.24796371 -0.101717204 -0.036112964 0.19750516 -0.24733512 -0.052096736 0.032228336
0.13951974 0.15697807 -0.0061215246 0.25573266 0.056696728 0.19056599 0.22491594 0.19500107
-0.21895178 -0.07964497 0.03910635 0.1408796 -0.16959345 -0.2781236 -0.04323092 0.0055471845

weight f4 [4, 16]
00000000: c3d2 dc3c d79d d83d bef1 aebd 9e6c 313e
00000010: d127 4e3e 74f4 113e e927 2dbe 8276 113e
00000020: 705a 3d3e d60b 7fbd dfad bbbd c521 06be
00000030: 1277 373d 758d 373e 8573 d4bb 9199 393e
00000040: 030f 6c3d 2e1c c0bd 5970 2b3e cd02 773d
00000050: 10bf 433e a818 12be 2db9 783e eea1 18be
00000060: bb3b 3d3e 3bbe bd3c 41ce 4e3e ce33 1ebd
00000070: 69ee d63d 87e5 3cbe a301 01be 1812 0f3c
00000080: 7bb8 403d 2210 133d b41a a2bd b903 c23d
00000090: 88aa c23d 6978 1a3e f32c 3bbe 8c73 843d
000000a0: 8430 78be ef27 c83d 8a7c 83be 8c05 de3d
000000b0: 7377 463e f366 54be 9b1c acbd eaf4 053e
000000c0: 89cd 523e 8d71 1b3e d1fe edbd 6814 09bd
000000d0: ab2e 5a3d 2833 913e ea18 c8bd 7d3f 14be
000000e0: afab 13be 3b8a 63bc fd4b 6fbb b3ef 57be
000000f0: 2ee2 b93c f95a 8fbe c1e7 6a3d 3314 6ebe
0.026955968 0.105769806 -0.085422024 0.1732659 0.20132376 0.14253408 -0.16909756 0.14205363
0.1849153 -0.062267147 -0.09164023 -0.1309882 0.04479129 0.17925055 -0.0064834976 0.18124987
0.057631504 -0.09380375 0.16742076 0.060305405 0.19115853 -0.14267218 0.24289389 -0.14905521
0.18479817 0.023161998 0.20195867 -0.038623624 0.10494692 -0.18446933 -0.1259828 0.008732341
0.047050934 0.035904057 -0.079152495 0.09473366 0.095051825 0.15084995 -0.18278866 0.06467351
-0.24237257 0.09773242 -0.25680953 0.10840902 0.19381504 -0.20742397 -0.084038936 0.13081709
0.20586218 0.15180035 -0.11620868 -0.033466727 0.053267162 0.28359342 -0.09770377 -0.14477344
-0.14420961 -0.013887937 -0.0036513798 -0.21087532 0.022690859 -0.27999094 0.057349924 -0.23249893

weight f4 [4, 16]
00000000: 2e1f 72be 55bf 073e 0b49 8abe 90e4 9e3d
00000010: 0057 1d3e 3e2b 59be b011 afba b3d9 1bbe
00000020: cc10 16bd 6e76 5dbe 7015 d4bd 85ab 41be
00000030: c7bd 1ebe 006c c63d 70a6 703e eb2e 1fbe
00000040: e592 efbd 2470 c63c f031 0cbe 86d2 da3c
00000050: 5452 a43e 5b2e 5cbd ff7e 523e 6bc6 593e
00000060: 7a1b cd3d 8902 b03b 97b1 e33d f758 85be
00000070: a298 823d 2c05 52be 982e 843d e567 273e
00000080: 40a9 5cbc 798c babc 2f6d 46be f2d2 e3bd
00000090: 722d ccbd a80f 243d f1f1 60bc 8f69 043e
000000a0: 0f05 97bd 92a5 d03d 6be1 7abd 5153 313e
000000b0: cf82 283e 065a 71bc edf5 983c 928f 70be
000000c0: 3915 833c 4c5a 9d3d fd75 2b3e e995 3b3e
000000d0: 8be1 11be 150d 54be 7624 38be 355f 673d
000000e0: 29ad 73be 86f4 e2bd 34df fe3c e349 143e
000000f0: 24b6 b5bc 1940 50be 9e24 2e3e acc0 16bd
-0.23644707 0.13256581 -0.27008852 0.077584386 0.15365219 -0.21207902 -0.0013356712 -0.15219764
-0.036637112 -0.21627209 -0.103556514 -0.18913086 -0.15502082 0.09688568 0.23500991 -0.15545242
-0.1169794 0.024223395 -0.13690925 0.026711714 0.3209406 -0.053755146 0.20556258 0.21267097
0.10015006 0.005371396 0.11117857 -0.26044437 0.06376769 -0.20509785 0.064541996 0.16348226
-0.013468087 -0.02277206 -0.19377588 -0.11124219 -0.099696055 0.040053993 -0.013729558 0.12930892
-0.07374012 0.1018783 -0.06125013 0.17316939 0.1645615 -0.014730936 0.018671954 -0.23492268
0.01600133 0.076832384 0.16744228 0.18318905 -0.14246194 -0.20708115 -0.17982659 0.05648728
-0.23796524 -0.110817954 0.03111229 0.1448131 -0.022181578 -0.20336951 0.17006156 -0.03680484

weight f4 [4, 16]
00000000: b52a 32be 2cf1 db3d f7dd 15be 26b3 4fbd
00000010: 7fd0 98be f051 95be c1dd e93b d9e6 053e
00000020: 4726 e7bd e104 84be 78e6 883d 2c65 b23d
00000030: a251 273d e148 603e 45f0 c43d cd2f 1dbe
00000040: 8a14 9c3d 49f6 2abd 595c 67bd 7f4c f83d
00000050: 137d be3d d1d6 81be ca5b 253d 08fe f6bd
00000060: 6421 81bd 08db d8bd fe71 1c3e c3db a83c
00000070: 7924 093e d11e 003e 82d9 91be 95d0 f03d
00000080: b5aa 423e efe2 4fbe 7940 56be 06c0 47be
00000090: 191c 003e 271e 46bd 16df 52be 61e5 68be
000000a0: d333 e9bd d6a6 1c3d fb46 17be 1e6a ab3b
000000b0: 9fc0 3c3e 1f7b 8cbd 0fa0 b6bd fc99 0b3e
000000c0: 8519 463e e93d 343e c2e3 aabd 4db4 5dbe
000000d0: 8def 3abd 2f81 8cbd f0bd 02be 5247 8f3c
000000e0: 1bc4 ec3c e01a 423e 1d9e 33be 6e75 303e
000000f0: 171f 95bc 1bac 0f3e 1f34 60be 72d9 193c
-0.17399104 0.10739359 -0.14635454 -0.05070796 -0.2984657 -0.29164076 0.007137031 0.13076343
-0.11286598 -0.25784972 0.066845834 0.08710703 0.040849335 0.21902801 0.0961614 -0.15350266
0.07621105 -0.041738782 -0.056484554 0.121239655 0.093012 -0.25359204 0.04037074 -0.12060171
-0.06305197 -0.10588652 0.1527786 0.020612603 0.1339282 0.12511756 -0.28486258 0.11758534
0.19010432 -0.20301412 -0.20923032 -0.19506845 0.12510718 -0.0483686 -0.20592913 -0.22743751
-0.11386838 0.038245045 -0.1477317 0.005231156 0.18432854 -0.06859421 -0.089172475 0.13632959
0.19345672 0.17601742 -0.083442226 -0.2165081 -0.04563861 -0.06860577 -0.12767768 0.017490063
0.028902104 0.18955564 -0.17540784 0.17232296 -0.018203301 0.14030497 -0.21894883 0.009390222

weight f4 [16, 16]
00000000: 408c f73b 0e64 55be 294e 6dbe 0f6d 673d
00000010: 9d3c a03d 4944 f0bd 340b 8dbd a1fa 313d
00000020: 0a30 16be de12 9a3e e2df 823d f071 6d3d
00000030: 4066 3dbe b69e d4bd 66fe f73d 8fa2 be3d
00000040: a04a 8fbe 8e6a 2cbe 728c 6a3e cb07 b3bd
00000050: e69d 513d 905c 013e a7f0 f83d ac93 69bd
00000060: 54cc 1e3e 5728 02be 7a5e 503e 5e54 8d3e
00000070: 8b17 1ebd 44d0 3cbe 6752 a13d b398 163d
00000080: 4de2 42bc 92dd 723d 3662 e73d d097 793e
00000090: 1f78 2abe 8421 943b 28e0 783c 727d 8bbe
000000a0: 8aa5 d0bd df93 fb3d 622b 2abc fae1 15bd
000000b0: 6aac 1c3d fa52 6bbe 43bf 353c a142 ebbd
000000c0: 4124 213d 7156 34be 54db 50be 5ff9 a5bd
000000d0: 8100 0dbe 7ed2 a43c acd0 87bd c8ec 173e
000000e0: 401f 04be 0305 1cbe 6359 65be 52d9 6dbe
000000f0: 4de1 833c 4a5f 033e 3b89 14be 7b49 d4bd
00000100: a3b6 2dbd 6e31 f1bd da0b f2bd 408e 99bb
00000110: c3e9 2fbe 76f5 a53d 4bc6 0b3d e5d9 843e
00000120: fc6f 5e3e dadf 913c ba68 ef3d 37b0 c9bd
00000130: 764b 6d3d 8a34 203e b4a5 943d 8b46 2fbe
00000140: 96fb 293e 63a9 fa3d d9cb 6b3d 5fb2 be3a
00000150: d76b 153e cc56 1dbe a1ab 863e 9932 2fbd
00000160: 90e2 0abe 24a9 4b3e 5ef0 45be 8990 b03d
00000170: 9b1c 633c 22fd efbd 01d2 e9bd 4ec7 353d
00000180: ad39 6e3d 8447 173d 5d85 d1bc df64 5e3e
00000190: 73f8 bcbd 5c62 8d3e 1611 343e 1ea8 a3bd
000001a0: 7cc5 613e 7f40 b4bd 57d0 0b3e ef6f d6bd
000001b0: ba2a a83d 1fa9 dbbd ceb7 75bc 22e7 2e3c
000001c0: 4448 673e 7965 283d 73ed b33d fb25 56bd
000001d0: f9de a93d 5428 48be 5439 f23c 370c 323e
000001e0: 5d86 3c3e 51c9 bfbd ce9c 873d 7885 6b3c
000001f0: 0cd7 58be c720 013e 1b09 143e 5be3 a7bd
00000200: 9077 d8bc d156 483e 1944 023e 6b66 283d
00000210: 4030 14be f9ca ca3d 191f b9bd 58d9 3f3c
00000220: bf3c 8c3d 40ed 863e 2254 03be ab16 563e
00000230: 3f00 19be be1d 2f3e aef5 063d 3775 9cbd
00000240: 9ca8 1bbc 8919 1bbe c961 473e 2462 3cbe
00000250: 7048 2fbe fc8a 26bd 70c3 8a3e 8f05 61be
00000260: ef6c bf3c 0179 753d ab61 80bd f880 2ebe
00000270: 2fc8 2d3e 189d 343e b816 6a3e 8a67 0a3d
00000280: 2702 25bd db27 18bd 2dd5 1cbe 3ecf 743d
00000290: 6f52 823e 142e 283e 2f33 ecbd 5780 303e
000002a0: 4a32 74be cfcb 223d 78fa 2abd 830c 87be
000002b0: 3ad2 373e bead d73d 9c28 103e e617 e83d
000002c0: 1ead eabd e75e dfbd 7ba3 99bd f358 48bd
000002d0: 7b12 03bd 645b 903e c915 aa3d ed1e 913d
000002e0: 375e 893e 6c11 60be 74ea a53d 5e00 e93d
000002f0: 104d 843d 3ad8 1c3e b905 17bb d30d 583e
00000300: 3dfb 64be 83dd 47bd e9c9 03bd f1c2 eb3d
00000310: 0e97 0abe 7f12 86be 0a8b 203c 8685 8dbd
00000320: dbd8 393b c395 bbbd deed a7ba f370 8c3e
00000330: 7751 863e db7c 853e 8d68 57be eee3 35bd
00000340: e3bd b1bd c5ec d03d 7f6e e83d 3f49 21ba
00000350: 7a5b 313e 9cb7 42be 686c a73d f26c bc3d
00000360: 9749 02be babc 4f3e 4cd8 96bd 9a4d babd
00000370: 8502 573d c3ed 62be 8cc7 9bbd 28a6 0b3d
00000380: 8d3d 64be f900 58bd 4585 1bbd ae8b 0dbe
00000390: c259 2b3e ca20 e03d 2fdb 31be 20b0 08be
000003a0: 6a0c 66bc 7e42 0d3e d6b1 343e 7f7c 5e3e
000003b0: da2f 003e 11ed 8f3e 3326 793d bd98 0e3d
000003c0: 76d5 463e aa01 133e f31b c5bd 8f82 dc3d
000003d0: 00a2 153e 642b edbd 06bb c53c c711 27be
000003e0: 0633 0b3e 17d6 663c db7c 373d fcc7 06be
000003f0: af9d 6f3e fb75 c83c 4171 f23d 329b 11be
0.007554561 -0.20838949 -0.23174347 0.05650049 0.07824061 -0.11731774 -0.068869025 0.04345191
-0.14666763 0.3009252 0.063903585 0.057969987 -0.18496037 -0.10381834 0.121090695 0.09308349
-0.27986622 -0.16837522 0.22905138 -0.08741721 0.051175974 0.12632966 0.12155276 -0.057025596
0.15507632 -0.12710701 0.2034854 0.2760343 -0.03859667 -0.18438822 0.07877045 0.03676672
-0.011894775 0.059293337 0.11298029 0.24374318 -0.16647385 0.004520597 0.015190162 -0.27244145
-0.10187824 0.122840635 -0.01038632 -0.03659246 0.038250364 -0.22980872 0.011092964 -0.11487318
0.039341215 -0.176111 -0.20396167 -0.081042044 -0.13769723 0.020119902 -0.06631598 0.14836419
-0.12902546 -0.15236287 -0.2239738 -0.23227432 0.016098643 0.12829319 -0.14505474 -0.10365578
-0.042410504 -0.11777006 -0.11818667 -0.004686147 -0.17179017 0.081034586 0.034124654 0.2594749
0.21722406 0.017806936 0.11689897 -0.098480634 0.057933293 0.15645042 0.07258168 -0.17116754
0.16599879 0.12239339 0.05756745 0.0014549008 0.14591919 -0.15365142 0.26302817 -0.042772863
-0.13562989 0.19888741 -0.19329974 0.08621318 0.013861801 -0.11718203 -0.11417008 0.044379525
0.058160473 0.036933437 -0.025576288 0.21718167 -0.092270754 0.27614105 0.17584643 -0.0799105
0.2204799 -0.08801364 0.13653694 -0.104705684 0.082112744 -0.10725617 -0.014997436 0.010675224
0.22586161 0.041112397 0.08785524 -0.052282315 0.08294482 -0.19546634 0.029568352 0.17387472
0.1841063 -0.0936457 0.06621705 0.014375083 -0.21175784 0.1261016 0.14456598 -0.081976615
-0.0264242 0.19564368 0.1272129 0.0411133 -0.14471531 0.09901995 -0.090391345 0.011709534
0.06847524 0.26352882 -0.12825063 0.20907085 -0.149415 0.1710119 0.032949142 -0.076395445
-0.009500649 -0.1514646 0.19470896 -0.18396813 -0.17117476 -0.04065989 0.27102232 -0.21974777
0.023367373 0.05992985 -0.06268629 -0.17041385 0.16970895 0.17638052 0.22860229 0.03379015
-0.040285256 -0.037147384 -0.15315695 0.059767954 0.25453517 0.16423827 -0.115332 0.17236458
-0.23847309 0.03974515 -0.041742772 -0.26376733 0.17951289 0.105311856 0.14077991 0.11332683
-0.11458801 -0.10906773 -0.075018845 -0.048912954 -0.032000046 0.28194726 0.083049364 0.07085977
0.26829693 -0.21881646 0.08101359 0.11377023 0.06460011 0.15316859 -0.0023044182 0.21099024
-0.22361465 -0.048795234 -0.03217498 0.115117915 -0.13534185 -0.26185986 0.0097987745 -0.06910233
0.0028358016 -0.09159424 -0.0012811979 0.27429923 0.26234028 0.2607182 -0.21035977 -0.044406824
-0.08678796 0.1020141 0.113492005 -0.0006152577 0.17320052 -0.19015354 0.08174974 0.09200467
-0.12723385 0.20286837 -0.07365474 -0.090968326 0.052492637 -0.22161011 -0.0760642 0.034094006
-0.22289105 -0.052735303 -0.037968893 -0.13822815 0.16733459 0.10943754 -0.17368768 -0.13348436
-0.014041046 0.13794896 0.17645964 0.21727179 0.12518254 0.28110555 0.060827445 0.03481363
0.19417366 0.14356104 -0.096244715 0.107670896 0.1461258 -0.11580542 0.024137031 -0.16315375
0.13593683 0.014089129 0.044796806 -0.13162225 0.23399995 0.02447032 0.11838008 -0.14219359

bias f4 [16]
00000000: 7184 8e3d e597 5ebe d36d 353e 601b 0cbe
00000010: cb0b e63d d6f1 24be 097d 28bd dcd4 66be
00000020: 684a 41bd 180f 853d 2bbe 053e 51c9 5c3d
00000030: 3005 f33d fc1b b53c 3f8f 083e 43e5 f93d
0.06958855 -0.2173763 0.17717676 -0.13682318 0.11232718 -0.16107878 -0.041134868 -0.22542137
-0.0471901 0.064970195 0.13060825 0.053902928 0.11866224 0.02210807 0.13335894 0.12201931

weight f4 [64, 16]
00000000: 8b5e 34be 1ca6 1ebe db4b 073e b6cf e63d
00000010: fc87 47bd 71b3 ca3d c5f9 3dbe 93f8 ff3c
00000020: 66e6 863e 4c2a f0bd a6fc 353e ef84 8ebc
00000030: 2aab 9ebd cbc4 823e 36d1 403d 1bc9 ea3c
00000040: ec49 a53e 1a31 243d 2250 6d3e 221d 063e
00000050: 2cbe 8bbd be03 083e 704b 093e 261d 053a
00000060: bade 3a3e 5ab6 6d3e 49ef 85bd 8cfd 773c
00000070: 0ed3 dbbd cab7 81be 3ebe 1dbc c44f 56be
00000080: b358 65bd cdbf 5abe 64e8 69be 7b1b 7f3e
00000090: 0a2e e73d c524 1abe 3348 173d eb89 5ebe
000000a0: c72d 20be c5b2 20be adb8 d93c d539 bb3d
000000b0: 2b77 fb3d f7e6 593d 3856 e93b 9383 b13d
000000c0: 11dd 0f3e cfbd 833e 4586 5abd 7c3d 343e
000000d0: 53bb fbbd ff5f b93d 90ec 0ebd 8614 31be
000000e0: aa10 9abd aa28 f8bd 4bd5 99bd ab2c 263e
000000f0: 6bb6 573e c546 06be 4bc3 4fbe 70b8 a5bd
00000100: e945 39be 3bf1 893e 19cb 24be b10b 20bd
00000110: 5d9c 483e 6bc3 b53c a7f9 2b3e 3e59 2c3e
00000120: e7f1 2d3e b63a 2ebe 08fc e13d b1cc e33d
00000130: 3e42 713c 500c b53d b807 863e 148a 0ebe
00000140: 3feb 273c 3eec 0fbe aedc f33d de50 243d
00000150: 4c55 22be 8d2f f0bd e6c1 cb3d 3998 94bc
00000160: 19ba 1abe 94c7 3b3c 8e78 e3bc c6c6 793e
00000170: bf96 3bbd da2a eabd cd64 9f3c 102a 013e
00000180: 5c3f 82be 28f6 6f3e f8e4 68be 82e6 3d3e
00000190: f541 453e cd68 1ebd 1e20 10be f2a0 e9bd
000001a0: 79f2 98bd c0ba 3cbe 254d 383e b3e7 08be
000001b0: e063 123d cc05 0dbe f461 d73b d2de cdbc
000001c0: d75c 23bc 2dc1 273e 3e34 fa3c bcc6 c03d
000001d0: 6d9d 713e a56d 9dbd 2519 523e 4656 613e
000001e0: 9445 86bc 153b 52bd 0ad6 983d f526 17bd
000001f0: 6982 6fbe 9004 a2bd e6a3 6cbe 66c0 d63b
00000200: 0b8f 08bd e174 1c3e 03b4 18be 9b5b 71be
00000210: e49f 7ebe b029 823d 9b27 89bd afc4 d2bd
00000220: 8b42 bebd 6d5c 90be 86f8 5b3e 9ecb 1a3e
00000230: 6fb8 f93c bf6f 883c 45a3 f3bc 2274 bd3d
00000240: eb15 26be bcac 2dbe aaec 2a3d 2944 723d
00000250: 1455 d73d 5f7b 163e db00 533d 2a91 e4bd
00000260: 91be 0abc 5347 2a3e d3fa c2bc d4ad 163e
00000270: 87be 6f3e 4a3b 223e 4144 0f3e 3220 4f3e
00000280: 25d1 2abe ff86 9abd 5177 48bd e362 7abd
00000290: 99cb 6a3e 8c9e c23d 188c fabc 12a3 603e
000002a0: 5dc8 13be 4c09 543e 6e56 2ebe 307c 96bc
000002b0: 2095 adbd 880d 333d a766 85bd ce07 4c3e
000002c0: fef9 903e f116 7f3e b6e3 a5bd d40d 9abd
000002d0: 75b4 abbd e618 d03d 36bf 97bd 1468 d63d
000002e0: 813e 52be f8a6 66be 9ad6 5a3e 4f54 31be
000002f0: 6484 0abe e7ab 3dbc 19e4 f1bd 159a bd3c
00000300: 9201 08be 256d 22be 137b 74be 48a2 1d3e
00000310: b2e8 5bbe d309 653d ffd0 fe3c 0938 6cbe
00000320: b2f3 953c 7882 27bd 60bd 73be 60ac 3dbe
00000330: 310e 24be ee42 79be fb32 243e 373c 693e
00000340: 44a7 c73d 395e dc3d 9f3a c13d 9d5c e4bd
00000350: 3812 d63c 01f9 283e 3715 463e 79a6 4ebd
00000360: e0d5 34be f9a8 dabd fc8e 293d 3c04 483c
00000370: bc36 dd3c 0028 ef3d 8b2e 0f3d e64d 23be
00000380: b675 f33d 98b7 103e 662e d5bd 9dbe 1bbe
00000390: 2608 1f3e 1512 113e c38f 453e 8153 3a3e
000003a0: 25f0 22be 606f 463e 98bf 703e 66d2 203e
000003b0: 3f6f aa3d dbb5 afbd b832 a43d 19bd f7bd
000003c0: 4add c73d 1e71 293e 23b5 843d fb3a 67be
000003d0: cc3f 1c3d ff19 0ebe f723 71be 01b5 4b3e
000003e0: 92f7 ab3d dbca a83d c546 80bd c735 cbbd
000003f0: f901 bbbd d29c 583e 9786 f3bd 5ca8 f1bd
-0.1761419 -0.15493053 0.1321253 0.112700865 -0.04871367 0.09897507 -0.18552311 0.03124646
0.26347655 -0.117268175 0.17772159 -0.017397372 -0.07747491 0.25540766 0.04707452 0.028660348
0.3228296 0.04008589 0.231751 0.13097051 -0.06823382 0.13282678 0.13407683 0.0005077891
0.18249026 0.23214093 -0.06539781 0.015136134 -0.10733615 -0.25335532 -0.009627877 -0.20928866
-0.055992793 -0.21362229 -0.22842556 0.24912827 0.11288078 -0.15053089 0.03693409 -0.21732299
-0.15642463 -0.15693195 0.026577318 0.0914189 0.12278589 0.05319878 0.007120874 0.08667674
0.14049174 0.2573075 -0.053350706 0.1760158 -0.12291589 0.09051513 -0.034893572 -0.17292985
-0.0752271 -0.12117131 -0.075113855 0.16227977 0.2106568 -0.13112934 -0.20289342 -0.08091819
-0.18093075 0.26941857 -0.160931 -0.03907365 0.19590898 0.02218791 0.16794454 0.16830918
0.1698681 -0.17014584 0.11034399 0.11123026 0.014725266 0.08840239 0.26177764 -0.1391986
0.010248958 -0.14054963 0.11907326 0.040116183 -0.1585285 -0.117278196 0.099490926 -0.018138992
-0.15110053 0.011461157 -0.027767446 0.24392232 -0.04579806 -0.114339545 0.019457245 0.12613702
-0.25438964 0.23433745 -0.22743595 0.18544963 0.19263442 -0.038674165 -0.14074752 -0.11407651
-0.07468123 -0.18430614 0.17998178 -0.13369636 0.03573978 -0.13771743 0.006572956 -0.025130663
-0.009970865 0.16382284 0.03054249 0.094129056 0.2359521 -0.07686929 0.20517404 0.22005567
-0.0163906 -0.051325876 0.074627 -0.036902387 -0.23389591 -0.079110265 -0.23109397 0.0065536974
-0.03333954 0.15278961 -0.14912419 -0.23570101 -0.24865681 0.063556075 -0.06697007 -0.10291421
-0.09290036 -0.28195515 0.21481523 0.15116736 0.030483453 0.016654847 -0.029740939 0.09250666
-0.16219299 -0.16960424 0.041729607 0.059147034 0.10514274 0.146955 0.051514488 -0.111605
-0.008468286 0.1662877 -0.023801243 0.14714748 0.23412524 0.1584293 0.1399088 0.20227125
-0.16681345 -0.0754528 -0.048941914 -0.061129462 0.22929229 0.09502897 -0.03058438 0.21937206
-0.14431901 0.20706671 -0.17025158 -0.018369764 -0.08475709 0.043714076 -0.0651372 0.19924852
0.2831573 0.24911095 -0.08100073 -0.07522169 -0.08384029 0.10160999 -0.074095175 0.1046907
-0.20531656 -0.22524631 0.21370926 -0.17317317 -0.13527066 -0.011576629 -0.11811084 0.023144761
-0.13281849 -0.15861948 -0.23875074 0.15393937 -0.21475485 0.055917572 0.031105516 -0.2306825
0.01830468 -0.04089591 -0.2380271 -0.18522787 -0.16021039 -0.24341938 0.16035073 0.22776876
0.097487 0.10760159 0.09435009 -0.11150477 0.026131734 0.16501237 0.1934403 -0.05045173
-0.17659712 -0.1067676 0.041396126 0.012208041 0.027003638 0.11677551 0.034956496 -0.15947685
0.11887686 0.14132535 -0.104092404 -0.15209432 0.15530452 0.14167054 0.19293122 0.18195917
-0.1591192 0.19378424 0.23510587 0.1570526 0.08322 -0.08579608 0.08017486 -0.120966144
0.097590044 0.16547057 0.064798616 -0.22581093 0.03814678 -0.13877104 -0.23548876 0.19893266
0.0839683 0.082418166 -0.06263498 -0.099223666 -0.09131236 0.21153572 -0.11890905 -0.1179969

bias f4 [64]
00000000: d664 40be d5a2 06be a8ad 9b3d 1ac5 45be
00000010: fa4b 1abd fcbd 2e3e a8ed b0ba 37b7 863c
00000020: 494b 39bc 00f6 f3bd 0212 943d bb7a a53d
00000030: 271e 82be 55d0 463e 8ee8 da3d 2bdc 62be
00000040: 005a 0bbd db93 193c 66c2 4a3e 06be 87bc
00000050: b615 0dbe 8318 72be fd1a e03c 453b 5dbe
00000060: f7b9 6ebd 4b50 053e 89c8 e63d 5cea e93d
00000070: 8857 24be 5102 6fbe ebc4 453e 5146 a5bd
00000080: ea5e 29be 7eb5 12bd 10ed 983d e14c 32be
00000090: 5d4f ba3c 81d6 e0bd 7934 843e 94f2 a13d
000000a0: ea0a 6b3c 3f4c 243d 3175 63bd 60c4 b8bd
000000b0: ffee 10be 4338 693e 3ade 35be d9b2 2f3d
000000c0: aae2 123e 8c6b debd 8576 483e f8b5 edbc
000000d0: 0685 d5bd 1e86 e93d 6bb9 443e c38b d3bd
000000e0: fba1 4f3d b48f a0bc 18e6 0fbe 1dbc 89be
000000f0: c48a 8dbc e036 743d ba35 df3d f43d 513d
-0.18788466 -0.13148053 0.07601482 -0.1931347 -0.037670113 0.17064661 -0.0013498561 0.016444786
-0.011309453 -0.11912155 0.07229997 0.080800496 -0.2541363 0.1941541 0.106888875 -0.221543
-0.034021378 0.00937363 0.1980072 -0.016570102 -0.13777813 -0.23642163 0.027356619 -0.21604641
-0.05828282 0.1301891 0.11268718 0.11421654 -0.16049016 -0.23340727 0.193134 -0.080700524
-0.16540113 -0.035817616 0.07467091 -0.1741214 0.022742921 -0.109784134 0.25821283 0.07907596
0.014345864 0.040111776 -0.055531684 -0.090218306 -0.1415367 0.22775368 -0.17760554 0.04289517
0.14344278 -0.10860357 0.19576462 -0.029017434 -0.10425763 0.11402534 0.19211356 -0.10329392
0.050691586 -0.019599773 -0.14052618 -0.26901332 -0.017278083 0.059622645 0.108989194 0.051084474

weight f4 [16, 64]
00000000: 5747 ba3d 1fc9 88bc abf6 c2bc 0026 e4bd
00000010: d1c6 913d ee80 cabd 4574 a23b 4151 63bb
00000020: 1818 92bd 7fb0 56bd b310 51bd 2e13 bf3b
00000030: d2db 9cbd 3587 213d e02c ebbd 1883 1dbc
00000040: 026d de3d fa66 d03d a478 923d 46fc cd3d
00000050: 5f47 a93c 981b 533d f173 81bd c936 a23c
00000060: d078 6e3d 27ea d73d 8859 fc3c 096b c8bd
00000070: 112a bc3d 87cd d5bd f1a1 1dbe a4be 10bd
00000080: 6b1d 71bc eaaf 103d 90b3 b23d d4f6 12bb
00000090: 6bf4 a33c e0d8 b03d feb0 123e 9cc3 88bc
000000a0: c27d ae3d b8b7 bfbd b595 293d fad2 e9bc
000000b0: b498 ffbd 29e8 b13d d719 d7bc 044a b93d
000000c0: 2659 dfbc 1502 edbc d04e 75bd 0edf 033e
000000d0: f3cd c63d 9ffc 92bd 9db9 86bd d28e 20bd
000000e0: 0e8f 08bd eaf5 d9bd 77ad d1bd fc3f cebd
000000f0: eeac 6fbd c34b 84bb 509a 98bd 4665 9dbd
00000100: e043 b7bd 8df4 bc3d 71cf 083d bc7a d23d
00000110: e595 0c3e 2fbf b7bc 904e 473d 2be5 f63d
00000120: 3286 213e 7e24 a4bd b90f 59bd 382c b73d
00000130: 8eb9 3abd 8772 3e3c b346 e5bb 526d a83d
00000140: 472b d6bd 49ea a93d aca4 053e 2412 c0bc
00000150: 2225 f9bd b197 f4ba f715 e23d ef0f 0dbd
00000160: c426 ccbd 30f5 e83d dfab 15bd fc91 1abd
00000170: 3c38 403d 2155 943c 98f8 c6bd 5eeb a0bc
00000180: 0dad c0bd 7a1d ba3d a9ca b43d 7a7f 29bd
00000190: f91c 6e3d c29c e73d 6e4f 003e bc13 1cbd
000001a0: 53fa 54bd 3ef3 4a3d 51aa bf3c 7f03 c9bd
000001b0: 0740 d3bc 16a1 023e 4b7d 99bc 9e81 b43b
000001c0: 3049 22bd 055d 4ebd 8153 f9bd 5fc2 b33d
000001d0: 910a d53d 8f34 edbb 3568 3d3d c472 1b3e
000001e0: 5a5d 07bc 7b81 d4bd 8e64 dbbd 0efc 58bd
000001f0: 434b 4fbd b59f 2d3d f30e 983b bfa6 22bd
00000200: 2a19 18be 7b4f 843d 8238 503c b2c7 bebd
00000210: 5a14 b83d 3c02 31bb 0c1d c03c e162 8f3a
00000220: ac13 cdbd 3d28 03be 0025 31bd a6ae fb3c
00000230: fb8f 98bd 467a 0abd 5bf5 23bb 1d12 e2bd
00000240: 73dc eabd a44f fb3c 4ad4 d6bd 77fa 363d
00000250: 1bcd 8f3d 6945 55bd 898d 3a3d 982b b0bb
00000260: 17ec a1bd 2332 e9bc 509e ce3d 2b1c 4d3d
00000270: 45ac 65bd c938 a83d e48f ffbd 6193 ac3c
00000280: 8212 ca3c dbec a63c c6aa b6bd 93a2 bf3d
00000290: 192f e8bd 606f 03bd db3f ce3d 227f aebc
000002a0: fb8e 04bd 5f24 9d3d bda1 48bd 4090 06be
000002b0: 5033 d0bd 7969 bb3d 6a92 003d fd0a 973d
000002c0: 0a5b f6bc b08b de3d 1196 52bd 5ef5 67bd
000002d0: 7e24 e3bb 3e02 e03c 720b a93b b7e6 c3bd
000002e0: bad8 023d 0759 a0bc df13 f6bd c9e7 38bd
000002f0: c9b8 d6bd 2c79 b13c 841d d73d 8a41 753d
00000300: 4430 c8bd 5604 013d fd3a 97bc 90e7 e03d
00000310: 5856 303d 16b0 953d 02bb c63d 8754 b1bc
00000320: 215b da3d 2b1e e9bb c87a 7fbd bc58 013e
00000330: 8a2f c0bc d54e b5bd 27a6 c8bd 965f 8d3d
00000340: 8239 0b3d 503c 9f3d 2162 8ebd d33d e5bd
00000350: 6ce7 b63d 0e9c dabd 0b1b c73d c8c6 35bc
00000360: e175 933c c82e b53c 2ed6 a4bd 32a3 383d
00000370: b15b 9cbc b88a 30bd 3df5 10be 1851 a8bd
00000380: 5636 0fbd f62c 143e 2a87 7ebb 8962 cf3d
00000390: be29 e93d 0e3d 7abd a912 cc3d 4508 0b3e
000003a0: 25fd 4fbd 5ef4 1ebd ea7f 623d a537 c03d
000003b0: 83f3 013e c82b d6bd 8de2 ba3c 3fe1 d03d
000003c0: 1cfc bbb9 2fac 153e f99b e1bc 9e7f 07bd
000003d0: 8151 ffbc f478 e53d e26a 083d dcbd 4f3c
000003e0: 809f cfbd d6da c23c 52b0 fabd cab7 22bb
000003f0: ce7c 4cbd d192 38bb a4e1 f0bc d9bc a33d
0.09095638 -0.016697465 -0.023799261 -0.111400604 0.07117999 -0.09887873 0.004957708 -0.0034685882
-0.07133502 -0.052414414 -0.051041316 0.005831144 -0.07659115 0.039435584 -0.114831686 -0.009613775
0.10860635 0.10175891 0.071519166 0.10057883 0.020663915 0.051539987 -0.06320942 0.019801514
0.058220685 0.10542708 0.03080441 -0.0978604 0.09187711 -0.10439592 -0.15393807 -0.03533806
-0.014716486 0.035324015 0.08725655 -0.0022424953 0.020014009 0.086351156 0.1432533 -0.016694836
0.0852008 -0.093612134 0.041402537 -0.028542984 -0.12480298 0.08686859 -0.026257439 0.090473205
-0.027264189 -0.028931657 -0.059889615 0.12878057 0.097072504 -0.0717709 -0.06578372 -0.039198704
-0.033339553 -0.106426075 -0.10238164 -0.10070798 -0.058514528 -0.004037352 -0.07451308 -0.07685332
-0.08948493 0.09226332 0.033400957 0.10277316 0.13729055 -0.02243003 0.048658907 0.12055429
0.15773848 -0.08014773 -0.05299351 0.08943981 -0.045587115 0.011623985 -0.0069969534 0.08223976
-0.10457473 0.082966395 0.13051099 -0.02344615 -0.12165286 -0.001866093 0.11039346 -0.034439024
-0.099683315 0.11374891 -0.036540862 -0.037736878 0.04692863 0.018106999 -0.09715384 -0.019643482
-0.09408007 0.090876535 0.08827717 -0.041381337 0.0581331 0.11309196 0.125303 -0.038104758
-0.05199654 0.04954838 0.023396643 -0.0981512 -0.025787367 0.12756762 -0.018736502 0.0055086156
-0.03962058 -0.05038168 -0.1217413 0.08777308 0.10402406 -0.0072389315 0.046241958 0.15180498
-0.008262003 -0.10376259 -0.10712539 -0.052974753 -0.050608885 0.042388637 0.004640454 -0.039709803
-0.1485335 0.06460472 0.012708785 -0.093154326 0.08988257 -0.0027009388 0.02345135 0.0010939502
-0.10013518 -0.12808318 -0.043248177 0.030722927 -0.07449337 -0.033808015 -0.002501807 -0.11038611
-0.114678286 0.030677624 -0.1048971 0.044672456 0.07021543 -0.052068148 0.045545135 -0.0053762905
-0.07906359 -0.02846629 0.100887895 0.05007569 -0.056072492 0.08213956 -0.12478617 0.02106637
0.024667028 0.020376613 -0.08919291 0.093571804 -0.11337108 -0.032088637 0.10070773 -0.021300856
-0.03236292 0.07672953 -0.04898237 -0.13140965 -0.10166037 0.09150977 0.03138963 0.07375143
-0.030072708 0.10866487 -0.051412646 -0.056630485 -0.0069318404 0.02734482 0.005158835 -0.0956549
0.031944968 -0.019573702 -0.12015509 -0.045142923 -0.10484464 0.021664225 0.105036765 0.059876956
-0.09774831 0.031498276 -0.018460745 0.10981667 0.043051094 0.07308976 0.09703638 -0.021646751
0.10661913 -0.007114192 -0.062372953 0.12631506 -0.023460168 -0.08852927 -0.09797316 0.06902997
0.03399039 0.077751756 -0.0695231 -0.11193433 0.08930859 -0.10674296 0.09721955 -0.011094756
0.018000545 0.022117034 -0.08048664 0.04507751 -0.01908669 -0.043101043 -0.14156051 -0.082185924
-0.03496393 0.14470276 -0.0038837888 0.10126216 0.11384915 -0.061093383 0.09964497 0.13577373
-0.050778527 -0.038807265 0.05529777 0.09385613 0.12690549 -0.10457569 0.022813106 0.10199212
-0.00035855256 0.14616464 -0.027540194 -0.03308069 -0.031166794 0.112047106 0.033305056 0.012679543
-0.10137844 0.02378599 -0.12240662 -0.0024828785 -0.04992371 -0.0028163681 -0.029404469 0.07995004

bias f4 [16]
00000000: 9257 083e 6fa6 15bd 9374 f7bd ab4f 833d
00000010: 546b 91bd b4ac 31bd f0ba 13bd 4a20 14bc
00000020: 23c0 ffbd f176 ef3d 2ff8 9fbd 6a5d 783d
00000030: f49d 8b3d cc50 b63d f198 803d dd5d 4e3d
0.13314655 -0.036535677 -0.12082782 0.0641168 -0.07100549 -0.043377593 -0.03606695 -0.009040901
-0.12487819 0.11692608 -0.07811009 0.06063596 0.068172365 0.089021295 0.06279171 0.050382484

weight f4 [16]
00000000: 0ce7 803f 8efc 843f 221f 823f c9a8 7f3f
00000010: e997 843f 0b90 773f 7c66 803f 3ce6 7b3f
00000020: cd06 7a3f 6c0e 793f 1b92 7d3f 8305 763f
00000030: 7fdc 793f 518b 7c3f fab2 7b3f f185 793f
1.007051 1.0389574 1.0165751 0.9986692 1.0358859 0.9670417 1.0031276 0.98398185
0.9766663 0.9728763 0.99051064 0.9610216 0.97602075 0.9865008 0.9831997 0.97470003

bias f4 [16]
00000000: bf38 9c3c 96ae 533c 8a58 3dbc 95e2 5d3c
00000010: b3ab 11bc f705 e73b 1123 383a 599f 563b
00000020: 544d b3bc 0258 b43c 97b2 a13c 0752 4abc
00000030: 1e6f e7bc 5233 61bc cadf c33c 5a10 a8bc
0.019070027 0.0129200425 -0.011556754 0.013542791 -0.008891034 0.0070502716 0.0007024268 0.0032748787
-0.021887459 0.022014622 0.019738479 -0.012348658 -0.028251227 -0.013745146 0.023910422 -0.02051561
