model/testing_model.pth (torch, 439818 bytes, 208 tensors)

weight f4 [15, 32]
00000000: 2eff 763c 0d16 99bc 0ebc 74bc 1fdb 283c
00000010: cbb6 c83c ebd2 d6bc bd22 95bc 3c07 b4bc
00000020: 3aab 9b3c dbb9 0f3c 3cf1 cc3a e9d0 e1bc
00000030: b579 3abc 74ba df3c 7bd5 833b 7aa7 55ba
00000040: 4cf3 99bc 20e5 99bc 2922 a2bc 81a3 83bc
00000050: ccc4 dfba 3fa0 25bc 5568 3f3c 8eb4 e63c
00000060: 8255 853b 6a37 5c3c 6217 febb 6507 49bd
00000070: 7f2c 6bbc f92b ce3c 138e bdbb 63b1 e43b
00000080: c513 f7bc 7490 93bb 753c b03c 36d3 3e3c
00000090: 716e 0fbd 6d99 9bbc 5734 2d3d f27d d0bb
000000a0: 6bd4 c83a 01ea 433c 548f 80bc c6f5 5a3c
000000b0: ed3e a43c 5fdf a6bc 4e91 a8bc f270 9d3c
000000c0: 5681 023d d6cd 77bc 7f17 93bc 3d6b adbc
000000d0: 6a9d 0f3c b749 763c fb51 9e3c 3b75 523c
000000e0: a348 04bd cc7d e63c c98b 13bd 58c8 77bc
000000f0: 8033 8a3c dd14 1bbc 3961 cdbc 7168 a83b
00000100: 9bc7 2f3c 08ec 07bd 7560 303c bb73 38bc
00000110: 6bb9 513c c132 80bc 2ce5 373d d45c 90bb
00000120: 5bd1 ba3d c8d4 b1bc 6fbf a2bc 0c50 5cbd
00000130: 4cb6 5bbc 0c67 80bb cb42 18bc b06d 643c
00000140: e726 fabb 3f8b 6fbb fdaa bcbc 2ccb 8dbd
00000150: 80a0 bbbb 3f91 423c 076a b23d 463e d1ba
00000160: f2b6 9fbc 4ed7 243d 2607 7f3b 7b4a 9c3c
00000170: a9d4 46bb c665 00bd 84ad e83c a772 00bd
00000180: 37a9 b43c 84fb 3d3d abc6 b23b 766f 64bd
00000190: e757 7dbc 1219 e23c e8f8 2d3d 3102 a23b
000001a0: ea99 33bd b6e4 db3b 9333 463d 0efa a5bc
000001b0: a850 d4bb a239 493d 55ab 92bc adab a5bd
000001c0: 628f 96bc 6648 c63c a96e a9bc 1f3f b3bc
000001d0: bc5b 51bd f798 59bc 650a 89bc 8d12 b0bb
000001e0: bcc5 bdbc fc1e 22bd 3d7b 3abc ff7b 8e3b
000001f0: f474 093d 36eb a73c 375b 9d3c 4a59 36bc
00000200: 4b85 e03c 4f6b 433c cc1a 733a 23ee 953c
00000210: 3364 59bb ac77 343c 8f56 3cbd f930 1abd
00000220: 23c8 cb3c 7e36 32bd 5c4a d2bc aa48 873b
00000230: 88f9 103d ce64 81bc e3fe a73c ad6a bf3b
00000240: 5ef1 9bbc db51 24bd 7d6a 853c 629c 463a
00000250: 29b6 0b3c a6ae 0c3d e676 033d 0ab8 5cb9
00000260: f2b7 c43b 27f7 d53c f101 01bc f007 d0bc
00000270: 6952 4fbd 2189 b3bc 3031 c5bc 6007 9f3c
00000280: 989b 473c bedf 843c dba9 9dbc b525 ee3b
00000290: bcd1 fb3c 311f e33c d5d5 433c c71a 153c
000002a0: 57e9 31bd 0ae0 89bc 21a5 003d 2ffa 13bc
000002b0: 23a9 b9bc e637 cf3c a3be 6f3d 912d 53bb
000002c0: 8a75 0cbd 0928 d6ba 9fa4 4c3d 3987 1abd
000002d0: d78c ff3c 2551 10bb 71f5 78ba 8da3 173d
000002e0: 8181 c43c c4ba c139 b55b d5bc 6c62 c4bb
000002f0: de8e 0d3c 594c efbb 8374 bdbb b4db 7bbb
00000300: 43a6 a63c c609 c4bc fd1f 8f3c 115d 73bc
00000310: b250 e93b cc10 2b3c eba9 ecbc 3677 f3bc
00000320: 7441 f43c 3c3c 35b9 71ca 4cbc c433 313c
00000330: 238b 253d 7f43 37bd c427 343b 2ef5 993c
00000340: 89f0 cebb f26d 0d3c f32f 68bb 5d05 003b
00000350: 0060 babb d576 2ebb 2d2b adb9 6f33 5abc
00000360: 33f7 95bb 918e b73b 8afa b53c b8fa 3bbb
00000370: d834 3d3c 6a5d d03a dc52 d73c 9833 1dbd
00000380: 48e5 983c 5f8a 0abd 3dbc 6c3c 3f0c 963c
00000390: 3023 a53c 970e ee3c 8a79 fcbc ff20 ddbc
000003a0: 3db6 97bb 788e 193c 66b7 26bd fa99 da3b
000003b0: cc72 06bb d993 e3bc 00de aa3c a56e 483d
000003c0: 1e50 82bc 8598 2cba 2596 4e3b dcfb 8dbb
000003d0: bd11 aeb9 5806 3a3d 0c40 7b3c 9b4a 09bd
000003e0: 3ebd 1cbc dd08 d23c 5257 003d 564b d2bc
000003f0: 1fd6 11bd 5b91 e53c 0c05 42bc bd0b 70bc
0.015075488 -0.018687272 -0.014937414 0.010306149 0.024501225 -0.02622362 -0.018205041 -0.021976106
0.019002546 0.008772339 0.0015635858 -0.027565436 -0.011381556 0.027310587 0.0040232516 -0.0008150261
-0.01879277 -0.018786013 -0.01979168 -0.016069176 -0.00170722 -0.010109006 0.01168259 0.028162267
0.004069031 0.013440946 -0.0077542523 -0.049079318 -0.01435387 0.025167452 -0.005784759 0.006979154
-0.030160794 -0.004503304 0.021513203 0.011647036 -0.035017435 -0.018994058 0.042286243 -0.00636267
0.0015322095 0.011957646 -0.015693344 0.013364261 0.020049537 -0.020370184 -0.0205771 0.019218896
0.031861626 -0.015124759 -0.01795554 -0.0211693 0.008765558 0.015032223 0.0193262 0.012845333
-0.032295834 0.028136156 -0.03602198 -0.015123449 0.01687026 -0.009465423 -0.025070773 0.0051394035
0.010728742 -0.03318408 0.010765185 -0.011258061 0.012800555 -0.015649201 0.04489629 -0.004405597
0.09121963 -0.021707907 -0.019866673 -0.053787276 -0.013410162 -0.003918534 -0.009293268 0.013942167
-0.007634032 -0.0036551503 -0.023030752 -0.069235176 -0.00572592 0.01187545 0.08711629 -0.0015963994
-0.019496415 0.040244393 0.0038914173 0.019078484 -0.0030339158 -0.03134706 0.028403051 -0.03135934
0.022053344 0.046382442 0.005455812 -0.05577036 -0.015462852 0.027599845 0.042473704 0.004944109
-0.043847956 0.006710614 0.04838903 -0.020260837 -0.0064793415 0.04912723 -0.017903963 -0.08089385
-0.018378917 0.024204444 -0.02068265 -0.021880684 -0.051112875 -0.013281099 -0.01672859 -0.005373305
-0.023165576 -0.03958033 -0.011381921 0.0043482776 0.0335588 0.0204979 0.019208534 -0.011129687
0.027407309 0.01192744 0.00092737074 0.018302029 -0.0033171296 0.01101486 -0.045980986 -0.03764436
0.024875706 -0.043509 -0.025670223 0.0041285353 0.03539422 -0.015795138 0.020507282 0.005841574
-0.019035991 -0.040117126 0.01628613 0.00075764034 0.008527317 0.034346245 0.032095812 -0.00021049395
0.0060033733 0.026118828 -0.007873998 -0.02539441 -0.0506157 -0.021915974 -0.024071306 0.019412696
0.012183093 0.01621997 -0.019246032 0.0072676786 0.030739658 0.027724834 0.011952837 0.0091006225
-0.04343542 -0.016830463 0.03140748 -0.009031816 -0.022663658 0.02529521 0.058531415 -0.0032223205
-0.03429178 -0.0016338836 0.049961682 -0.037726615 0.031195087 -0.0022021022 -0.0009497023 0.03702121
0.023987534 0.0003695098 -0.026044706 -0.005993178 0.008640019 -0.0073028025 -0.0057817115 -0.0038430514
0.020342952 -0.023930442 0.017471308 -0.014853732 0.0071202153 0.010441016 -0.028889617 -0.02971993
0.029816367 -0.00017283944 -0.012499438 0.010815565 0.040415894 -0.044742104 0.0027489522 0.018793669
-0.006315295 0.00863217 -0.003542897 0.0019534447 -0.0056877136 -0.0026621122 -0.000330293 -0.013317927
-0.0045765876 0.005601712 0.022214193 -0.0028683376 0.011548243 0.001589698 0.026284628 -0.03837928
0.018664017 -0.033823367 0.014449176 0.018316386 0.02015838 0.029059691 -0.030819673 -0.026993273
-0.004629879 0.009372346 -0.040702246 0.0066711875 -0.0020515202 -0.02778046 0.020857811 0.048933644
-0.015907343 -0.00065840065 0.0031522599 -0.0043330025 -0.00033201082 0.045416206 0.015335094 -0.033518415
-0.009566603 0.025638992 0.031333275 -0.025670689 -0.035604592 0.028023412 -0.011842024 -0.014651236

weight f4 [10, 32]
00000000: 74c5 a23c a180 c13b 66b4 71bb 33cf 06bc
00000010: 1cc4 a8bc 0e6c 563c 5f03 21bc ae17 813c
00000020: 6cfb 9d3c 919d 093c 0668 cbbc 2190 56bc
00000030: e1d4 2bbc b9f7 b2ba 46b3 7ebc 3bf8 95bc
00000040: 4d01 dabc 15de bf3c 20fe 78bb 4da8 0c3c
00000050: 1e2f 63bb 75e2 22ba 52d6 f03b 8b2a a13b
00000060: 6333 473c 5de3 d3bc 8906 c8bb 2c81 883c
00000070: 6e52 d3bc 5673 b0bc 2b04 8cb8 d6f3 3a3c
00000080: 819e 14bc 23d0 563c bc0f 26bc f9c4 403b
00000090: 3270 dabc 96a1 073d 24cf 67bd e182 c23c
000000a0: e478 533c 9003 8d3c aed2 0a3c 70e6 4538
000000b0: 8097 a13c f019 81bc cd1a c13c df5d 713c
000000c0: 3689 cfbc 17d7 98bc 1f38 ec3c b00f 063d
000000d0: c000 f13c 86c6 663b e2b5 d5bc c60e 753b
000000e0: f787 3bbc 0202 82bc 5937 213d 6757 9f3c
000000f0: e0e9 1dbc 9c1a 7dbc 8926 e2b9 336b 283c
00000100: 1668 553d 3550 f73b e4e4 9dbc ba6a 8e3c
00000110: 015b 83bb 8207 6f3d 57d5 14bd 577c 0f3b
00000120: e488 6f3c cd4a 803c 2200 96bc d2cc 2ebd
00000130: 3185 e73c 59e0 13bd e6d8 ccbb bb87 14bb
00000140: b6dd 2ebb 1338 343d 318d a43c be73 1fbc
00000150: b0f7 9f3c 58ec 223d f9a3 a2bb ad6e 503d
00000160: 83dd 4e3c 9ae0 7cbc c3ed d63b 85e1 c03a
00000170: 5f9e 94bc 8433 4fbc b7f6 b8bc 97b6 67bc
00000180: 70bc 14bd da3d 473d 2a44 4bbc ca92 6cba
00000190: bd28 08bd 2bad 7abc f45b 053d ba3f 793c
000001a0: cae7 edbc f072 50bb 8beb 66bc c8ec 1f3b
000001b0: 6973 92bc 9f53 d23b b643 9dbc c551 15bd
000001c0: 55bb 51bc 08cf 81bc 20e3 05bd ed00 a2bb
000001d0: 39fd 283d 8215 1fbc 4b22 91bc f988 dcbc
000001e0: 4734 253b 5b78 05bb 969a be3c 7d43 253c
000001f0: a5a1 7dbc 13e9 0d3d 989b bd3b 5742 d43c
00000200: 49d6 88bc 930a 95bb 22d4 07bd 73e3 0b3d
00000210: bd55 ef3b 352b d23c 39c0 edbc e157 9dbc
00000220: 7ba7 98bc b679 d1bc ec8d 4dbc 2eb9 9ebc
00000230: 0355 993c 4400 84bb 9af9 d23c 38c8 e43c
00000240: 9ab4 56bb 298c 653c 6b2b 803c c7a1 80bb
00000250: 57eb d93a 1255 bf3c 1dce b3bc 0352 5cbb
00000260: 5dc4 473d 59ee 32bc 4894 b6bc c64b 8f3b
00000270: c7c5 7c3b 4170 dfbb e27c e5bc bfac 2fbc
00000280: 5acd a43b 9c61 2fbc 9322 51bc d99a b33c
00000290: 33d0 3a3c a0d8 fdbb 8be6 78bc cde9 1cbd
000002a0: 44fb 493d 23a8 0dbd 943d 80bd b88d b83c
000002b0: be7b c63d 61eb 6cbd 8628 1738 14ff 633d
000002c0: 0870 383a 9137 5a3c 18d5 9abb 6e44 10bc
000002d0: 5647 bc3a 081d 243d bdb3 1d3d b412 85bc
000002e0: 9f80 1b3c 444f a43c ee85 1cbd e683 11bc
000002f0: 176c e6bc f00c b3bc 05dd e4bc 417b 25bd
00000300: ad13 043b 34c5 b0bc 6deb 0a3c 68ab a83c
00000310: bdd0 953b 1577 b93c d34e 8a3c ecfc d63c
00000320: fb7f 46bc 3c8d 693b 289d 90bc 3897 3abc
00000330: e3a4 b03c a877 763c 610d 6dbc 64fc 183c
00000340: 3cf7 123a d797 f23b 56b2 7cbc 74d5 273c
00000350: e3a7 b4bc fc03 263c 5bb8 073d 6583 dabb
00000360: fcb8 f63b e3e7 243d 1ded 503b bfdf ac3c
00000370: dafe a63c 5da5 9cbb a3a3 e3bc 8344 45bd
00000380: b322 7f3c c146 a33c a1df d63b 69b3 69ba
00000390: 2708 503c f659 de3c 9da6 30bc 376a 083d
000003a0: 639c 0dbc 11e5 903a f38d 9dbc a9db 37bd
000003b0: 627a c0bc 1209 9cbb 44b6 9e3d 2580 3d3c
000003c0: 1853 f63c 0c53 a53b 14b6 643c bed8 babc
000003d0: 6bef e3bc b720 dcba f94a 51bc d3b7 8dbc
000003e0: 7c4b b43c db6f e13c 7d8b 403c 5dc3 283d
000003f0: e4df b8bc ad62 803c a54d 27bd 5cab 18bd
0.019869544 0.0059052263 -0.0036881207 -0.008228111 -0.020601325 0.013087286 -0.009827464 0.015758362
0.019284926 0.008399383 -0.024829876 -0.013095886 -0.010487766 -0.0013654149 -0.015545672 -0.018306842
-0.026611948 0.023421327 -0.0037993267 0.008585048 -0.0034665535 -0.00062135543 0.0073497677 0.0049184016
0.012158248 -0.025865251 -0.0061042947 0.016663156 -0.025796141 -0.021539371 -6.6764966e-05 0.011410674
-0.009070993 0.013111147 -0.010135587 0.002941428 -0.026664827 0.033113085 -0.05659403 0.023744049
0.012907241 0.017213613 0.0084730815 4.718307e-05 0.019725561 -0.015759438 0.02357235 0.014731853
-0.025333982 -0.01865725 0.028835354 0.032729805 0.029419303 0.0035213544 -0.026087705 0.003739284
-0.011445991 -0.015870098 0.039359424 0.019450856 -0.00963828 -0.015448239 -0.0004313479 0.010279465
0.052101217 0.007547403 -0.019274183 0.017384876 -0.0040086512 0.05835677 -0.03633627 0.002189418
0.01462004 0.015660668 -0.01831061 -0.0426758 0.028261753 -0.036102626 -0.0062514422 -0.002266391
-0.0026682443 0.04399879 0.020086857 -0.009732185 0.019527286 0.039776176 -0.0049633947 0.0508868
0.012626055 -0.015434409 0.006559105 0.0014715648 -0.018141923 -0.01264656 -0.02257858 -0.014142654
-0.03631252 0.04864297 -0.012406388 -0.0009024559 -0.033241976 -0.0153000755 0.032558396 0.0152129475
-0.02904119 -0.003180679 -0.014094244 0.0024402607 -0.017877297 0.00641866 -0.019197326 -0.036454935
-0.012801011 -0.01584579 -0.032687306 -0.004943958 0.041257117 -0.009709718 -0.017716547 -0.026920782
0.0025208162 -0.0020365927 0.023267072 0.010086891 -0.015480434 0.034646105 0.0057863705 0.02591054
-0.016703742 -0.0045483797 -0.03316129 0.03415246 0.007303922 0.025655368 -0.029022323 -0.019206943
-0.018634548 -0.025570732 -0.012546044 -0.01937541 0.018717295 -0.004028352 0.025753785 0.027927503
-0.0032761456 0.014010468 0.015645703 -0.0039255354 0.0016625923 0.023355994 -0.021948868 -0.0033618219
0.04877125 -0.010921084 -0.022287503 0.0043730466 0.0038570033 -0.0068188016 -0.02801365 -0.010722338
0.0050293626 -0.010704424 -0.012764591 0.021924423 0.011402178 -0.007746771 -0.0151916845 -0.038308907
0.04931189 -0.034584176 -0.06261745 0.022528514 0.09691571 -0.057841662 3.6038946e-05 0.055663183
0.0007035737 0.013318912 -0.00472511 -0.008805377 0.0014364521 0.04006675 0.03850149 -0.01624427
0.009491115 0.020057328 -0.038213663 -0.008881545 -0.028127713 -0.021856755 -0.027937422 -0.040400747
0.002015333 -0.021578409 0.008478981 0.020589545 0.0045720027 0.02263979 0.01688329 0.02624365
-0.012115474 0.003563716 -0.017653063 -0.011388592 0.021563 0.015043177 -0.014468522 0.009337518
0.0005606299 0.0074033546 -0.015423378 0.010243762 -0.02205271 0.010132786 0.0331348 -0.0066684955
0.007529376 0.040260207 0.0031879612 0.021102784 0.020385195 -0.004780455 -0.027787989 -0.04816104
0.015572238 0.019931199 0.0065574204 -0.0008914979 0.012697256 0.027142506 -0.010781911 0.03330442
-0.0086432425 0.0011054595 -0.019232726 -0.04488722 -0.023495857 -0.0047618235 0.07749608 0.011566197
0.030068919 0.0050453003 0.013959426 -0.022808429 -0.027824124 -0.0016794418 -0.0127742225 -0.017299568
0.02200865 0.027519157 0.011752007 0.041201938 -0.022567697 0.015672052 -0.040845532 -0.037272796

weight f4 [4, 32]
00000000: 50ea 18bc b80a 1bbd 4e6c bcbc ae97 ff3c
00000010: b290 953c fec1 8b3c f831 253c 770b fabb
00000020: 9c04 2a3c f870 853b 9881 afbc 0068 1f3d
00000030: 1593 0b3d 22bc a6bc e286 473b ba69 103d
00000040: 18fd 13ba 52b4 9aba a01b f6bc 854a 183d
00000050: a1af 2a3c b236 d1bb 69e2 a63c a9fb 62bd
00000060: b965 213c f6b0 bc3c 8bfd 0abd 0ba6 d4bc
00000070: 1ae3 c33c 50b9 4e3d 8566 9fbc 3dc5 f5ba
00000080: 0de3 1e3d 689f 003d e6fc 0aba d551 4fb8
00000090: 9c07 b93c afb1 bd3c bc38 143d 858b 543c
000000a0: d336 4dbc 50d1 5d3a 3bfa 3e3d 1bd0 d43c
000000b0: a8b6 5abd cf30 ba3c 01b2 68bc 69a9 fa39
000000c0: 1675 1fbb 27fd e7bc 1311 f63c 4e6c 8b3b
000000d0: 7a3d 9e3b 86cb 9dbc 00f9 4cbb 6ae3 273d
000000e0: 25c2 1ebd ea66 66bd 19fd e4bc 3ce8 d63c
000000f0: 7f2f df3c f54f 90bc 4350 8cbc 67e8 8d3c
00000100: cad9 2dbd f8d7 09bb f0df acbb 293b 9d3c
00000110: 75aa 9f3c 5b26 ad3b d704 503c daa3 cabb
00000120: 1884 a9bb 9010 12bc c113 07bd c771 6bbc
00000130: 823c 053d 787e 69bc 3915 bf3c 8b28 ea3c
00000140: 5595 cf3c cf9e 873c d3b4 95bb abe9 ee3b
00000150: 501e fc3a ee4b 21bc f898 8bbb e4e4 09bd
00000160: a8a5 c0ba 3e06 7d3d 1801 463d 13cc 19bd
00000170: a325 9b3c 0a97 023d 0f5c 683c fce7 0cbd
00000180: fd2f 083c db33 1b3d a5b0 d53c d7b0 4ebc
00000190: cf9c 13bc 55ad 09bd 3402 953a 8811 173b
000001a0: d165 723b 9eb5 d13c 5ab6 cfbb e234 eb3c
000001b0: ac0c 953c 8f60 88bc 3eaa d5bb 263e 23bd
000001c0: 3fed 79bd 03f5 18bd 18e5 a1ba 772c 493c
000001d0: 4ba6 e8bc ef39 493c 4aa6 253d 985f 9e3c
000001e0: 1c4a 6abc b495 c2bb 47ed 853b 29c0 bfbc
000001f0: b6e7 a5bc e3a5 82bc 47da e93a 1549 9b3c
-0.009333208 -0.03785202 -0.023000862 0.031200256 0.018257473 0.017060276 0.010082714 -0.0076307612
0.0103770755 0.004072305 -0.0214241 0.03891754 0.034075815 -0.02035338 0.0030445387 0.03525708
-0.0005645319 -0.0011803007 -0.03004247 0.037180442 0.01041785 -0.006384694 0.020371633 -0.055415783
0.009850913 0.0230336 -0.033933204 -0.025958082 0.023912001 0.050469697 -0.019458065 -0.0018750798
0.03879075 0.03140202 -0.0005301967 -4.9428858e-05 0.022586636 0.023156015 0.03618692 0.012972717
-0.012525278 0.0008461671 0.046625357 0.025978139 -0.05339685 0.022728352 -0.014202596 0.00047809936
-0.0024331263 -0.028318955 0.030037438 0.0042548543 0.004829106 -0.019262087 -0.0031276345 0.040988363
-0.03875937 -0.05625049 -0.027952718 0.026233785 0.027244328 -0.017616251 -0.017128116 0.017322732
-0.042444028 -0.0021033268 -0.005275719 0.019193249 0.01949046 0.0052841133 0.012696466 -0.0061840834
-0.0051732175 -0.008915082 -0.032977823 -0.014370388 0.032528408 -0.014251344 0.02332555 0.028583786
0.025339762 0.016555218 -0.004568675 0.007291039 0.0019235108 -0.009844763 -0.0042601787 -0.033665553
-0.0014697807 0.06177353 0.048340887 -0.037548136 0.018938845 0.031882323 0.014182105 -0.034400925
0.008312223 0.03789125 0.026085207 -0.012615404 -0.009009554 -0.033612568 0.0011368454 0.002305122
0.0036986957 0.025599297 -0.0063388767 0.02871174 0.018194519 -0.016647605 -0.0065205386 -0.03985419
-0.06101727 -0.037343036 -0.00123516 0.012278668 -0.028399607 0.012281879 0.04044179 0.019332692
-0.014299896 -0.005938256 0.0040871236 -0.023407059 -0.02025209 -0.015948242 0.0017841541 0.018955747

weight f4 [4, 32]
00000000: 0fbf 55bd 7a0d 09bd d62e d2bc 384c c53c
00000010: 4d3f 563d 23f9 0a3c 533c 18bd 83a0 993c
00000020: 41c2 93bb 1957 bb3b 100a e8bc 42fa b93b
00000030: c5b0 fa3c 1e6b 7abc 74fa 373c 944d e53c
00000040: e1bf 3fbd 8416 b03c 7702 a3bc a7f7 bbbc
00000050: 7695 89bc 4678 173d d386 1e3c 5fa8 193d
00000060: d2ec 7f3d aefb 6b3c 3895 40bc faaf 94bc
00000070: d777 b3bc b271 973b 828f 403b f9ce 1c3c
00000080: 2b89 4d3c 52df 8d3c 7682 16bd f15f f63b
00000090: bb34 6c3c 4776 9cbb e772 3b3d 4659 f13b
000000a0: b5ad 213d 5d59 cf3c f69a a7bc e419 c8bc
000000b0: 3a83 22bd 8483 1c3d 0680 2fbc 170e 14bd
000000c0: eba9 c238 406f fcbc 3d66 4abd 1d9f 1f3d
000000d0: 8502 08bc e105 50ba 30e3 253d 5b58 423c
000000e0: b2dd a9bb 66db 12bd 3279 5fbc c276 0d3d
000000f0: b19d 933b f1de 19bc af8d 83ba 126b bebc
00000100: 0ced 1abc 6ff7 5bbd 1396 843c 1e67 2c3d
00000110: 137e 9ebc 0423 c0b8 782f 80bc bf5f 263c
00000120: 76db 04bd c7f0 47bd 2190 31bd db3b 03bd
00000130: 6ee4 473c 6e1a cdbc 4f3b ba3c b216 f13c
00000140: 22bb a8bc 7ece 9ebc 6063 093d 5752 11bc
00000150: 1698 12bc beb0 273c a061 363c 0401 293b
00000160: f63f 6c3c d0d0 db3c b25a 4fbd 952c cabc
00000170: f2bc ca3b aa15 af3c 0e67 893c 44a7 243d
00000180: 46bf 553d e4bd 13bc 8e8d a7ba 98c3 24bc
00000190: 83b1 723b 87ca 19bc 5fb3 063b c6c5 af3c
000001a0: 0a7e 04bc 7d8d 8a3c 0b37 783d 2ae6 14bd
000001b0: 9e3a dbbc ada0 51bb ce7e e4bc 26f2 debc
000001c0: 6661 9a3c b600 383c 6d74 fa39 6b76 19bd
000001d0: ce2b f7bc 7aec 02bc db9c 9cbc 1785 8f3b
000001e0: fd9e fbbc 8645 c0bc e888 9d3b ef39 423d
000001f0: 2e6f c63c 8011 313d eecb 1f3c 41f4 9dbc
-0.05218416 -0.033460118 -0.025657099 0.024084195 0.052306462 0.00848225 -0.037166905 0.018753296
-0.004509241 0.00571717 -0.02832511 0.005675585 0.030601868 -0.015284328 0.011229146 0.027991094
-0.04681385 0.021495111 -0.019898636 -0.022945238 -0.016794901 0.036979936 0.009675699 0.037514087
0.06248171 0.014403267 -0.0117543265 -0.018150318 -0.02190773 0.004621708 0.0029382412 0.0095708305
0.01254491 0.017318401 -0.03674551 0.0075187613 0.014416869 -0.004774842 0.045763876 0.0073653786
0.0394723 0.025311166 -0.020459633 -0.024426408 -0.03967593 0.03821136 -0.0107116755 -0.03614625
9.2822906e-05 -0.030814767 -0.04941391 0.0389701 -0.008301382 -0.00079354463 0.040499866 0.011861886
-0.005183899 -0.035853766 -0.013639735 0.034537084 0.0045048823 -0.009391532 -0.0010036732 -0.023244414
-0.00945593 -0.053702768 0.016184842 0.042090528 -0.019347226 -9.1617956e-05 -0.015647635 0.010154664
-0.032435857 -0.048813608 -0.043350343 -0.032039504 0.012200458 -0.025037017 0.022733359 0.029429767
-0.020597044 -0.019385573 0.033542037 -0.008869729 -0.008947393 0.01023501 0.011131674 0.002578796
0.014419546 0.026832968 -0.050623603 -0.024679461 0.006187075 0.021372635 0.016772773 0.04019858
0.052184366 -0.009017441 -0.0012783275 -0.010056399 0.0037032075 -0.009386665 0.002055369 0.02145661
-0.008086691 0.01691317 0.060599368 -0.036352314 -0.02676135 -0.003198664 -0.027892496 -0.027215075
0.018845271 0.011230638 0.0004777046 -0.037466448 -0.030172255 -0.007990951 -0.019117763 0.004379879
-0.03071546 -0.023470651 0.0048075803 0.04741853 0.024222936 0.04322958 0.0097532105 -0.019281508

weight f4 [4, 32]
00000000: 7dfa 7dbd 45b9 ed3b 75a0 983b 6c73 f0ba
00000010: 1d6a 5c3c 24e6 b1bb 3269 c4b8 3780 58bd
00000020: b3fb bcbc 886e ab3c 5dcc 043a 328a 2abc
00000030: 4f81 093d 8d73 aa3a 2ddd c73c c94d b23c
00000040: ecf3 d4ba 6040 aa3c 9ac7 823c 359c b2bc
00000050: 0f72 cdbc 3e4b 9b3b c84d 6dbd d204 29bd
00000060: 59cb ee3c 9cf6 d5bc 7a55 a53c ac51 15bd
00000070: 69ce 7a3c 42e3 763d da4c d5bc 94c4 60bc
00000080: 8cd9 02bc 075b bbbb 13c1 e7bc 4395 54bb
00000090: 7e42 36bb 3b2d d83b 8231 c2bb 405b e5bc
000000a0: 34cc ff3c cd31 50bc 894b 38bd 7a91 963c
000000b0: e593 fb3c 2a9e a2bc 86c5 f43c 2b4d 233d
000000c0: fa0b 813b 79a8 2b3c 2c30 f2bc 79d5 4c3c
000000d0: a708 a2ba 4937 fbba bc0d a93b f630 fdbc
000000e0: ad7e 923c fb1b 98bb 067b 153d b073 9c3c
000000f0: 01d2 f3ba c74d 08bc 2add 39bc d23a b03c
00000100: 8c11 12bd 74b6 8cbc 5a5f 95bc b873 d23c
00000110: 63f1 11bc 5355 d0ba b840 2ebd 9b5b 79bc
00000120: c30f 7b3c dc13 de3c f3d4 5e3d 87f7 903c
00000130: 0dce 473d 7e72 edbc a195 00bd 2c94 b53c
00000140: 004c c13c b89b 373c 2076 e13c 9327 d3bc
00000150: 2852 ebbc f06a b43c 7de7 693c 57d7 19bd
00000160: 9b08 0b3d 9a67 f9bc 0215 43bc 44ec bdbb
00000170: ccfc 9ebc 4b29 f93c 7f75 49bc 9ebc 0a3c
00000180: c79f 17bc 71c5 2ebd 9ae2 fabc 3e86 fbbc
00000190: 4d13 2d3c bae7 2c3c edbc 6e3c a707 9b3c
000001a0: e611 873c 20ed 10bd 9243 973c e342 e5bc
000001b0: f207 293d fce3 083d 9028 323c 591c 81bc
000001c0: 1340 27bc f683 d53c f50e b7bc 59e1 473c
000001d0: fdb8 0c3c 4b01 41bc 7487 ac3c 19f5 8cbc
000001e0: 0ac9 fe3b b6c5 a0bc c48b 8d3a 08d2 3b3d
000001f0: 6e0a 4a3c 9b11 0dbd 0555 6a3c 3b80 e9bb
-0.062006462 0.007254752 0.0046578 -0.0018344945 0.013453034 -0.005429046 -9.3656025e-05 -0.05285665
-0.023069238 0.020926729 0.0005065853 -0.010408925 0.033570584 0.0013004408 0.024397457 0.021765606
-0.0016247011 0.02078265 0.015964318 -0.021803001 -0.025078801 0.004739194 -0.057935506 -0.041264363
0.029149698 -0.02611857 0.02018236 -0.03645484 0.015308001 0.060275324 -0.026037622 -0.013718743
-0.0079864375 -0.0057176384 -0.028290307 -0.00324376 -0.0027810629 0.0065971888 -0.005926312 -0.027997613
0.031225301 -0.012707186 -0.04499391 0.018379916 0.03071017 -0.01985081 0.029879343 0.039868515
0.0039381953 0.010477179 -0.029563986 0.012502068 -0.0012362198 -0.0019166257 0.005159108 -0.030907135
0.01788267 -0.0046420074 0.036494277 0.019098133 -0.0018602015 -0.008319325 -0.0113442335 0.021512423
-0.035661265 -0.017176844 -0.018233944 0.025689945 -0.008907649 -0.0015894569 -0.04254219 -0.015219594
0.015323582 0.027109079 0.054402303 0.017696155 0.04878049 -0.028985258 -0.031392697 0.02216538
0.02359581 0.01120656 0.027522147 -0.025775706 -0.028725699 0.022023648 0.0142763825 -0.03755888
0.033943754 -0.030444909 -0.011906864 -0.0057959873 -0.019407652 0.030415198 -0.01229608 0.008467821
-0.0092544025 -0.042668764 -0.03062563 -0.03070366 0.010563684 0.010553295 0.014571411 0.018924547
0.016488027 -0.03538239 0.018464837 -0.027985996 0.041267343 0.033420548 0.010873929 -0.015760588
-0.010208148 0.0260639 -0.022346 0.012199723 0.0085890265 -0.011780093 0.021060683 -0.017206715
0.0077754306 -0.019625526 0.00107991 0.0458546 0.012331588 -0.034440618 0.014302497 -0.007125882

weight f4 [4, 32]
00000000: 7222 0fbc 1e74 cc3b 4386 c6bc 613c 2a3b
00000010: e9e5 903b 5f86 ae3c 7ac7 04bc b5b5 f4bc
00000020: 3d18 203c 887e 983c b681 6b3c 0c17 02bc
00000030: c881 8e3c 944a e3bc 9ece 0a3c af20 9ebc
00000040: 46e4 c8bc 9a12 1fbd 094c 973c ca2e 3f3a
00000050: 4832 f83c b496 b2bb 08cc 1c3b 356f bc3c
00000060: 8d24 fa3b 2b29 c9bb 665d 28bc b489 d1bc
00000070: fc33 22bd 53cb 7a3b 01bf adbc 33c2 b73c
00000080: fb3b bc3b 1894 193c 09b6 dd3c baab 52bd
00000090: 8c04 003d 7d66 05bd 7301 f73c 5b0e a03d
000000a0: 7e69 093d b955 6b3d 94ac 2cbb 22e7 bebc
000000b0: db3c a4bb 342e 3b3c 0bb7 fabc 7f20 ad3b
000000c0: a913 25bd 889c 24bd 99e2 e93c 21c4 583b
000000d0: 8dca 0a3d 633e 1ebc ab16 93bc be4b d8bc
000000e0: 0edd 33bd dea1 893c a180 293c e89c 043d
000000f0: 4b23 e4bc 4a2b 8f3b 2eb9 9e3d a5d5 383a
00000100: 4d95 a03b 4888 213b ec65 983a 6383 b3bc
00000110: d135 61bc ddc4 913b 5661 643c 098a 663d
00000120: c463 ea3c a483 183d d49b 54ba ec3a dbbc
00000130: 1f69 b73c e0bf 1bbd 05eb 3bbd 8210 493c
00000140: 6581 d2bc 68cd 1ebd 8ab1 863c b047 d53c
00000150: c53d 313b 0fe2 45bc f554 753b e9ae 223c
00000160: 6b15 bbbb 3675 92bc ef0d 70bc 9de4 51bc
00000170: 8189 e9bb f501 3bbd f724 943c 55f7 bb3c
00000180: f17e eebc fbf6 943c 18fa e4ba 4c29 8ebb
00000190: 4bab a03c a8c4 a53b efa8 c23b 64a9 b63b
000001a0: 1f1d 663c 3639 d7bb 9126 e23c 1aa3 09bb
000001b0: 0790 be3c c3db 3d3d f376 153d 8dd0 1b3c
000001c0: 824d 03bc 59e1 6ebb 26bf 803c be13 983b
000001d0: 8d5e 0fbc f9cf 863c 6a33 cd3c d09a e9bc
000001e0: 7e9c 3138 6824 febb fcc7 853c 74c5 8d3c
000001f0: e5ac e6bb 5128 c23c 343e 6c3b 03f0 953c
-0.00873624 0.006239428 -0.024233943 0.002597593 0.0044219387 0.021304308 -0.0081042 -0.0298718
0.009771404 0.018615022 0.014374187 -0.007940065 0.017395869 -0.027745523 0.008472113 -0.019302694
-0.024522912 -0.0388361 0.018468874 0.0007293044 0.030297413 -0.005450094 0.0023925323 0.023002246
0.0076337517 -0.006138941 -0.010276174 -0.025578357 -0.039600357 0.0038268163 -0.021209242 0.022431469
0.005744455 0.009373687 0.02706434 -0.051433302 0.031254336 -0.032568444 0.030152058 0.07815238
0.03354787 0.0574548 -0.0026347982 -0.023303572 -0.0050121373 0.01142459 -0.03060486 0.005283415
-0.040301953 -0.040188342 0.028550433 0.0033075886 0.033884574 -0.009658429 -0.017955145 -0.026403304
-0.043911986 0.016800817 0.010345609 0.0323762 -0.02784886 0.004369174 0.07750164 0.00070508785
0.0049006105 0.002464788 0.0011627055 -0.021913236 -0.013745741 0.0044485168 0.013939222 0.056283984
0.028612025 0.037234917 -0.00081103784 -0.026761495 0.022388993 -0.038024783 -0.04587843 0.012272002
-0.025696466 -0.03877011 0.01644208 0.02603516 0.0027044874 -0.012077822 0.0037434672 0.009929397
-0.0057093403 -0.017878156 -0.0146517595 -0.012810853 -0.0071269874 -0.045656163 0.018084032 0.022945086
-0.029113265 0.018184176 -0.0017469553 -0.004338419 0.019612929 0.0050588436 0.0059405486 0.005574392
0.014045029 -0.0065680994 0.02760628 -0.0021001757 0.023262037 0.04635216 0.036490392 0.009510172
-0.008014085 -0.0036450236 0.015716147 0.0046410253 -0.00875057 0.016456591 0.02504893 -0.028516203
4.2345833e-05 -0.007755805 0.016330712 0.017306067 -0.0070396536 0.023700865 0.0036047818 0.018302923

weight f4 [4, 32]
00000000: 17c5 c1bb 94e9 13bd 1b5e 463a 9134 d9bc
00000010: ab96 d2bc e84e babc ef9d a6bb bba8 27bb
00000020: 1130 913b 76bd c7bb 605d a33c 16f5 32bd
00000030: 4cda 643b 7942 37bc 31cc f93b fb93 a33c
00000040: 5a48 14bc 4263 07bd e9d7 dd3b 3767 f1bb
00000050: cf0f 0a3c ab7d 923c 18a3 4fbc a95f d43c
00000060: 8c1d c8bb 6c8b 8ebc a335 80bc 230c d8bc
00000070: a220 5b3c 035a 343b a6d0 df3c 4143 4bbc
00000080: 55e8 d03c 5777 473d cca3 93bc 9090 83bc
00000090: a2fe f2bc 15da 2a3d c09d 3fbc cea7 253d
000000a0: db1b 55bd 0ec2 e7bc 7be2 113d 8d31 7abb
000000b0: 8c9a b2ba caad 393d 882a 3b3d 068a ebbc
000000c0: 61b6 493b 0e9c 123d 2713 e13b f01e 8abb
000000d0: b910 34bd 79e5 eb3c eba0 49bd fed3 303d
000000e0: 5452 1f3c 1d09 88bd 5814 2cbd 90ea 93bc
000000f0: 6335 243d 9958 88ba 8c57 fe3b 0bba 053d
00000100: 2bfe f93c 3ce7 913d 5b25 883c 3054 6d3c
00000110: e59e d5bc ea60 bf3c 88f0 95bc 0abf 6a3b
00000120: 45c1 0dbd fb86 00bc 0473 3e3d 1fe4 0a3d
00000130: ae7e 4f3c d524 043c 719f 0ebc 137d 93bb
00000140: 9874 dbbc bde7 bd3c 027e dc3c 06a5 acbc
00000150: 0cc9 95bc 9723 8fbc d449 f1bc ff32 7bbb
00000160: bc67 7fbc a670 85bd da7c 3c3c afbe c8bb
00000170: 2d76 b83b fcbf 873c cfcb 8ebc e070 673c
00000180: e113 48bd f650 9739 174d 243d cc4f 303c
00000190: 899d 8ebb df06 e53c 8f87 afbb 5b83 77bc
000001a0: 9867 203c f011 d03b de94 a93b ce4f 4c3c
000001b0: 8bfb 2dbd f61f eebb 1f8e 9ebc a6e8 843d
000001c0: f4e0 b4bc df68 1ebd 87fb c43b 5249 fc3b
000001d0: 1539 803c bcba c93b 8bfd 793c f236 0c3c
000001e0: 104f 813c 1144 163d 19a8 3ebb 4c25 883c
000001f0: 8a00 e7bb 5950 a73c 725e b5bc d5e1 9fbc
-0.0059133875 -0.03611143 0.00075671234 -0.026514323 -0.02570661 -0.022742704 -0.005084745 -0.002558275
0.004430779 -0.0060955836 0.019941986 -0.043690763 0.0034920154 -0.011185282 0.0076232185 0.019968024
-0.009050453 -0.033053644 0.0067701233 -0.0073670405 0.008426621 0.017882189 -0.012673162 0.02592452
-0.006107038 -0.017400466 -0.015650576 -0.026372975 0.0133744795 0.0027519471 0.027321171 -0.012406171
0.02550141 0.048697796 -0.01802244 -0.016060144 -0.029662434 0.041711885 -0.011695325 0.040443234
-0.05202852 -0.028290775 0.03561638 -0.0038176507 -0.0013626381 0.045331754 0.045694858 -0.028752338
0.0030778872 0.035793357 0.006868738 -0.004215114 -0.04396126 0.028795945 -0.04922573 0.04317092
0.009724218 -0.06642363 -0.04201159 -0.018056184 0.040089976 -0.0010402381 0.0077619012 0.032648128
0.030516705 0.071241826 0.016619375 0.014485404 -0.026076743 0.023361642 -0.01830317 0.0035819435
-0.034608144 -0.007844682 0.046496406 0.03390896 0.01266448 0.008065422 -0.008705006 -0.004500994
-0.026788995 0.02318179 0.026915554 -0.021074783 -0.018284343 -0.017473025 -0.02945415 -0.0038329957
-0.015588697 -0.065156266 0.011504376 -0.006126247 0.005629322 0.016571037 -0.017431168 0.014126033
-0.048847083 0.00028861285 0.04011258 0.010761213 -0.0043522757 0.027957378 -0.005356736 -0.015107001
0.009790324 0.0063497946 0.005175217 0.012470199 -0.04247622 -0.0072669936 -0.019354878 0.06489687
-0.022079922 -0.03867423 0.0060114297 0.00769917 0.015652219 0.0061562937 0.015258203 0.008558022
0.01578477 0.036686007 -0.0029091893 0.016619347 -0.007049625 0.020424055 -0.022139762 -0.019516865

weight f4 [4, 32]
00000000: a29d 0bbc f13c 863b 7654 0ebd f062 db3c
00000010: f649 73bb 699d 39bb d3fd 033c 0416 7fbc
00000020: 3c75 223c 9c55 84bc 353d aebc e361 e8bb
00000030: 16ae 45bc 9773 183d 239c 263d b494 72bc
00000040: 20b5 c8bc 75ad a0bc 2447 8cbc bb15 343c
00000050: f64e 3bba f023 fdbc 8c27 4ebc 1150 b1bc
00000060: 3052 a23b 0c5a 023d 9736 353c 5410 103c
00000070: 2fd4 c93c 429d 7ebb b1db 43bd b82e 86bb
00000080: 1cfc 3cbc f3f0 3bbb 4305 833b 8936 b0bc
00000090: 2779 9c3b e159 0c3c 5ef3 b63c 69d3 68bc
000000a0: cedf b03c 403a e33c 876d 12bb 76b6 daba
000000b0: 2d9b 00bc f79d 41bc 396f 823c 6af0 023d
000000c0: ad8c 6fbc 15c4 713b 750a 7b3c 1ef0 113d
000000d0: 3284 31ba a2d9 ecbc 73d1 053d 8e44 59bc
000000e0: af95 1ebd 1699 c7bc e3ec 6e3d dbd7 5e3c
000000f0: 8fee 6f3b 17b5 4b3c db96 2fbc 400a 28bc
00000100: 0fde 2e3d abb6 8a3b 103c fd3b c62b 24bc
00000110: 2e20 443c d123 c33c 8d42 15bd 39c5 b4bc
00000120: d0f7 1cbd 7ea3 c33c b56d 003c 17ec e23c
00000130: f416 1cbd d2a8 af3b 8fea d2bb d0fa 77bb
00000140: e1ce ec3b 98e5 e4bc 1ced 013d b52c 9cbc
00000150: ef97 6fbb 5c09 413a c0d1 31bd fdb9 243c
00000160: 6115 da3c 3013 9dbb dde6 cabc a145 363c
00000170: f226 4a3c a7fa 753c cab0 a9bb 1da7 46bc
00000180: 0348 bebb 36cd 2dbd fc71 053b be60 1fbc
00000190: c386 8bbc 9162 043c dbbd a13b d4da 7f3c
000001a0: 0fd1 563d f9ba 8b3c 7c10 87bc f3c3 603b
000001b0: 679b a53b 8010 86bc a010 f0bc 53f3 f0bb
000001c0: ba74 653c 0499 253c 15f7 ecbc 2cef 57bc
000001d0: 4e34 fe3c 2e6e a13c 7d9b 62bc 0dcd 1abc
000001e0: 4d1e f4bc 865a 313d c0fc 183d 9e78 753c
000001f0: 9776 b9ba 08db 8dbd 8fe8 0d3d fdb0 303b
-0.008521469 0.0040966203 -0.034748517 0.026780576 -0.0037122942 -0.0028322584 0.008056122 -0.015569214
0.009915646 -0.016154103 -0.02126942 -0.007091747 -0.012065431 0.03721961 0.040676247 -0.014805961
-0.02450043 -0.01961396 -0.017123766 0.010991509 -0.000714525 -0.030900925 -0.012582671 -0.021644624
0.004953645 0.031824157 0.0110603785 0.008792955 0.02463731 -0.0038851057 -0.047816936 -0.004094925
-0.011534717 -0.0028677552 0.00399843 -0.02151038 0.0047751847 0.008566351 0.022332843 -0.01421056
0.021591093 0.027737737 -0.0022343115 -0.0016686458 -0.007849497 -0.011817447 0.015922176 0.031967558
-0.014620942 0.0036890556 0.015322317 0.035629384 -0.0006771713 -0.02891237 0.03267045 -0.013260974
-0.03871697 -0.02436499 0.05833138 0.013601269 0.0036610698 0.012433312 -0.010717119 -0.01025635
0.04269224 0.0042332015 0.0077281073 -0.010020202 0.011970563 0.02382079 -0.03644042 -0.0220667
-0.03832227 0.02388167 0.007838656 0.027700467 -0.038107827 0.005360701 -0.006436653 -0.0037838705
0.0072268103 -0.02794151 0.031720266 -0.019064287 -0.0036559065 0.00073637604 -0.043412924 0.010054109
0.026621522 -0.004793547 -0.024768287 0.011124999 0.012338387 0.015013373 -0.0051785456 -0.012124804
-0.0058069243 -0.042432033 0.002036213 -0.009727655 -0.017032033 0.008080141 0.0049359626 0.015616138
0.052445468 0.017056929 -0.016487353 0.0034296482 0.005053926 -0.01636529 -0.029304802 -0.0073532253
0.014004881 0.010107283 -0.028926412 -0.013179582 0.0310308 0.019705858 -0.013831017 -0.009448302
-0.029799605 0.04329922 0.037350416 0.014982371 -0.0014149722 -0.069265425 0.034645613 0.0026960962

weight f4 [4, 32]
00000000: d20a a2bc 6f0c db3c 2ca8 2cbd b807 a2bc
00000010: 76ad a3bc e2d8 55bc ef4e 183d 1517 acbb
00000020: 8fcc 43ba 17c3 b73c 7fe5 f7bc d79a 30bd
00000030: a039 ccbc c1dd 1fbd 2e64 9fbc 504d 0fbd
00000040: 1a61 65bb 3aac 793d 0d5b 55bd bd21 1cbb
00000050: e107 413c 9a3f fb3c c075 fbbc 66f0 5ebc
00000060: 018a 773c c41b b9bc bcf7 853d 7ee2 363d
00000070: 9232 fabc 9be5 eebb 8453 9c3c ff7b cfbc
00000080: 1d57 583c 5bf6 00bc be49 9f3c de41 07bc
00000090: 3c2c 0f3d af61 343d 0818 f4bc 5264 0c3d
000000a0: 15c8 89bc 2c4f e1bb d9d7 083d 825e d9bb
000000b0: 128d 0e3d 8400 2b3c 157d af3b 928f 1c3d
000000c0: 4d8e acbc 9285 97bc 2bfe 893d e9d0 d8bc
000000d0: c06f 4dbd ae04 cfbc 0ece 6b3d 3cbc a9ba
000000e0: 1b53 0fbd badd 23bc e57f e0bc f541 18bd
000000f0: 6ed2 bf3b 1b07 a6bb d4b9 113c 13f8 f4bb
00000100: 0d55 a4bc 45c4 a5bc 06ca d2bc d7d2 c4bb
00000110: d382 adbc f105 db3c de8e b1bc bc4c 383d
00000120: f33a 453b 3289 f3bc f030 d3bc e35c e1bc
00000130: 960c d63b 5d32 2abb 6480 9a3c f95a f4bc
00000140: d2eb 7cbc 4f02 78bc 8b96 1d3c 9b17 e4bc
00000150: dfaf 0d3d c435 c0bb ea43 b93c cf30 163d
00000160: 58a0 6cbc a8e3 14bc 164a 8bbb 357b 7c3b
00000170: 94ca 02bd fdc9 82bc 7b23 35bc 45aa 20bc
00000180: 673b cdbb d966 4d3d f41e eabc b8af 7ebc
00000190: e7f8 28bd 1716 c838 97ba ea3c f3e5 183d
000001a0: ee16 0cbc 3a14 5c3d b318 043c e2a0 2abd
000001b0: a937 04bc 367d 56bb 2fa1 073b c4fb cbbc
000001c0: 2812 6bbc b1ff 783c 48b8 83bd 2808 8bba
000001d0: c18d ad3c 0e77 103c 0820 85bc c7ae 203a
000001e0: 0765 943b 3790 843c 37db d13c 3750 083d
000001f0: 1a5e 13bd 4581 093b e0b2 3abb fbad 13bc
-0.01978055 0.026739327 -0.04215257 -0.019779071 -0.019980174 -0.013052197 0.037184652 -0.005251775
-0.0007469141 0.022431893 -0.0302608 -0.043116417 -0.024929821 -0.03902984 -0.01945695 -0.03498584
-0.0035000504 0.060955264 -0.052088786 -0.002382382 0.011781664 0.030669976 -0.030695796 -0.01360712
0.015108586 -0.022596247 0.06541392 0.044649594 -0.030541692 -0.0072905547 0.019082792 -0.02532768
0.013204363 -0.007871236 0.019444343 -0.00825545 0.034954295 0.04403847 -0.029796615 0.03427536
-0.01681904 -0.006875893 0.033408973 -0.0066335807 0.034802504 0.010437135 0.005355487 0.038222857
-0.021063948 -0.018496308 0.06737932 -0.026466804 -0.0501554 -0.025270786 0.057569556 -0.0012949775
-0.034991365 -0.010001594 -0.027404735 -0.037172277 0.0058539426 -0.005066765 0.0088944025 -0.007475862
-0.020060087 -0.02023519 -0.025731098 -0.0060065794 -0.021180546 0.026736232 -0.02167457 0.044995055
0.003009495 -0.029728506 -0.025780171 -0.027510112 0.006532262 -0.002596996 0.01886005 -0.029828535
-0.015437083 -0.015137269 0.009618412 -0.027843287 0.034591552 -0.0058657844 0.022615392 0.03666764
-0.014442526 -0.009087481 -0.004250775 0.0038525586 -0.031931475 -0.015965456 -0.0110558225 -0.00980622
-0.006263185 0.05014691 -0.028579213 -0.015544824 -0.041252997 9.540858e-05 0.028653426 0.03732867
-0.008550389 0.053730227 0.008062529 -0.041657336 -0.008069911 -0.003272844 0.0020695438 -0.024900325
-0.0143475905 0.01519768 -0.06431633 -0.0010607289 0.021185758 0.008817447 -0.016250625 0.00061295595
0.004528645 0.016182048 0.025617225 0.033279624 -0.035978414 0.0020981592 -0.0028487965 -0.009013648

weight f4 [4, 32]
00000000: c6d5 123c 1f28 55bd 5a44 813b 958f 0bbc
00000010: c149 95bb ab3f b3bc bbe1 abbc ca29 163c
00000020: c912 123d 8c04 053c 1c6a 8abd ce61 2dbc
00000030: b535 3d3c 12d3 21bd e2c6 09bd 916a cc3c
00000040: d013 6d3c 38ab aabb c19f a73c c1d1 69bc
00000050: fef1 cabb e726 963c 2499 413c 6f03 4dbd
00000060: f5f5 f1bc a6de 833d 70ed 483b e314 a8bc
00000070: 76d9 e1bc 1082 a8bc fcdd 8cbc 3a52 93bc
00000080: 8ba9 153d bf84 1e3d 4d9d 49bc f865 78bc
00000090: 5a46 3dbc a057 6d3c 965d 29bc 4224 bd3c
000000a0: a41c 55bd 0029 0cbc af81 463d fcbe 013d
000000b0: 8785 43bd a7d4 003d 3038 353c 9908 fabc
000000c0: 5336 c9bc 8f06 08bd 60e3 1dbd b77b 34ba
000000d0: 96fb ec3b 07ba 0cbd 0eb6 05bd 464d c03c
000000e0: 84fa 9bba 5a94 4bbd 43a1 233b c68f cf3c
000000f0: da60 40bc ce62 3a3c f619 e5bc 7ab1 2c3d
00000100: e00b feb9 a6fc dc3c 0cd7 27bb fdd4 693b
00000110: b51e cfbc 31f1 f23c cf30 233c 840a b63b
00000120: 7bed 18bc adb0 61bd 0f0a 96bb 0ce2 963c
00000130: 2550 8e3c 456b 12bb ede1 04bc a8c2 b6bc
00000140: d6b9 303a a827 9cbc 155e 9cbb c9f5 083a
00000150: e612 fd3c b2ab 27bd 64c5 d5bb ab1c 84bc
00000160: c736 05bc cccc 2dba 624e 503c a90b 7a3c
00000170: 0115 b2bc f485 27bc 81e5 5bbc 8a75 243d
00000180: 13ef 1b3c 335d 853c 6819 153c 8cc6 5a3c
00000190: 7b21 3f3c 54c6 043b 38df 913b ef5f 7dbc
000001a0: bd49 643c c423 e639 b027 68bd 9dd8 c7bc
000001b0: 3460 513c de57 5abd ad79 12bd 7da6 e43c
000001c0: acdf 96bb 6d5a cc3b b62b 753c e730 9bbc
000001d0: 5da9 20bc 65ed 983c c91a 423d 6232 01bc
000001e0: c3ae adbc df95 bc3a fc53 803d d46a ce3b
000001f0: af39 00bd fb45 cd39 86c4 3e3c 3046 a4bb
0.0089621 -0.052040216 0.0039449157 -0.008518119 -0.0045559113 -0.021880945 -0.02098166 0.009165237
0.035662446 0.00811876 -0.0675852 -0.0105824005 0.011548449 -0.039507933 -0.033636935 0.024953159
0.014470056 -0.005208399 0.020461919 -0.014271201 -0.0061933985 0.018329097 0.011816297 -0.050052103
-0.029536227 0.06438951 0.0030659102 -0.020517772 -0.027569514 -0.020569831 -0.017195694 -0.017983545
0.036538642 0.038700815 -0.01230557 -0.01516103 -0.011552418 0.014486223 -0.010337254 0.023088578
-0.052029267 -0.008554697 0.04846352 0.031676278 -0.047734763 0.0314528 0.011060759 -0.030521678
-0.024562037 -0.03320938 -0.03854692 -0.000688489 0.00723214 -0.034357097 -0.032644324 0.023474347
-0.0011900221 -0.049702026 0.0024967946 0.025337111 -0.011741841 0.011376096 -0.02796648 0.042161442
-0.00048455503 0.02697594 -0.0025610356 0.003567993 -0.025283197 0.029656025 0.009960367 0.005555453
-0.0093339635 -0.05510013 -0.004578836 0.018418334 0.0173722 -0.002234177 -0.0081105055 -0.022309616
0.0006741559 -0.019061878 -0.0047719576 0.0005224613 0.0308928 -0.040935226 -0.006523775 -0.016126951
-0.008130736 -0.00066299434 0.012714 0.015261569 -0.021738531 -0.010224808 -0.013421417 0.040151156
0.009517449 0.016279792 0.009100296 0.013353001 0.011665697 0.0020259814 0.0044516586 -0.015464767
0.013933596 0.00043895666 -0.056678474 -0.024395281 0.012779284 -0.053306453 -0.03576057 0.027911419
-0.0046043005 0.0062363655 0.014964035 -0.018944217 -0.009806004 0.018667886 0.047388826 -0.007885547
-0.021201497 0.0014387927 0.06266019 0.006299356 -0.03130501 0.00039152786 0.0116435345 -0.00501325

weight f4 [4, 32]
00000000: 85bb babc e6db 03bd ab05 ebbc 54b8 db3c
00000010: 5bc7 0fbb 77d4 f4ba 308d 55bd a104 09bd
00000020: 3d42 ab3c c441 973c 52d5 933c f032 15bc
00000030: 51f0 5abc cf3d 26bd 5b53 003d 9110 f83c
00000040: 2c85 92bc 7876 7fbc 19a9 4f3d 7dd6 67bc
00000050: 919d e03b 6898 bd3c d1b6 143b 0d9b 88bc
00000060: 5734 b9bc 32dc 09bd 94f8 b8ba 3f27 6ebc
00000070: c0c4 0bbd 9425 243d 49b5 65bb 8332 23bb
00000080: 4c49 a13c e6da 863c b146 cbbc 254e 2dbd
00000090: 26aa 23bb 993f f5bc c97d d6bc f924 10bd
000000a0: c944 2f3c db1e 04bc 98d9 003b 3619 1e3d
000000b0: 0cf8 083c c986 6b3b 2791 3dbd 6c65 753c
000000c0: 05f9 06bd dc0c d93a 9fc7 323b 6207 c8bb
000000d0: f6b5 ba3c af23 ddbc f7fa 96bc 3d25 b73a
000000e0: 1587 f53b ac33 e7bc 83d3 b0bb 6aa3 bb3c
000000f0: 26dc 1f3d 9a32 5f3c c95a 7fbc 6247 3a3c
00000100: 7d7e b4bc 0317 cb3b 6bf3 963c 7cd8 d03c
00000110: a259 b7bb dfbc 18bd 2fea 653a ec61 113c
00000120: ad81 8abc 241f 0ebb 0eff 88bc 51db f5bb
00000130: c7a5 77bb cdbe d7bc 5422 13bc ab11 12bd
00000140: 5c98 1d3c 6336 b8bc ac21 a2bc 69a2 a23a
00000150: a614 7e3c b67e 0f3d 6c65 823d a764 bc3c
00000160: f4a2 9d3c 99b8 5abc df7e b73c b091 0bbd
00000170: 0213 1c3a 25a5 933a eb4c 14bb 8304 b9bc
00000180: 46d2 20bd 9c34 513c 9fd4 e93b 095e 9e3c
00000190: 417d 7abc 703a 43bc c1ae cc3a 3fbf d1bc
000001a0: 0b64 97ba 7ed5 933a 7d71 b3bc e98e 32ba
000001b0: 0506 493b 5b1f b5bc 36af b2bb d72f f93c
000001c0: ff80 663c ef54 ca3b cbcb 32bd e374 d23c
000001d0: 3aa4 803c a030 86bc dc6f 83bb f677 2bbd
000001e0: 1133 0c3d 951f b1bb b4eb 723c 0df5 9eba
000001f0: b30b 38bc 3e05 853d 4493 c43c 4c51 d53c
-0.022794494 -0.032192133 -0.028689226 0.026821293 -0.0021938893 -0.0018679042 -0.0521366 -0.03345168
0.020905608 0.018463977 0.018046055 -0.009106383 -0.01336296 -0.04058629 0.031329494 0.030281337
-0.017885767 -0.01559221 0.050698373 -0.014150259 0.006854721 0.023143962 0.0022691975 -0.016675496
-0.022607965 -0.03365726 -0.0014112168 -0.014535724 -0.034123182 0.0400749 -0.0035050681 -0.0024901934
0.019688271 0.0164618 -0.024813982 -0.042310853 -0.0024973243 -0.029937552 -0.026183026 -0.03519151
0.010697552 -0.008063997 0.0019660946 0.03859826 0.00835992 0.0035938493 -0.046281006 0.014977794
-0.032952327 0.0016559619 0.0027279628 -0.0061043957 0.022791844 -0.026994554 -0.018430216 0.001397289
0.0074929097 -0.028222881 -0.005396308 0.02290507 0.03902831 0.013622904 -0.01558561 0.011369558
-0.02203297 0.0061978116 0.018426618 0.025493853 -0.005595402 -0.037289497 0.0008770553 0.008873444
-0.016907537 -0.0021686042 -0.016723182 -0.007502951 -0.003778802 -0.026336098 -0.008980352 -0.03566138
0.009618845 -0.022486871 -0.019791447 0.0012408021 0.015507853 0.03503295 0.06367001 0.022997214
0.019242741 -0.013349676 0.022399364 -0.034074485 0.000595376 0.0011264427 -0.0022628854 -0.02258516
-0.039263032 0.012768891 0.007135942 0.019331949 -0.015288652 -0.011915788 0.0015616046 -0.025603889
-0.0011550201 0.0011278836 -0.021904701 -0.00068114564 0.0030673754 -0.022109678 -0.0054530157 0.03041832
0.014068841 0.0061746757 -0.043651383 0.025690502 0.01570331 -0.016380608 -0.0040111374 -0.04186245
0.03422839 -0.005405376 0.014826704 -0.0012127474 -0.011233258 0.064951405 0.023996003 0.026039742

weight f4 [4, 32]
00000000: e604 193b 33d1 2b3c 9f25 973c cc27 45bd
00000010: b95c 343d cc45 0bbd 59a8 cc3b 7891 943b
00000020: 2d97 a0ba a4fe b53c 1c44 e0bb de86 aabc
00000030: 1b92 48bc b4a1 9a3c c413 ec3c f7dc eebc
00000040: 8717 933c 951a 70bd 1f24 bc3b 6803 4c3d
00000050: e332 e9bb 6ef6 93bc 19b0 cdba ea45 8cbc
00000060: cd62 83bd d09c a63c 37a8 c53c 1071 fabb
00000070: c835 233d ffda a6bc 5841 a13c af3a f5ba
00000080: 9773 80bd cef7 43bc ad32 763d 00c5 c2bc
00000090: a5f2 a1bc d5d8 26bd 7f95 133c e607 443d
000000a0: 009d 413d c5ed 423d 946a 133d 76bd 053d
000000b0: f8cb 9abc ec7f 793d 2769 1aba e08c 8fbc
000000c0: 62a5 443c 48ce 28bd 5aa9 6f3c af62 1a3d
000000d0: 34e0 b9bc 38ad a7bd 16a6 81bc fef3 1abd
000000e0: 88e5 24bd a5e9 45bb 5b18 e63b d46a c0bc
000000f0: 36e7 cf3c a254 c23c fd64 053d b0cc 5f3d
00000100: fbbf 03bd 39d5 3d3b 8071 1cbd fa05 b4bb
00000110: cd0a 64bc 8b83 17bd 9aed c83c fe99 3a3d
00000120: b258 093d df25 b1bb 9c31 533b 293b 63bc
00000130: 09e2 0cbd 3ad3 41bc 7b8e 173d 4d03 dfba
00000140: 3d34 92bb 0c51 7bbc c7cd 243d 114b bf3a
00000150: 1ffc 03bd 13af b7bc 66f9 11bc 255f f3bc
00000160: dde8 a43b 4c15 cfba 7b48 06bc 9efe fd3b
00000170: 2fbd 173d 82c0 8abd 7c88 d83a 6c29 c23c
00000180: 7816 f4bb d647 27bd 609c 163d 3e63 17bc
00000190: 654a f93c a55b 54bc c3af 7dbc b9f2 2c3c
000001a0: f06c 083d 78da e53c 4a22 083d 56a0 7d3c
000001b0: 532e 9abc 4cdd 903c 05c9 623b edf3 1bbc
000001c0: a7f4 943c 00a0 80bc e64a d53b 1c9c 0a3d
000001d0: 8f44 48bb 294a 86bc c2e2 8d3b 2346 cebc
000001e0: 27e6 1bbc af38 55bc de19 95bc ed03 bb3c
000001f0: c620 07bd 1623 bd3c cc45 7e3d 46a0 d13c
0.0023348867 0.010486889 0.018450556 -0.048133656 0.04403374 -0.03400211 0.0062456545 0.004533943
-0.0012252085 0.022216149 -0.006844057 -0.020816263 -0.0122418655 0.018875934 0.028818019 -0.029158099
0.017955555 -0.0586191 0.0057416107 0.049807936 -0.007116662 -0.018061843 -0.001569274 -0.017123181
-0.06415329 0.020338446 0.024128063 -0.0076428726 0.03984621 -0.020368097 0.019684479 -0.0018709506
-0.06272047 -0.011960937 0.060106922 -0.023775578 -0.019769022 -0.04073413 0.009007811 0.047859095
0.047268867 0.047590036 0.035990313 0.032651387 -0.018896088 0.06091301 -0.0005890303 -0.01752323
0.012002321 -0.04121235 0.014627779 0.03769177 -0.022689916 -0.08187336 -0.015826266 -0.037830345
-0.04025796 -0.0030199077 0.0070219464 -0.02348844 0.025378805 0.023721997 0.032567013 0.054638565
-0.03216551 0.0028966202 -0.03819418 -0.0054938765 -0.013918591 -0.036990684 0.02452736 0.045557015
0.033531852 -0.005406126 0.0032225614 -0.013869085 -0.03439525 -0.0118301455 0.037001114 -0.0017014534
-0.0044617937 -0.015339147 0.040235307 0.0014594515 -0.032222863 -0.02242235 -0.008909559 -0.029708454
0.0050326423 -0.0015799194 -0.008195992 0.0077513 0.037045654 -0.06774999 0.0016520168 0.023701392
-0.0074489675 -0.040839992 0.036770225 -0.00923997 0.030430982 -0.012961303 -0.015483799 0.0105559165
0.033307016 0.028058276 0.033235826 0.015480122 -0.018820917 0.017683648 0.003460468 -0.009518606
0.018183066 -0.015701294 0.0065091727 0.033840284 -0.0030558442 -0.016392784 0.00433001 -0.025179928
-0.009515322 -0.013014003 -0.018200811 0.02282902 -0.03299024 0.02308802 0.062078282 0.02558912

weight f4 [4, 32]
00000000: dc29 173d cd10 433d 9f49 cb3c 2583 51bc
00000010: da80 293c 8216 11bb 5de1 c23c c6fc e2bc
00000020: ce7e 0abd 2c83 ad3c 2ba3 373d 4dd3 5c3d
00000030: 631f b5bb e32d 0e3d f58a 7ebc 9f05 03bd
00000040: 6ecc a2bc 0afc ef3b 4cb8 b73b 3fd0 bebc
00000050: a56d 343b 6aff f0bb b176 30bc 65f4 cd3c
00000060: 31cd 08bd aa34 10bd 785d e8b4 8087 1c3b
00000070: f8d4 a93c e08b 91bc fe8d be3b 31a1 163c
00000080: d079 0e3d f7ec b03d 7483 e33c 1c7b 1cbb
00000090: 84e5 8bbc a3a1 a23c 62b4 803c 4bc9 ca3c
000000a0: 9329 fd3b f698 32bc ea5e 333d 1a18 cb3c
000000b0: 928c 3fbc 5ba2 d43c ca8c b63b 0001 80bd
000000c0: 1cea 773c 4753 1abc 69c6 fdbc 51fe 13bd
000000d0: 84db c83b e753 ca3c 6501 52bd f291 5d3d
000000e0: f650 ebbc aecc 47bd bb47 573b 52f7 bc3c
000000f0: 49d0 113d 8000 0f3d afdf f53c beed f4bc
00000100: 92ff ea3b 6244 113d e9d4 f83c 7301 7b3b
00000110: 7dc1 b3bc b9ba 863c 7838 053d 567e 81bc
00000120: f101 ae3c b8ca 63bc c7f0 483d 7bba 8cbc
00000130: f3c4 b1bc 420e 673d 35d9 e73c 5e39 6ebc
00000140: 6f02 a03c cd2a ca3b 8d55 5e3c e896 7fbc
00000150: 11a4 a5bc 605e 06bd 124e 4fba 52a8 ca3c
00000160: 0a99 a53c a637 e8bc a6f0 7c3c 3697 f43c
00000170: 7204 19bc a0fc a9bb f1e3 cabb ac08 aebc
00000180: d951 023d cdc6 8a3c 2c6b 52b9 cb9b 2dbd
00000190: 6e52 61bd 4a82 643b b6fe aaba 4f89 cebc
000001a0: 5568 d7ba 1823 30bc 1eb9 4e3d 186f 2ebd
000001b0: daf1 88bd 25a3 843b 26df fdbb 3bbe 3bbd
000001c0: 98a7 d9bc dc21 a93c cb7a a3ba abe1 18bb
000001d0: 7ef8 ca3b d0e0 113c 21eb 4dbd 5319 d73c
000001e0: 2aa6 d53c 4bdb 21bd b8b7 6abc 60e0 663c
000001f0: 5b8a c73c 23ee 183c c65e c9bc d8a6 083d
0.036905155 0.047623444 0.024815379 -0.012787615 0.010345662 -0.002213866 0.023789102 -0.027708422
-0.033812337 0.021180712 0.044833343 0.05391245 -0.005527423 0.03471173 -0.01553606 -0.031987783
-0.01987287 0.0073237466 0.0056066867 -0.023292659 0.0027531174 -0.0073546665 -0.010770486 0.02514095
-0.03339881 -0.035206474 -4.3281375e-07 0.0023884475 0.020731434 -0.017766893 0.0058152666 0.009193704
0.03478414 0.086389475 0.027772643 -0.002387709 -0.017077215 0.019852465 0.015711013 0.024754187
0.0077259033 -0.010900727 0.04379169 0.024791766 -0.011691229 0.025956323 0.0055709826 -0.06250191
0.0151315 -0.009419269 -0.030978398 -0.036131207 0.006129684 0.02469821 -0.05127086 0.054094262
-0.028725129 -0.048779182 0.0032849151 0.02306715 0.035599027 0.034912586 0.030013887 -0.02989852
0.0071715796 0.035465606 0.030374961 0.0038300424 -0.021942848 0.016446458 0.032524556 -0.015807312
0.02124116 -0.013903312 0.04905775 -0.017178765 -0.021700358 0.05641008 0.028301815 -0.014540045
0.01953241 0.006169653 0.013570202 -0.015599944 -0.020219835 -0.032804847 -0.0007908057 0.024738465
0.020214576 -0.028346848 0.015438234 0.02985726 -0.009339439 -0.005187586 -0.0061917235 -0.02124437
0.031816337 0.016940499 -0.00020067085 -0.042384904 -0.05501025 0.0034867697 -0.001304588 -0.025211958
-0.0016434292 -0.0107505545 0.05046951 -0.042586416 -0.066867545 0.0040477687 -0.0077475486 -0.045835715
-0.026569173 0.020646028 -0.0012472508 -0.0023327868 0.0061941734 0.008903697 -0.050273065 0.026257193
0.02608021 -0.039515775 -0.0143260285 0.014091581 0.024357965 0.00933412 -0.024581324 0.03336224
