model/testing_model.pth (torch, 212362 bytes, 208 tensors)

weight f4 [15, 16]
0	0xbb8f90b5	-0.004381264
1	0xbd0a6b83	-0.033793937
2	0xbc3fc42b	-0.011704485
3	0xbc5f9331	-0.013645933
4	0x3ce0bc08	0.02743341
5	0xbcab23ef	-0.020891158
6	0x3c0d2475	0.008614649
7	0xbce4eaba	-0.027943958
8	0xbbe914be	-0.0071130684
9	0xbc3e227f	-0.011604904
10	0xba2ac140	-0.0006513782
11	0xb9a489d6	-0.00031383213
12	0x3cfc0989	0.030766265
13	0xbcb39c33	-0.021925068
14	0x3d053f7a	0.03253124
15	0xbc2c1aeb	-0.010504465
16	0x3c02462c	0.007951301
17	0x3be05a01	0.006846667
18	0x3d3ce1d9	0.046113823
19	0x3ca3260d	0.019915605
20	0x3bfe8b98	0.0077681057
21	0xbc904816	-0.017612498
22	0xbbbf727e	-0.005842506
23	0xbc62b605	-0.013837342
24	0x3b57b8e7	0.0032916607
25	0x3c005341	0.007832349
26	0xbbabad02	-0.00523913
27	0x3c26db4f	0.010184123
28	0x3bde4dee	0.0067841923
29	0x3c770985	0.015077953
30	0x3c641ee7	0.013923383
31	0x3c0ffc10	0.008788124
32	0xbbd80a71	-0.0065930416
33	0x3c8f721f	0.017510472
34	0x3d23e2dc	0.04001127
35	0xbc90d6dd	-0.01768058
36	0xbc941869	-0.018078046
37	0x3d4e4c56	0.05036577
38	0xbc8c6a80	-0.017140627
39	0x3da509e3	0.08058526
40	0x3bd00fd7	0.0063495445
41	0xbc827e69	-0.015929418
42	0xbd25d9be	-0.04049086
43	0x3b470895	0.0030370106
44	0xbb88a557	-0.0041701007
45	0x3db39ef6	0.08770554
46	0xbcdfa2d5	-0.027299324
47	0xbcaa2ef9	-0.020774351
48	0xbaf26ce6	-0.0018495589
49	0x3af153e7	0.0018411846
50	0xbd7dadcf	-0.061933335
51	0xbd1045e9	-0.03522292
52	0x3bc374b1	0.0059648384
53	0x3b6072fb	0.0034248221
54	0xbc66aa73	-0.014078724
55	0xbd955c72	-0.07293023
56	0x3c36b765	0.011152123
57	0x3d09c20f	0.033632334
58	0x3d992478	0.07477659
59	0xbc8a366a	-0.01687165
60	0xbc45f721	-0.012082846
61	0xbc5b05fa	-0.013368124
62	0x3cb64f22	0.02225453
63	0x3d01be21	0.03167546
64	0x3b91189c	0.0044279825
65	0x3ad7faae	0.0016477907
66	0x3c533924	0.012892041
67	0xbbd9069f	-0.0066231037
68	0xbc30e24e	-0.010796143
69	0xbc5846d7	-0.013200483
70	0x3cff39dc	0.03115552
71	0x3ca47056	0.020073097
72	0x3d0cda3a	0.034387805
73	0xb9267ff5	-0.00015878661
74	0xbc9f1686	-0.01941992
75	0x3b3e3d0b	0.0029028084
76	0x381bed78	3.717604e-05
77	0x3bca47be	0.006173103
78	0xbcaf02a3	-0.021363562
79	0xbb998d09	-0.004686002
80	0xbc595387	-0.013264543
81	0xbc9e4b15	-0.019322911
82	0x3c833252	0.016015206
83	0xbc0ba5b0	-0.00852339
84	0xbcecccf9	-0.028906332
85	0x3c66781d	0.014066723
86	0x3b4a614f	0.0030880754
87	0xbab6b374	-0.0013938979
88	0x3c1b89d0	0.009493306
89	0x3cc2b3e5	0.023767421
90	0xbc1a316d	-0.009411198
91	0x3d1b5f97	0.03793296
92	0x3be3e671	0.006954961
93	0xbc6fa9f5	-0.014627923
94	0xbc4917f4	-0.012273777
95	0xbcd683f6	-0.02618597
96	0xbb864f16	-0.0040987832
97	0x3ad30dcd	0.0016102135
98	0x3c24780f	0.01003839
99	0x3b8de60a	0.0043304013
100	0xbba220bc	-0.00494775
101	0xbc89aac4	-0.01680506
102	0x3cc506df	0.024051128
103	0x3cae6eba	0.021293033
104	0xbce0dcba	-0.027449
105	0xbc386b2e	-0.011256022
106	0xbb078a49	-0.002068179
107	0x3c86694f	0.016407637
108	0x3c516ff3	0.012783038
109	0x3cdf58bc	0.027263992
110	0xbd0212e1	-0.031756286
111	0xbc09ef5d	-0.008418885
112	0xbc3f0a1a	-0.011660123
113	0xbb01917b	-0.001977055
114	0x375e4588	1.324842e-05
115	0xbc4f7edf	-0.012664526
116	0xbcb7d6c4	-0.022441275
117	0xbc475642	-0.012166562
118	0xbbb91762	-0.0056485394
119	0x3c243096	0.010021349
120	0x3ba4f8aa	0.005034526
121	0xbb770291	-0.0037690739
122	0xbcc9aa75	-0.024617413
123	0xbc391630	-0.011296794
124	0xbbe7a6ac	-0.0070694294
125	0xbbda7fcc	-0.0066680666
126	0xbc52df11	-0.012870566
127	0xbd0dbe13	-0.034605097
128	0xbc0cbf13	-0.0085904775
129	0x3c8524b5	0.016252855
130	0x3c4744c0	0.012162387
131	0x3a28a511	0.0006433288
132	0xbcac4cc3	-0.021032697
133	0x3c1d98da	0.009618962
134	0x3ca9d344	0.020730622
135	0x3cd30c56	0.025762718
136	0x3c8efaa1	0.017453494
137	0x3c614717	0.013749859
138	0xbb467ad8	-0.0030285623
139	0x3cafdb94	0.021467008
140	0x3cae09ce	0.02124491
141	0x3cac401f	0.02102667
142	0xbc56382f	-0.013074919
143	0x3cce6b2e	0.025197592
144	0xbc6817e6	-0.014165854
145	0x3cc5280d	0.02406695
146	0x3b49487a	0.0030713365
147	0x3bd8340d	0.006598002
148	0xbae5cecc	-0.0017532944
149	0xbc202f2c	-0.009776872
150	0x3c8174b7	0.015802724
151	0x3cd31e8a	0.025771398
152	0x3c18f6d1	0.009336189
153	0x3cb59dd4	0.022169985
154	0xbcfb66a8	-0.030688599
155	0xbc6621c8	-0.01404614
156	0x3bb570da	0.0055371346
157	0xb8c02149	-9.161473e-05
158	0xbc32c830	-0.010911986
159	0xbc8c4ad7	-0.01712553
160	0xbc0a4cae	-0.008441133
161	0x3b20b043	0.0024519123
162	0x3d09c40b	0.033634227
163	0x3ce82fe0	0.028343141
164	0x3b667c8a	0.0035169446
165	0x3c06d907	0.008230454
166	0x3d1bd3ed	0.038043905
167	0x3c9d5137	0.019203765
168	0x3bde3def	0.0067822854
169	0x3c30558b	0.0107625825
170	0xbcd7d75c	-0.026347809
171	0x3bd9b144	0.006643446
172	0x3c985fba	0.018600333
173	0x3c53cd51	0.012927369
174	0xbc0045c3	-0.0078291325
175	0x3bdf0bed	0.0068068416
176	0xbcc5dd88	-0.024153486
177	0x3ca7e258	0.020493671
178	0x3aebe0df	0.0017996094
179	0xbc767370	-0.015042171
180	0xbcecc11a	-0.028900672
181	0xbcaaf735	-0.02086983
182	0x3c766487	0.015038616
183	0x3c3bd5f1	0.011464582
184	0xbb43eb97	-0.002989506
185	0x3bd80b63	0.0065931543
186	0xbd1465dd	-0.036229957
187	0xbc866f0e	-0.016410377
188	0xbb117cf8	-0.0022199731
189	0x3c6ddaa3	0.014517459
190	0xbd3d6d26	-0.04624667
191	0xbca89839	-0.020580398
192	0x3c36eb9b	0.011164571
193	0xbb0552a8	-0.0020343456
194	0x3c8bf4c5	0.017084489
195	0x3cb320d7	0.021866245
196	0xbc69c787	-0.014268762
197	0xbc63e06c	-0.013908487
198	0xbc0e75e3	-0.008695099
199	0x3d31cd97	0.043408956
200	0xbd2f52ea	-0.042803682
201	0x3b5540e3	0.0032539896
202	0xba9c8925	-0.0011942728
203	0x3b8caa8d	0.004292792
204	0x3c22d60e	0.00993873
205	0x3cb56ca2	0.022146527
206	0xb996980a	-0.00028723507
207	0xbc935fa2	-0.017989937
208	0xbc724692	-0.014787333
209	0x3c57953f	0.013158142
210	0x3cfd183d	0.030895347
211	0x3c9f6126	0.019455504
212	0x3c53ef39	0.012935453
213	0xbbfa9494	-0.0076471064
214	0xbb832ad3	-0.004002908
215	0x3c86a3ce	0.01643553
216	0xbd29c801	-0.041450504
217	0x3bf615a0	0.007509902
218	0xbbb13cc3	-0.0054088547
219	0xbcacadcd	-0.021078968
220	0xbce4d5f6	-0.027934056
221	0x3bc3cfa4	0.0059756804
222	0xbd54bc00	-0.051937103
223	0x3c9978bf	0.018734334
224	0x3b5fdaed	0.003415759
225	0xbc963d28	-0.018339708
226	0xbd342ccf	-0.043988045
227	0xbc335159	-0.010944688
228	0x3c39817c	0.011322375
229	0x3d4cbbcf	0.049983796
230	0xbb864887	-0.0040980014
231	0xbc619a85	-0.0137697505
232	0x3c98e9d1	0.01866618
233	0x3bfc8342	0.007706077
234	0x3d1f858f	0.03894573
235	0x3c2dfaf5	0.010618915
236	0xbac4aeb3	-0.0015005678
237	0xbcb2ab5d	-0.021810228
238	0xbcf4a7cd	-0.02986517
239	0x3c9bb93e	0.019009229

weight f4 [10, 16]
0	0x3ccd07c6	0.02502812
1	0x3cbee716	0.02330355
2	0xbbd60517	-0.0065313685
3	0x3cecb4d3	0.028894817
4	0x3beff445	0.0073228204
5	0x3d6ebf4d	0.058287907
6	0x3ae10087	0.0017166295
7	0xbcd89f31	-0.026443096
8	0xbd040e37	-0.03224012
9	0xb9a1dd15	-0.00030873032
10	0x3a959844	0.0011413177
11	0xbd460b62	-0.0483507
12	0xbd02b839	-0.03191397
13	0xbb372198	-0.0027943607
14	0xbd20bbca	-0.03924159
15	0xbca8b450	-0.020593792
16	0x3d12d3b4	0.035846427
17	0x3c594ef5	0.013263454
18	0xbc02cbdf	-0.007983177
19	0x3d3d86b9	0.04627106
20	0xbbf603f4	-0.0075077955
21	0xbcf66da6	-0.030081581
22	0xbcc4f568	-0.0240428
23	0xbcc47d64	-0.023985572
24	0xba652c2f	-0.00087422406
25	0xbd01bb5b	-0.031672817
26	0x3cdb43b9	0.026765691
27	0x3bb7a3fc	0.0056042653
28	0x3c0e00f9	0.008667224
29	0x3ce24503	0.027620798
30	0x3bef5880	0.007304251
31	0x3c85bfcc	0.016326807
32	0x3cdffae3	0.027341312
33	0xbc9dde21	-0.019270958
34	0xbcdae515	-0.026720563
35	0x3be4ebd3	0.0069861203
36	0xbb06e51b	-0.0020583335
37	0x3c56f2f8	0.013119452
38	0x3c6b48e8	0.014360644
39	0x3c8dda4d	0.017316008
40	0xbd9c15d7	-0.07621353
41	0xbcb65469	-0.022257047
42	0xbd892d4b	-0.06698092
43	0x3cd92c6e	0.026510444
44	0xbcd1678f	-0.025562076
45	0x3b7b4937	0.00383432
46	0x3d10c4e3	0.035344016
47	0x3b3be557	0.0028670633
48	0xbcb2ff92	-0.021850381
49	0xbc6acbcf	-0.014330818
50	0xbc7fede2	-0.0156206805
51	0xbd5e059a	-0.05420456
52	0x3cf905ee	0.030398335
53	0x3c9da4c2	0.019243602
54	0x3bab2ceb	0.0052238605
55	0xbb66f1df	-0.0035239381
56	0xbcb5a0e5	-0.022171447
57	0x3cb178df	0.021664081
58	0x3d06754a	0.0328267
59	0x3b238927	0.0024953575
60	0xbcb29203	-0.02179814
61	0xbbbbbfbe	-0.0057296446
62	0x3b1393b7	0.0022518465
63	0x3d11914b	0.035538953
64	0x3b821ef6	0.003970976
65	0xbc96b7b5	-0.018398145
66	0x3c1b5e88	0.009482987
67	0x3abf43c3	0.0014592338
68	0x3c9ddf58	0.019271538
69	0xbc54560d	-0.012959969
70	0x3c5cb72c	0.013471406
71	0x3ba70880	0.005097449
72	0xbcd4b775	-0.025966385
73	0x3c7dec0b	0.015498172
74	0xbc0c2303	-0.008553269
75	0xbcd6833b	-0.026185622
76	0xbca79581	-0.020457031
77	0xbbc01088	-0.0058613457
78	0x3bd6ad91	0.0065514524
79	0xbd1321ac	-0.035920784
80	0xbbb6ed44	-0.0055824835
81	0xbb42e3b3	-0.002973777
82	0x3cbf5ffd	0.0233612
83	0x3c9dc921	0.019260945
84	0x3c736fb3	0.014858174
85	0xbd1106b9	-0.0354068
86	0x3ca916a7	0.020640684
87	0x3ce4b4e9	0.027918296
88	0xbcbae30b	-0.02281334
89	0x3c064250	0.008194521
90	0xbc9d6f6a	-0.019218165
91	0xbca1bc21	-0.019743027
92	0xbc752d19	-0.014964365
93	0x3c018f96	0.007907769
94	0xbc2c2d7e	-0.010508893
95	0xbc52c3f0	-0.012864098
96	0x3d42b88b	0.047539275
97	0x3d2d1787	0.042258766
98	0x3ccd5d58	0.025068924
99	0xbc44840c	-0.011994373
100	0xbb40f52f	-0.0029443016
101	0xbbbe3f56	-0.00580589
102	0xbd03fe50	-0.032224953
103	0x3c7f48c7	0.015581316
104	0x3c43c37f	0.011948465
105	0xbc619aca	-0.013769815
106	0x3cf971d8	0.030449793
107	0x3bfde479	0.0077481833
108	0x3c7d1ebb	0.015449221
109	0xbd0da661	-0.0345825
110	0xbc937e8e	-0.018004682
111	0xbcf11c67	-0.029432489
112	0xbcadea6c	-0.021229945
113	0x3c0c0c60	0.008547872
114	0xbcc0c598	-0.02353172
115	0x3c6f9ee1	0.014625282
116	0x3b48fc78	0.0030668061
117	0xbc550296	-0.013001105
118	0xbbb03bd5	-0.0053782263
119	0x3c57aaad	0.013163251
120	0xbc5762cf	-0.013146116
121	0x3c64e8e7	0.013971544
122	0x3b5c3f8b	0.003360721
123	0xbca0f600	-0.019648552
124	0x3c9d8a48	0.019230977
125	0x3cd76324	0.026292391
126	0x3cb5c9c9	0.022190945
127	0xbc972bd0	-0.018453509
128	0x3c006ab4	0.00783794
129	0xbcc33ee8	-0.023833707
130	0xbc0488fa	-0.008089298
131	0x3ba817f4	0.0051298086
132	0xbd09c83a	-0.033638217
133	0x3c3d6739	0.011560255
134	0x3c85229f	0.01625186
135	0xb8d24979	-0.00010027266
136	0xbd1a9795	-0.037742216
137	0x3c0c995a	0.008581484
138	0xbcda7328	-0.026666239
139	0x3a156499	0.0005698889
140	0xbcd06dd4	-0.025442995
141	0xbcbf6f51	-0.02336851
142	0xbd1f2bd3	-0.038860153
143	0x3d0369fe	0.032083504
144	0xbc04a044	-0.008094851
145	0x3d192053	0.037384342
146	0x3b873d8a	0.004127209
147	0x3c16155f	0.009160369
148	0xbc437c3d	-0.011931476
149	0x3c74c1af	0.014938756
150	0xbb8e6d48	-0.0043465234
151	0xbc0a0918	-0.00842502
152	0xbcee6bf0	-0.029104203
153	0xba1ea938	-0.0006052437
154	0xbc8420a5	-0.016128847
155	0xbd1a3b0d	-0.03765397
156	0xbcdf8498	-0.027284905
157	0xbc054a7f	-0.008135437
158	0xbc4742b4	-0.012161899
159	0x3bc7eae5	0.0061009997

weight f4 [2, 16]
0	0xbbbee67d	-0.005825816
1	0xbc627e89	-0.013824114
2	0x3d7be991	0.061502043
3	0xbc9b2e83	-0.018943077
4	0xbca8d81c	-0.020610861
5	0x3d432704	0.04764463
6	0x3cbe90db	0.023262432
7	0x3d556b51	0.052104298
8	0xbca9c70e	-0.0207248
9	0x388050c5	6.11856e-05
10	0xbd614f60	-0.05500734
11	0x3c713e7c	0.01472437
12	0xbd6cf176	-0.057847463
13	0xbc861338	-0.016366586
14	0xbcebf770	-0.02880451
15	0x3beef55a	0.007292432
16	0xbc071f5b	-0.008247222
17	0xbda6a34a	-0.08136614
18	0xbc5b07f7	-0.013368598
19	0xbd0a852d	-0.033818413
20	0xba703dbc	-0.00091644726
21	0x3cba446d	0.022737706
22	0x3d11f163	0.035630595
23	0xbabbb484	-0.0014320766
24	0xbd11a98a	-0.035562076
25	0x3cdb5df2	0.026778195
26	0xbcd9be51	-0.026580008
27	0x3c1376b6	0.009000471
28	0xbd6d28cd	-0.05790024
29	0x3bdf1a42	0.00680855
30	0xbbb2beb7	-0.005454864
31	0xbaa9555c	-0.0012919116

weight f4 [2, 16]
0	0x3bcc2371	0.006229811
1	0x3cf1bb21	0.029508175
2	0x3d5749f5	0.052560765
3	0x3cc42eb9	0.02394806
4	0xbca79d11	-0.020460637
5	0xbd477eeb	-0.048705023
6	0xbd5a5f0b	-0.053313296
7	0xbbf2eeee	-0.0074137365
8	0x3b49fe09	0.0030821583
9	0x3c320ad3	0.0108668385
10	0xbd491a0e	-0.049097113
11	0x3cb90a5b	0.022587946
12	0xbcd5fc8f	-0.026121406
13	0xbc9274cc	-0.017877959
14	0x3d185b6b	0.037196558
15	0xbd2c2951	-0.04203159
16	0xbb13a3ae	-0.002252798
17	0x3d5d03bd	0.053958643
18	0x3ccf51d2	0.02530757
19	0x3b94891c	0.0045329463
20	0xbc8e52fb	-0.017373553
21	0xbd5b5f81	-0.053557876
22	0x3c51706b	0.01278315
23	0xbbe487d7	-0.006974201
24	0xbd00ca0a	-0.03144268
25	0xbcaac766	-0.020847034
26	0xbd22fa06	-0.039789222
27	0x3c4a8552	0.012360888
28	0xbc8df381	-0.017328026
29	0x3c7f16f0	0.015569434
30	0x3c457021	0.012050659
31	0xbcd9705d	-0.026542837

weight f4 [2, 16]
0	0xbc4d9d42	-0.0125497
1	0x3cf993af	0.030465929
2	0x3d19d62b	0.037557762
3	0x3bd0747b	0.006361542
4	0xbc250d38	-0.010073952
5	0x3cdb3959	0.026760744
6	0x3ac9164e	0.001534173
7	0x3d20a0ed	0.03921597
8	0xbb34abac	-0.0027568145
9	0xbba6b5ca	-0.005087589
10	0xbb8697ca	-0.00410745
11	0x3bc2f40e	0.0059495037
12	0xbc8d5abb	-0.017255178
13	0x3cbf9dd3	0.023390686
14	0xbcbc4a1f	-0.022984562
15	0x3c4857fe	0.01222801
16	0xbb40d39e	-0.0029423009
17	0x3badb443	0.00530103
18	0x3b81bb2a	0.0039590793
19	0x3b8c6531	0.004284524
20	0x3c4f1c4b	0.012641023
21	0xbc9aeef0	-0.018912762
22	0xbafa4c69	-0.0019096258
23	0xbcf048c4	-0.029331572
24	0x3c69f17e	0.014278768
25	0xbc9bc945	-0.019016871
26	0x3cb486f1	0.022037001
27	0xbc4af925	-0.012388502
28	0xbb5790b9	-0.0032892658
29	0xbca0eb78	-0.01964353
30	0x3bd5ee75	0.0065286704
31	0x3d1be426	0.038059376

weight f4 [2, 16]
0	0x3c93afc3	0.018028146
1	0xbd594e4d	-0.05305319
2	0x3cea809c	0.028625779
3	0xbd2b2f29	-0.041793022
4	0x3d0cbd6c	0.034360334
5	0x3cc6359c	0.024195485
6	0x3d41f7bd	0.047355402
7	0x3c93d5ce	0.018046286
8	0xbd8a1133	-0.06741562
9	0x3c544215	0.012955208
10	0xbb3ac674	-0.0028499635
11	0x3c754f12	0.014972465
12	0xbd3f9dcc	-0.046781346
13	0xbd8f6f9b	-0.07003709
14	0x3b8222c1	0.003971428
15	0x3b06a56a	0.0020545372
16	0xbd2ac968	-0.041695982
17	0xbd2bdd41	-0.04195905
18	0xbbd23e33	-0.006416106
19	0xbb22e4cb	-0.002485561
20	0x3cd343e8	0.025789216
21	0x3d6cff71	0.057860795
22	0x3bbbb569	0.005728413
23	0x3d415d3e	0.047208063
24	0xbcfd2f09	-0.030906217
25	0x3d877811	0.06614698
26	0x3b66b45f	0.0035202724
27	0x3c72adbd	0.01481193
28	0x3c1d7a74	0.009611715
29	0xbce9e002	-0.028549198
30	0xbd45eda9	-0.048322354
31	0x3d1b3e85	0.03790142

weight f4 [2, 16]
0	0xbae8cbc9	-0.0017760928
1	0x3d1badb9	0.03800747
2	0x3d060dc0	0.032727957
3	0x3ceb108f	0.02869442
4	0xbd296a44	-0.04136111
5	0xbd47eab9	-0.048807833
6	0xbc777593	-0.0151037155
7	0x3ce30c08	0.027715698
8	0x3c362457	0.0111170625
9	0xbbe40769	-0.006958891
10	0xbda74714	-0.08167854
11	0x3d527568	0.0513815
12	0xbc422f93	-0.011852163
13	0xbc7d5312	-0.0154617
14	0xbc31dfcb	-0.010856579
15	0xbc67c673	-0.014146435
16	0x3a803d22	0.0009783844
17	0x3d01f353	0.031726193
18	0x3d0d945c	0.034565315
19	0x3d252390	0.04031712
20	0xbd2f0135	-0.04272576
21	0xbcc5750f	-0.02410367
22	0x3c9d7c21	0.019224228
23	0x3c52ef4f	0.012874438
24	0x3c9f71c5	0.01946343
25	0xbd3e79a6	-0.04650273
26	0xbd8056ff	-0.06266593
27	0xbc733142	-0.014843287
28	0x3c6f1c29	0.014594116
29	0xbc935cfd	-0.017988676
30	0x3c79c469	0.015244582
31	0xbd7d1240	-0.061784983

weight f4 [2, 16]
0	0xbcc90973	-0.024540639
1	0xbd5793ed	-0.052631307
2	0xbc38b184	-0.011272792
3	0xbbba0d1e	-0.005677833
4	0x3cabafbd	0.020957822
5	0xbccd02be	-0.025025722
6	0x39adab92	0.0003312496
7	0x3d1a9e81	0.037748817
8	0x3c08db07	0.008353001
9	0x3d2ca145	0.042145986
10	0xbbe86307	-0.007091883
11	0x3b143ee0	0.0022620484
12	0x3c116a7b	0.008875485
13	0x3d398ad4	0.045298412
14	0xba876d8b	-0.0010332329
15	0xbd1ea208	-0.038728744
16	0xbd03237a	-0.032016255
17	0xbccd2386	-0.025041353
18	0xbd2043f1	-0.039127294
19	0xbd3d86c9	-0.04627112
20	0xbca68cac	-0.02033075
21	0xbd4cfc17	-0.0500451
22	0x3bbd19e4	0.0057709087
23	0xbd34a3ed	-0.044101644
24	0x3be8911c	0.0070973765
25	0x3d3337a0	0.04375422
26	0x3d4bb7b4	0.04973574
27	0xbcc09033	-0.02350626
28	0x3cf3deed	0.029769385
29	0xbc933815	-0.017971078
30	0x3d8bd352	0.068274155
31	0x3c3c3d55	0.011489232

weight f4 [2, 16]
0	0xbcee497d	-0.029087776
1	0xbc059f43	-0.008155647
2	0x3c4488d7	0.011995516
3	0xbcae2977	-0.021260006
4	0x3b6b50d2	0.0035906327
5	0x3c88e33f	0.016709922
6	0x3b452363	0.0030080907
7	0x3c4da9c5	0.012552683
8	0x3d01e258	0.03171
9	0xbca49401	-0.020090105
10	0xbc217d95	-0.009856601
11	0x3d481a5f	0.048853274
12	0x3c3ae157	0.011406264
13	0xbb268f3f	-0.0025414971
14	0x3c0fc31d	0.008774546
15	0xbcb3458a	-0.021883745
16	0xbb1f846b	-0.0024340402
17	0xbcfcff76	-0.030883532
18	0xbd179f83	-0.037017357
19	0xbb053465	-0.002032542
20	0xbc79d5e5	-0.01524875
21	0x3c8cf01f	0.017204342
22	0x3ca809cc	0.020512484
23	0x3c022b57	0.007944903
24	0x3b8ea1d9	0.00435279
25	0xbc1b67d6	-0.009485206
26	0x3ce6543b	0.028116336
27	0x3d1bf4ca	0.038075246
28	0x3ced2381	0.028947594
29	0x39831e64	0.0002500891
30	0x3d1cb0ab	0.03825442
31	0x3c351239	0.011051708

weight f4 [2, 16]
0	0x3b12df08	0.002241077
1	0xbc759660	-0.0149894655
2	0xbc263369	-0.010144093
3	0xbbc32a60	-0.005955979
4	0x3d05ca04	0.03266336
5	0xbc266a1e	-0.010157136
6	0xbd0f37f3	-0.034965467
7	0xbca7ce40	-0.02048409
8	0xbbb7daf7	-0.0056108194
9	0x3c1b78ec	0.009489279
10	0x3ce8d3cf	0.02842131
11	0xbabb142a	-0.0014272977
12	0xbc9492b7	-0.018136365
13	0xbcb28cc6	-0.021795642
14	0x3cb0aefb	0.021567812
15	0xbcf1a859	-0.02949922
16	0xbbae69d0	-0.0053226724
17	0xbce6496c	-0.028111182
18	0xbceebf97	-0.029144092
19	0xbc87714d	-0.016533518
20	0xb7e32f61	-2.7082571e-05
21	0xbba4c803	-0.005028726
22	0xbcd61815	-0.02613453
23	0x3ce946b5	0.028476099
24	0x3c67bf4e	0.014144732
25	0x3b723716	0.0036959103
26	0x3c43509f	0.011921077
27	0x3cda7adb	0.02666991
28	0x3cd21f46	0.025649678
29	0xbccfb14f	-0.025353102
30	0x3bceb6d5	0.0063084164
31	0x3c35bef4	0.01109289

weight f4 [2, 16]
0	0xbc1c3cdc	-0.009535994
1	0x3cc1212e	0.023575392
2	0xbca0bebe	-0.019622203
3	0xbaee91f3	-0.0018201455
4	0xbd4d8e89	-0.05018476
5	0xbcd0dbb7	-0.025495393
6	0x3cbc44be	0.022981998
7	0xbc56f51f	-0.013119965
8	0xbbffb032	-0.0078029865
9	0xbc0140a7	-0.0078889495
10	0x3cd1b6fb	0.025599947
11	0x3c9b6bee	0.018972363
12	0x3aa1ee57	0.0012354356
13	0x3c1858e7	0.00929854
14	0x3cc56a28	0.02409847
15	0xbcd45173	-0.025917744
16	0x3c2fa095	0.010719438
17	0x3cca951f	0.02472931
18	0xbd0eeb6a	-0.034892477
19	0xbc32eb76	-0.010920396
20	0xbd2ab7b3	-0.041679095
21	0x3c04f9a5	0.0081161605
22	0x3b8be597	0.0042693126
23	0xbc8385db	-0.016055038
24	0x3c3bc42a	0.011460343
25	0x3c6348d1	0.013872341
26	0x3c3cf4e3	0.011532995
27	0x3c0e494d	0.008684468
28	0xbcc78ff5	-0.024360636
29	0xbc331928	-0.010931291
30	0x3c6e1bff	0.014533042
31	0x3c25ade1	0.010112257

weight f4 [2, 16]
0	0x3c8bda76	0.017071944
1	0x3cf26400	0.0295887
2	0x3bf41c9c	0.0074496996
3	0xbc129bbd	-0.008948264
4	0x3d17e02f	0.037079033
5	0x3c81ae33	0.015830135
6	0xbb846acc	-0.0040410515
7	0xbad031ab	-0.0015883943
8	0x3cc1fad5	0.023679176
9	0xbd2c45cc	-0.04205875
10	0x3bda6280	0.006664574
11	0xbbe374e6	-0.0069414256
12	0xbc9fc3ff	-0.019502638
13	0xbd0cfada	-0.03441892
14	0x3c2ce30f	0.010552182
15	0xba9866ff	-0.0011627375
16	0xbcdcd90c	-0.026958965
17	0xbcc9ac28	-0.024618223
18	0xbd208288	-0.039186984
19	0xbd1c9f44	-0.038237825
20	0x3d47eeef	0.04881185
21	0xbd2040f5	-0.039124448
22	0x3c7d64c3	0.015465918
23	0xbcaa086d	-0.02075597
24	0x3cf3923c	0.029732816
25	0x3c5483ec	0.012970906
26	0x3d426e2a	0.047468342
27	0x3d091358	0.033465713
28	0xbcb890e9	-0.022530036
29	0xbd3c3d54	-0.045956925
30	0x3b855dbe	0.004070013
31	0x3cf54d2c	0.029944025

weight f4 [2, 16]
0	0xbc0f9b87	-0.008765108
1	0xbbb90b2b	-0.0056470833
2	0xbbc80c94	-0.006105015
3	0x3c87e58e	0.016588952
4	0xbb75c77e	-0.003750294
5	0x3cffb2cf	0.031213192
6	0xbcd697e8	-0.026195481
7	0xbc87bf63	-0.016570752
8	0xbbfd9c29	-0.007739563
9	0xbc257267	-0.010098076
10	0xba0f94b3	-0.0005477175
11	0x3cd453ff	0.025918959
12	0xbccdc937	-0.02512036
13	0xbbdb2ffc	-0.00668907
14	0x3c3d2ea1	0.011546762
15	0x3c85873e	0.01629984
16	0x3c2bd77d	0.010488388
17	0x3cf98b32	0.030461881
18	0xbd842f69	-0.06454355
19	0xbca6fa4d	-0.020383025
20	0x3ccb5089	0.024818676
21	0x3d1e0fea	0.038589396
22	0xbc806c3f	-0.015676616
23	0xbd0bdaa4	-0.03414406
24	0x3d9dbf83	0.077025436
25	0x3bbb473b	0.0057152784
26	0x3c8dbc95	0.017301837
27	0x3c0330cc	0.00800724
28	0xbccd8e52	-0.025092278
29	0x3c56ed8e	0.013118161
30	0xbc84a915	-0.016193906
31	0x3d24de96	0.040251337

weight f4 [2, 16]
0	0x3cb47792	0.022029672
1	0xbd12eb13	-0.035868715
2	0xbc210842	-0.009828629
3	0xbcad57d8	-0.021160051
4	0x3ba272ea	0.0049575465
5	0xba9638fc	-0.0011461074
6	0xbd2b601f	-0.041839715
7	0xbc228297	-0.00991883
8	0x3d6e180d	0.058128405
9	0xbb1dcddc	-0.0024079
10	0x3c9caf51	0.019126566
11	0xbc2ca8c3	-0.010538283
12	0x3c89432c	0.016755663
13	0x3b4c09c7	0.0031133757
14	0x3c2a3f1a	0.010391021
15	0x3b4abeb4	0.0030936422
16	0xbab296f7	-0.0013625313
17	0x3c98d138	0.01865445
18	0x3ca8a2d3	0.020585453
19	0x3d7d3e1b	0.061826807
20	0x3c83fdee	0.016112294
21	0x3caa3b19	0.020780133
22	0x3c509344	0.012730423
23	0x3d262eda	0.040572025
24	0xbd16d2f7	-0.036822286
25	0xbb5056ad	-0.0031789944
26	0x3b1c37e8	0.0023837034
27	0xbd065f03	-0.032805454
28	0xbc8439ab	-0.01614078
29	0xbb254893	-0.002522026
30	0xbcb408eb	-0.021976909
31	0x3cedf291	0.029046329

weight f4 [2, 16]
0	0x3cadeb08	0.021230236
1	0x3cd38104	0.025818355
2	0xbb604021	-0.0034217911
3	0x3d3d2c7c	0.046185
4	0x3bd50374	0.006500656
5	0x3d40422f	0.046938118
6	0x3a43a73c	0.00074635795
7	0x3cb2dc95	0.021833697
8	0x3bf4ba1c	0.007468475
9	0xbc69db50	-0.01427348
10	0x3cad2b1b	0.021138718
11	0x3d114d2b	0.035473984
12	0x3bb0e9b4	0.0053989533
13	0x3a2b879b	0.0006543339
14	0xbd020811	-0.031745974
15	0x3b9eea7f	0.0048497315
16	0xbd08695d	-0.033303607
17	0x3c84c455	0.0162069
18	0xb994681c	-0.00028306327
19	0x3c82ce0c	0.015967391
20	0xbcd62b8b	-0.02614381
21	0x3c8acae0	0.016942441
22	0xbd031cbc	-0.032009825
23	0xbc666738	-0.014062695
24	0xbc299f4a	-0.010352919
25	0x3c1948d8	0.009355746
26	0xba8d8a77	-0.0010798712
27	0xbbf1c35b	-0.0073780245
28	0xbc35a28e	-0.011086119
29	0x3c54ec36	0.01299577
30	0xbbae53a5	-0.00532003
31	0xbad8c1ad	-0.0016537212

weight f4 [2, 16]
0	0xbc8e7eab	-0.017394384
1	0x3c907fa6	0.017638993
2	0x3d0c92a4	0.034319535
3	0xbc6fdcd2	-0.01464005
4	0xbcfc436a	-0.030793864
5	0x3cae8ebf	0.021308301
6	0xbc5254b0	-0.012837574
7	0x3cd50ab1	0.026006075
8	0xbca48c26	-0.02008636
9	0xbc95014a	-0.018189091
10	0xbd11c14f	-0.035584744
11	0x3c764f97	0.015033624
12	0x3c3e549b	0.011616851
13	0xbca43627	-0.020045353
14	0xbd28c38c	-0.041202113
15	0x3bbebc49	0.005820785
16	0xbc458f58	-0.012058102
17	0x3c8172b8	0.015801772
18	0x3ca2a049	0.01985182
19	0x3ce68865	0.02814121
20	0x3c9bfd1f	0.019041596
21	0x3b16f97e	0.0023036893
22	0xbcb15e33	-0.021651363
23	0x3d207b80	0.03918028
24	0xbd28904e	-0.041153245
25	0x3bd76b63	0.006574081
26	0xbc4af4b3	-0.012387442
27	0x3d0a0d66	0.033704184
28	0xbaece58d	-0.0018073783
29	0xbb8180cd	-0.003952122
30	0x3ce287f4	0.027652718
31	0x3ceaa2d0	0.028642088

weight f4 [2, 16]
0	0xbc76b7e2	-0.0150584895
1	0x3b10fc44	0.0022123018
2	0x3d1ac96d	0.03778975
3	0x3c395e1f	0.011313944
4	0xbc970bfd	-0.018438334
5	0x3b03a75b	0.0020088765
6	0x3bdde357	0.006771486
7	0x3c23d1aa	0.009998718
8	0x3c2c5c59	0.010520064
9	0xbc2ab0ff	-0.010418176
10	0xba68f0ac	-0.00088859606
11	0xbb27e29d	-0.002561725
12	0xbc9e68f8	-0.019337162
13	0x3cb1f691	0.021724017
14	0xbcdfb798	-0.027309224
15	0xbca5824c	-0.020203732
16	0xbcd6505d	-0.026161367
17	0xbd1d930d	-0.038470317
18	0x3cc58895	0.024112979
19	0x3cb454bd	0.022013063
20	0x3cf84aa4	0.030309029
21	0x3c9f0b57	0.019414587
22	0x3b958c33	0.004563832
23	0xbc8f7eb5	-0.017516473
24	0x3c7b03b4	0.015320707
25	0x3cbfc160	0.023407638
26	0xbc1f01e1	-0.009705038
27	0x3d13fa15	0.03612717
28	0xbc94e364	-0.018174835
29	0x3d22700a	0.03965763
30	0x3aa32ead	0.0012449824
31	0xbb61772d	-0.003440331

weight f4 [2, 16]
0	0x3cf6c6a6	0.03012402
1	0x3cddd10b	0.027077219
2	0xb8830f9c	-6.249474e-05
3	0x3cd9428c	0.02652099
4	0xbc17084a	-0.009218285
5	0xbd3e2463	-0.04642142
6	0xbcbc0529	-0.02295168
7	0x3bde72d0	0.006788589
8	0x3d242c1c	0.04008113
9	0xbc24e7e3	-0.010065052
10	0xbb8ff525	-0.004393237
11	0xbb92a6ae	-0.004475436
12	0x3d066700	0.032813072
13	0x3d1a4a68	0.037668616
14	0x3cb6b316	0.022302192
15	0xbbf8f4f5	-0.0075975605
16	0xbccc64fe	-0.0249505
17	0xbc97c5f1	-0.018527003
18	0xbc7ffa97	-0.01562371
19	0xbd19da02	-0.037561424
20	0x3cfc6ad6	0.030812662
21	0x3d010dde	0.031507365
22	0x3cda2a81	0.026631596
23	0xbcfd989c	-0.030956559
24	0xbd2520ab	-0.040314358
25	0xb9f2ca1a	-0.00046308414
26	0x3c64c874	0.013963807
27	0xbbb0095c	-0.0053722095
28	0xbcf7ce4b	-0.030249735
29	0xbd144655	-0.036199886
30	0xbd316efb	-0.04331873
31	0x3ce3b600	0.027796745

weight f4 [2, 16]
0	0x3c15fc17	0.009154341
1	0xbc38f2fd	-0.011288402
2	0xbce86e1b	-0.028372815
3	0xbd335c5c	-0.043789253
4	0x3cdea862	0.0271799
5	0x3bccd5cf	0.006251074
6	0xbca7ccb7	-0.020483358
7	0xbcda541a	-0.02665143
8	0xbd29f3f6	-0.041492425
9	0x3b930f60	0.004487917
10	0x3d80d70f	0.06291019
11	0x3d072902	0.032998092
12	0x3c935dd6	0.01798908
13	0x3d269338	0.040667742
14	0x3cb2d9ca	0.021832366
15	0x3d2c1653	0.042013478
16	0x3c284e95	0.010272642
17	0x3cc76249	0.024338858
18	0x3d303e4e	0.04302817
19	0x3ceb8fff	0.028755186
20	0xbd652af3	-0.055949163
21	0xbd3cff63	-0.046141993
22	0x3cbfbe2a	0.023406107
23	0x3c9412d6	0.018075388
24	0xbbb38fab	-0.005479773
25	0xbc977312	-0.018487487
26	0xbd511415	-0.051044542
27	0xbd267a00	-0.040643692
28	0x3c0370e6	0.008022523
29	0x3cbe1ea5	0.023207972
30	0xbaf1efd5	-0.0018458316
31	0xbd4de34e	-0.050265603

weight f4 [2, 16]
0	0x3d15336e	0.036426
1	0xbd032ca7	-0.032025006
2	0x3c6a1e7c	0.014289495
3	0x3c01027e	0.007874129
4	0x3bc8ce9f	0.006128147
5	0x3ce805de	0.02832311
6	0x3c34b177	0.011028639
7	0xbc9ed647	-0.019389285
8	0xbce2b311	-0.027673276
9	0x3cfa29f8	0.03053759
10	0x3c889bdb	0.01667588
11	0xbc8a51f7	-0.016884787
12	0x3bc7bda6	0.006095606
13	0xbc4e155e	-0.0125783365
14	0xbc87b41c	-0.016565375
15	0x3bb13a31	0.0054085483
16	0x3d066343	0.032809507
17	0xbbbb1c3f	-0.0057101543
18	0x3be7bc99	0.007072043
19	0xbb841912	-0.004031309
20	0xbb84d029	-0.004053135
21	0x3b29a8bd	0.002588793
22	0xbc9c0fbd	-0.019050473
23	0xbcbf1f33	-0.023330307
24	0xbc0a5db3	-0.008445191
25	0xbce73871	-0.028225156
26	0x3c9ab07f	0.018882988
27	0xbd451228	-0.04811302
28	0x3bfec5a1	0.007775024
29	0x3d0ddccc	0.034634396
30	0x3bfce96a	0.007718255
31	0x3ce9c648	0.02853693

weight f4 [2, 16]
0	0xbc3a02c5	-0.011353199
1	0x3d70f0b7	0.058823314
2	0x3d9b25fa	0.07575603
3	0xbbae7c53	-0.005324879
4	0x3c6b2119	0.014351153
5	0xbc1212ac	-0.008915585
6	0xbd3045fd	-0.043035496
7	0xbc868201	-0.016419413
8	0x3c0aa27a	0.008461589
9	0xbd0f7920	-0.035027623
10	0xbcd5d51c	-0.026102595
11	0xbcfc9627	-0.030833317
12	0xbcbbd31e	-0.022927817
13	0x3d52a13f	0.051423308
14	0xbc28c30f	-0.010300412
15	0xbd1d7003	-0.0384369
16	0xbc9a9d51	-0.018873842
17	0xbd12ba76	-0.035822354
18	0xbd6239e0	-0.055230975
19	0xbc66d227	-0.01408819
20	0x3c9ece0c	0.01938536
21	0xbd15b2d6	-0.036547504
22	0x3cc94cd1	0.024572762
23	0xbc0ef150	-0.008724526
24	0xbccc6c3b	-0.024953952
25	0x3c6548e9	0.013994434
26	0x3c02efa9	0.00799171
27	0x3d4099cb	0.04702167
28	0x3cc95285	0.024575481
29	0xbd2b69ef	-0.041849073
30	0xbc40a89b	-0.011758949
31	0x3cd93e31	0.026518913

weight f4 [2, 16]
0	0x3d2bd7bc	0.041953787
1	0x3ccf676b	0.025317868
2	0x3cf951c6	0.0304345
3	0x3d1efe97	0.038817015
4	0xbcc7038d	-0.024293685
5	0xbd5008e1	-0.050789718
6	0x3c916d2c	0.017752253
7	0x3d832f05	0.06405453
8	0xbc60b836	-0.013715794
9	0xbc8c4b3a	-0.017125715
10	0xbcd3c705	-0.025851736
11	0xbd428be3	-0.047496688
12	0xbce14f47	-0.027503623
13	0xbc8c3863	-0.017116731
14	0xbc1ff968	-0.009764053
15	0xbd0524a5	-0.03250565
16	0xbb9a5085	-0.0047093057
17	0xbce5fe13	-0.028075254
18	0xbb9c201c	-0.00476457
19	0xbcd1f0d5	-0.025627533
20	0x3cb255e3	0.02176947
21	0x3d8709bb	0.06593653
22	0xbcc86ad6	-0.024465006
23	0xbd16c0c9	-0.036804948
24	0x3cbce722	0.023059431
25	0xbcc2d73a	-0.023784269
26	0x3d4e82a7	0.05041757
27	0x3d0e921c	0.03480731
28	0x3c8f7279	0.01751064
29	0xbc141324	-0.009037767
30	0xbc20f7a9	-0.009824672
31	0x3ce94d6c	0.0284793

weight f4 [2, 16]
0	0xbac91759	-0.0015342041
1	0xbc20452e	-0.009782119
2	0xbc81c786	-0.01584221
3	0xbce3855a	-0.027773548
4	0xbb6a2d1c	-0.0035732454
5	0x3c76faa0	0.015074402
6	0x3cf45ff4	0.02983091
7	0xbc4695c0	-0.012120664
8	0x3cb87d0e	0.022520568
9	0xbc8964c0	-0.016771674
10	0xbcb2faa5	-0.021848032
11	0x3c86f303	0.016473299
12	0x3d16a92a	0.03678242
13	0xbcb5e2a0	-0.02220279
14	0x3c2bb01f	0.010479002
15	0x3cdacada	0.026708055
16	0x3b68ac5e	0.003550313
17	0xbd8e2222	-0.06940104
18	0x3d111dc7	0.03542879
19	0x3bff90e2	0.007799254
20	0xbb354b2a	-0.002766321
21	0x3d12ec0d	0.035869647
22	0x3c4c9cc0	0.012488544
23	0x3d2225aa	0.0395867
24	0x3c8e3b78	0.017362341
25	0x3d0ebbb6	0.034846984
26	0xbca35a24	-0.019940443
27	0xbc964276	-0.018342238
28	0xbc6285ad	-0.013825816
29	0xbb9f4adf	-0.0048612203
30	0xbb9bea6f	-0.0047581713
31	0x3bcf7a7d	0.0063317404

weight f4 [2, 16]
0	0x3ce3736e	0.027765002
1	0x3d80a195	0.06280819
2	0x3d285cb6	0.04110404
3	0x3d72a9cc	0.059243962
4	0x3b12ae54	0.002238174
5	0xbb869963	-0.0041076406
6	0xbc295180	-0.0103343725
7	0x3b54a486	0.0032446696
8	0xbc9c63a5	-0.019090483
9	0xbcd61e08	-0.026137367
10	0xbc8791a4	-0.016548939
11	0x3acb0fc6	0.0015492372
12	0xbcafb200	-0.021447182
13	0x3cbb4225	0.022858689
14	0xbcd6498c	-0.026158117
15	0xbd3dae34	-0.04630871
16	0x3c07985a	0.00827607
17	0x3a9ff819	0.0012204676
18	0xbafc948c	-0.0019270345
19	0x3d14a508	0.0362902
20	0x3d1f0354	0.038821533
21	0xbc4edffd	-0.012626645
22	0xbc992040	-0.018692136
23	0xbca08476	-0.019594412
24	0x3cab0c49	0.020879881
25	0xbd0c64ce	-0.034275822
26	0x3d5353aa	0.05159346
27	0x3cb740a7	0.022369696
28	0xbc7de0e3	-0.015495512
29	0x3cab862a	0.020937998
30	0xba871f1c	-0.0010308954
31	0x3d102e55	0.035200436

weight f4 [2, 16]
0	0xbbb24a68	-0.005440999
1	0x3d290356	0.041262947
2	0x3c0bac66	0.00852499
3	0x3c5f901a	0.013645196
4	0xbd448207	-0.047975566
5	0xbd02b853	-0.031914067
6	0x3c01a93d	0.007913885
7	0x3d5b56e7	0.053549673
8	0xbd51467c	-0.05109261
9	0xba324302	-0.0006800146
10	0xbccc31ef	-0.024926154
11	0xbd32b34c	-0.043628022
12	0xbc9c7758	-0.019099876
13	0xbc807673	-0.015681481
14	0x3bda0f7c	0.006654678
15	0xbd4ab0c3	-0.04948498
16	0xbcb1f9c1	-0.021725537
17	0xbc9a4898	-0.018833444
18	0xbd10bbe5	-0.03533544
19	0xbbcb5f77	-0.0062064487
20	0x3d223aa6	0.039606713
21	0xbc09587e	-0.008382915
22	0x3cdc77d1	0.026912602
23	0xbc0713b9	-0.008244448
24	0xbbec5882	-0.0072126994
25	0x3d1f66df	0.038916465
26	0x3bd80dc2	0.006593437
27	0x3b724bd8	0.0036971476
28	0x3b37f10b	0.0028067257
29	0xbce45262	-0.027871314
30	0xbc7e8857	-0.015535436
31	0x3a899560	0.0010496788

weight f4 [2, 16]
0	0x3d12f0b8	0.0358741
1	0xbb9c63ee	-0.0047726547
2	0x3b26aab7	0.0025431344
3	0x3c517cf6	0.012786141
4	0x3c25152a	0.010075847
5	0x3c6d3ebc	0.014480289
6	0xbc0988db	-0.008394445
7	0xba8d3406	-0.001077295
8	0x3d6bfcaf	0.057614025
9	0xbcfde4f2	-0.030992959
10	0x3c552840	0.013010085
11	0xbc08e85d	-0.008356181
12	0x3b85bf06	0.0040816097
13	0xbcfefbf2	-0.031125996
14	0x3c004c76	0.00783073
15	0x3aa797fa	0.0012786381
16	0x3aa6fa37	0.0012739365
17	0xbcb402e7	-0.02197404
18	0x3cc8f713	0.024531877
19	0x3d1d7ac1	0.038447145
20	0xbbc4700e	-0.0059948033
21	0x3c521cdc	0.012824263
22	0x3cc26681	0.023730518
23	0x3cee315d	0.029076273
24	0xbcd432f6	-0.025903206
25	0x3c8424bb	0.016130796
26	0x3c44edb1	0.012019561
27	0x3c16b1a0	0.009197623
28	0xbc5553ea	-0.013020495
29	0x3d22c866	0.039741896
30	0xbcd3a725	-0.025836537
31	0xbd6a5f60	-0.057219863

weight f4 [16, 16]
0	0x3c634e8c	0.0138737075
1	0x3b9223ca	0.004459833
2	0x3cb3ff97	0.02197246
3	0xbd831338	-0.0640015
4	0x3d0292cb	0.031878274
5	0xbd2aa19a	-0.04165802
6	0x3c9768bb	0.018482557
7	0xbc97015b	-0.018433264
8	0x3d80c3c7	0.062873416
9	0x3bee2f59	0.007268828
10	0xbd725bb1	-0.059169475
11	0x3c61facd	0.013792706
12	0x3d1a8426	0.037723683
13	0x3b5b20ae	0.0033436227
14	0x3d14c330	0.036318958
15	0x3c458f1b	0.012058045
16	0x3c70d12f	0.014698311
17	0x3d0061c7	0.031343248
18	0xbbe46e1f	-0.0069711353
19	0x3b860a77	0.004090603
20	0xbc34f081	-0.011043669
21	0x3d26b811	0.040702883
22	0x3cb62f98	0.022239491
23	0x3c3e2160	0.011604637
24	0xbd543c71	-0.051815454
25	0xbc82b5c1	-0.015955808
26	0x3c3590f4	0.011081923
27	0xbc5b2f3d	-0.013377962
28	0xbc0598f6	-0.0081541445
29	0xbb1c7d3c	-0.0023878356
30	0x3d0a88a8	0.03382173
31	0xbcd81d5f	-0.026381193
32	0xbcc1d6dd	-0.023662025
33	0x3c479c1a	0.012183214
34	0x3d1eb62a	0.038747944
35	0xbc354df9	-0.011065953
36	0xbca7db3a	-0.020490278
37	0x3d1b0235	0.0378439
38	0xbc034b7b	-0.008013601
39	0xbc68c930	-0.014208123
40	0x3b91dd75	0.0044514486
41	0x3c124428	0.0089273825
42	0xbbdb445a	-0.0066914978
43	0xba141c0c	-0.0005649931
44	0xbc8d6d33	-0.017263984
45	0x3b264934	0.0025373222
46	0xbc3a5ec6	-0.011375135
47	0x3cc85c5e	0.024458107
48	0x3a9bc8c2	0.0011885392
49	0xbc35d383	-0.011097792
50	0x3c26d822	0.010183366
51	0x3a5ed3bc	0.0008500179
52	0x3cf362d1	0.029710205
53	0xbcd6be13	-0.026213681
54	0xbcd390bc	-0.02582585
55	0x3c21c10a	0.009872684
56	0x3c5bb9a4	0.013410959
57	0x3c10ae3f	0.008830606
58	0x3c720b35	0.01477318
59	0xbd19245f	-0.0373882
60	0x3ca678ae	0.020321216
61	0xbc8cfc99	-0.017210292
62	0xbc716f3b	-0.014735992
63	0x3c33dae2	0.010977479
64	0xbd0fb3ca	-0.03508357
65	0xbbf488ea	-0.0074626105
66	0xbc4da1f2	-0.012550818
67	0x3cf60dc0	0.030035853
68	0x3c68c1f9	0.014206403
69	0x3c7f152d	0.015569014
70	0xbc88bca2	-0.01669151
71	0x3d654367	0.055972483
72	0x3cbca9b8	0.023030147
73	0x3d0f8c10	0.035045683
74	0x3cf92a8e	0.0304158
75	0x3baf3c08	0.0053477325
76	0xbce55169	-0.027992921
77	0x3aca3882	0.0015428218
78	0xbc15cbd2	-0.009142833
79	0x3bb8ebf0	0.0056433603
80	0xbbd54730	-0.0065087304
81	0x3c4900f6	0.0122682955
82	0x370b6d6f	8.310525e-06
83	0xbc913d7f	-0.017729519
84	0x3b79e2ec	0.003812964
85	0x3c84f9a5	0.016232321
86	0xbcd508ac	-0.026005112
87	0x3c526f5c	0.012843933
88	0xba84b9c8	-0.0010126168
89	0x3c62fa78	0.013853662
90	0xbb02b538	-0.001994444
91	0xbb247d6d	-0.0025099174
92	0x3c06c0e7	0.008224702
93	0x3ce252e6	0.02762742
94	0x3b30d80f	0.002698425
95	0x3c4bc0aa	0.012436071
96	0x3cb11992	0.021618638
97	0xbc6a93ed	-0.014317495
98	0x3b2527e4	0.0025200779
99	0xbd794ecb	-0.06086616
100	0x3b24cb86	0.0025145723
101	0xb9f7aa36	-0.00047238328
102	0xbd2a1336	-0.041522227
103	0x3c816e71	0.015799733
104	0x3c3dfd48	0.0115960315
105	0x3cd123c0	0.025529742
106	0xbb0c3698	-0.0021394845
107	0x3c5f38a9	0.013624349
108	0xbcf50dfb	-0.029913893
109	0x3cb9385a	0.022609878
110	0xbc651137	-0.013981155
111	0x3cc8eb54	0.024526276
112	0xba72e527	-0.0009265714
113	0xbc84c975	-0.016209343
114	0xbc2bf016	-0.010494253
115	0xbba45b37	-0.0050157565
116	0xbc869172	-0.016426776
117	0xbd574f0b	-0.052565616
118	0xbbbab881	-0.005698264
119	0x3cb2e3a7	0.021837069
120	0x38a022c2	7.635869e-05
121	0x3ca52b01	0.020162107
122	0xbc3025d0	-0.010751203
123	0x3b395b5d	0.0028283217
124	0x3c04b8a8	0.008100666
125	0x3cbf1e21	0.023329796
126	0xbc9585de	-0.01825231
127	0xbc95da3e	-0.018292543
128	0xbc005b23	-0.007834229
129	0x3c63117e	0.013859151
130	0xbce5d630	-0.028056234
131	0xbd288a46	-0.041147493
132	0x3c1ea2a9	0.009682336
133	0xbafe3268	-0.0019393684
134	0xbd09b20d	-0.033617068
135	0x3c699b88	0.014258273
136	0x3c1b903c	0.009494837
137	0xbcb06079	-0.021530377
138	0x3bdee7d6	0.0068025393
139	0x3b37c275	0.002803949
140	0x3ca79db8	0.020460948
141	0xbd043927	-0.032281067
142	0x3ce17dc4	0.02752579
143	0xbc67ca84	-0.014147405
144	0x3ceb1197	0.02869491
145	0xbd284801	-0.041084293
146	0x3d5e7d02	0.054318435
147	0xbc377a2c	-0.011198562
148	0xbc45798a	-0.012052903
149	0xbd4308bc	-0.04761575
150	0xbc403b1a	-0.011732841
151	0x3cd09c9c	0.025465302
152	0x3cb85667	0.022502137
153	0xba475d9d	-0.0007605197
154	0x3c3e0498	0.011597775
155	0xbcd254d2	-0.025675211
156	0xba993d14	-0.0011691176
157	0x3d1da855	0.038490612
158	0xbc80a502	-0.015703682
159	0x3d1a762b	0.03771035
160	0x3b5da1ca	0.0033818358
161	0xbccda374	-0.025102355
162	0xbc732d2a	-0.014842311
163	0x3cc75c9a	0.024336148
164	0x3aebad27	0.001798068
165	0x3c379122	0.011204036
166	0x3ca43cda	0.020048548
167	0xbd0134cf	-0.031544503
168	0xbc29d527	-0.010365761
169	0xbb37ca9c	-0.0028044349
170	0xbd2102e4	-0.039309397
171	0x3b12f128	0.0022421572
172	0x3be91de0	0.007114157
173	0xbbf5fd99	-0.007507038
174	0xbbe5eac5	-0.007016512
175	0xbcd85844	-0.026409276
176	0x3c6fb81d	0.014631298
177	0xbd3e8ff2	-0.046523996
178	0x3cdd0727	0.02698095
179	0xbcc73cd6	-0.024321001
180	0xbce2418a	-0.027619142
181	0xbca57547	-0.020197524
182	0xbcbdb886	-0.023159277
183	0x3be57e9c	0.0070036184
184	0xbad6616a	-0.0016355936
185	0x3ca69024	0.020332403
186	0x3cc5cba0	0.024144948
187	0x3cabbb39	0.020963298
188	0xbd246280	-0.040133
189	0xbb702322	-0.0036642035
190	0x3ca4a0d9	0.02009623
191	0x3d197e1c	0.037473783
192	0x3c7c4c54	0.015399057
193	0xbc705070	-0.014667615
194	0x3c870b16	0.016484778
195	0xbb8eb005	-0.0043544793
196	0xbc60dd34	-0.013724614
197	0x3c97bba8	0.018522099
198	0x3c9817b1	0.018565984
199	0xbd9a0635	-0.07520715
200	0xbc0772c4	-0.008267108
201	0x3cd1dfe8	0.025619462
202	0xbc513626	-0.012769258
203	0xbd1bb67e	-0.038015835
204	0xbc62cb89	-0.013842472
205	0x3af41cce	0.0018624307
206	0xbc3aabbf	-0.0113934865
207	0xba3d2727	-0.0007215612
208	0xbc8f594c	-0.017498635
209	0xbd822bec	-0.06356034
210	0x3c6398d9	0.013891422
211	0x3d4c02df	0.049807426
212	0x3d4fd4f9	0.050740216
213	0xbca9454a	-0.020662922
214	0xbca52c3b	-0.020162692
215	0xbc20c9ac	-0.009813707
216	0xbb02237b	-0.0019857574
217	0xbc56227c	-0.013069745
218	0x3cc1e70f	0.023669748
219	0x3c1d1ca1	0.009589345
220	0x3b3066b4	0.0026916685
221	0x3c5611e6	0.013065791
222	0x3d068ecf	0.032851037
223	0x3c0577c7	0.008146233
224	0x3c8e01b2	0.017334793
225	0x3ce5f89f	0.028072653
226	0xbc8490bc	-0.016182296
227	0xbb44764c	-0.0029977737
228	0x3d4e36bd	0.05034517
229	0x3d18e766	0.037330054
230	0x3c8071c0	0.01567924
231	0xbcc7830e	-0.024354484
232	0x3cde0c26	0.027105402
233	0xbb142e9e	-0.0022610794
234	0xbba13405	-0.0049195313
235	0xbbeddcd7	-0.007258992
236	0x3c821ee2	0.015883867
237	0x3c89b872	0.016811583
238	0x3cb356c0	0.021891952
239	0xbcf0a9b5	-0.029377798
240	0xbced438a	-0.02896287
241	0x3d01c484	0.031681553
242	0xbd0f4272	-0.034975477
243	0x3d7373d1	0.059436623
244	0x3cdcfd36	0.02697621
245	0x3b92a556	0.004475276
246	0x3c99ecd6	0.01878969
247	0xbcf59269	-0.02997704
248	0xbc9b7bb9	-0.018979894
249	0xbc8fc49e	-0.017549809
250	0x3c50e3c9	0.012749621
251	0x3cc3d32f	0.023904411
252	0x3c2dd6fc	0.010610338
253	0xbd1b58b7	-0.037926402
254	0x3cd1644c	0.02556052
255	0xbcfef44b	-0.031122347

bias f4 [16]
0	0xbc9fa73c	-0.019488923
1	0xbc37fdda	-0.0112299565
2	0x3c0531bc	0.008129533
3	0x3bdeb574	0.0067965332
4	0x3c863e28	0.01638706
5	0xbb256adb	-0.0025240693
6	0x3caa68cb	0.020801922
7	0xb9a28593	-0.00030998568
8	0xbc450ff9	-0.012027734
9	0x3c21fc77	0.009886852
10	0xbc337304	-0.010952715
11	0x3c69f958	0.01428064
12	0xbbbbecf5	-0.0057350346
13	0x3bf87644	0.0075824577
14	0xbc7717a6	-0.015081322
15	0xbc908436	-0.017641168

weight f4 [64, 16]
0	0xbbd55012	-0.0065097893
1	0xbd173eb4	-0.036925033
2	0x3da4c922	0.080461755
3	0x3c3945ed	0.0113081755
4	0x3bd09d7e	0.006366431
5	0xbbda0af2	-0.006654137
6	0x3d236f3c	0.039901003
7	0x3c89ed75	0.016836861
8	0xbd07b148	-0.033128053
9	0x3c28838e	0.010285271
10	0xbd4b80b5	-0.04968329
11	0xbc66a855	-0.014078219
12	0xbc8b637c	-0.017015211
13	0xbb25f6e3	-0.0025324158
14	0x3b8fe77f	0.00439161
15	0xbd0cabed	-0.03434365
16	0xbc3973be	-0.011319099
17	0xbd2166ad	-0.03940456
18	0xbd1cc9f8	-0.03827855
19	0xbd227e4c	-0.039671227
20	0x3c8ab98e	0.016934182
21	0xb9dff016	-0.00042712752
22	0x3b8f50cb	0.004373645
23	0xbd6d7e92	-0.057982035
24	0x3cbe8828	0.023258284
25	0x3cea3531	0.028589817
26	0x3d311b4b	0.04323892
27	0x3d01cac5	0.031687517
28	0xbcf198c1	-0.029491784
29	0xbca4a7e1	-0.020099582
30	0xbc6b4ef0	-0.014362082
31	0x3ae3d411	0.0017381926
32	0xbca3d4c4	-0.019998915
33	0xbcf3247c	-0.029680483
34	0x3d336241	0.043794874
35	0x3c7c2165	0.015388821
36	0x3b3c339d	0.0028717287
37	0xbce68f28	-0.028144434
38	0x3d116825	0.03549971
39	0x3d8bf647	0.06834083
40	0x3bc265b6	0.005932535
41	0x3b50c7c2	0.0031857346
42	0xbd0fa054	-0.03506501
43	0x3c831fab	0.016006311
44	0x3b049ea1	0.0020236152
45	0xbca4ce04	-0.020117767
46	0xbbfdc258	-0.007744115
47	0xbd956fd7	-0.072967224
48	0x3d3d5bc8	0.046230108
49	0xbcaed821	-0.021343293
50	0x3c114238	0.008865885
51	0x3caff467	0.021478845
52	0x3bacb0cb	0.005270099
53	0x3b2b2de5	0.0026119885
54	0x3ce9a26a	0.028519828
55	0x3d3977f0	0.045280397
56	0xbd4f4b8c	-0.050609156
57	0xbb0f5d49	-0.002187567
58	0xbc8d2503	-0.017229563
59	0xbc04415d	-0.008072224
60	0x3d2047aa	0.039130844
61	0xbc7929f5	-0.015207757
62	0x3c9e9450	0.01935783
63	0x3c947960	0.018124282
64	0xbcca5d53	-0.024702704
65	0xbc9b0e9f	-0.01892787
66	0xbd1585ea	-0.036504664
67	0xbc27c7fa	-0.010240549
68	0x3c627671	0.013822184
69	0xbccee0e9	-0.02525373
70	0xbc999db3	-0.018751955
71	0xbd65da92	-0.056116648
72	0xbce22d0e	-0.027609374
73	0x3c8c9219	0.017159509
74	0x3d32b406	0.043628715
75	0xbcc04ad0	-0.023473173
76	0xbc040aa7	-0.00805918
77	0xbc72f7ba	-0.01482957
78	0x3d1299ea	0.035791315
79	0x3cdf4134	0.027252771
80	0x3b228a88	0.002480181
81	0xbc3a7c36	-0.011382153
82	0xbcc12b5f	-0.023580251
83	0xbbee6edf	-0.0072764005
84	0xbd0be8c4	-0.03415753
85	0xbd06c13b	-0.032899123
86	0xbbf96899	-0.007611346
87	0xbd938cb9	-0.07204575
88	0x3b5f629a	0.003408587
89	0x3cb330f1	0.021873923
90	0x3bea314d	0.0071469904
91	0x3c723bb0	0.014784738
92	0xbca2636b	-0.019822797
93	0xbcacbbf7	-0.021085722
94	0x3c7cc8f0	0.015428767
95	0xbcf6e723	-0.030139511
96	0xbc0e323f	-0.008678972
97	0xbc088204	-0.008331779
98	0x3d45507d	0.048172463
99	0x3c284c66	0.010272121
100	0x3d07055d	0.0329641
101	0xbcdbfd19	-0.026854085
102	0x3d09e30c	0.033663794
103	0x3d23a419	0.039951418
104	0xbd1d484d	-0.03839903
105	0x3cd22143	0.025650626
106	0xbd9c6ea8	-0.076382935
107	0xbc0edbcc	-0.008719396
108	0x3d0cf609	0.034414325
109	0xbbb6ca9b	-0.0055783517
110	0xbc6fd6a5	-0.014638578
111	0xbd156724	-0.036475316
112	0xbc3e5dd8	-0.011619054
113	0xbcd7807b	-0.026306381
114	0xbba6aaea	-0.0050862925
115	0xbc783ac4	-0.01515073
116	0x3d23df3b	0.04000781
117	0xbc6608a4	-0.014040146
118	0x3cb56032	0.022140596
119	0xbb8a269a	-0.0042160274
120	0x3b840129	0.0040284586
121	0xbc8f88a5	-0.017521212
122	0x3c56fa5e	0.013121216
123	0xbd2895f2	-0.041158624
124	0xbc502dcc	-0.012706231
125	0x3c87e863	0.016590303
126	0x3bdaeffa	0.0066814395
127	0xbb24f8d4	-0.0025172727
128	0x3bb030f9	0.0053769317
129	0x3bcececf	0.0063112746
130	0x3d9ec885	0.0775309
131	0xbc1d416b	-0.009598116
132	0x3b7995d0	0.003808368
133	0xbcb30095	-0.021850863
134	0x3d60cb9a	0.05488167
135	0x3c894eeb	0.016761264
136	0x3b416735	0.002951098
137	0x3c11cd84	0.008899096
138	0xbd753d02	-0.059872635
139	0xbcff261d	-0.031146104
140	0x3c7b9c1e	0.015357045
141	0x3c7effe1	0.015563936
142	0xbb91bf9f	-0.004447892
143	0xbd7e23c9	-0.062045846
144	0xbca0e385	-0.01963974
145	0xbc0d79c8	-0.008634992
146	0x3cb16d98	0.021658704
147	0x3cbf570a	0.023356933
148	0x3ba83899	0.0051337
149	0x3c9505ef	0.018191306
150	0xbbdff58e	-0.0068346923
151	0x3bf04d9c	0.0073334705
152	0xbc608aac	-0.013704937
153	0x3c78181b	0.015142466
154	0xbd110791	-0.035407607
155	0xb9d30c8d	-0.00040254407
156	0x3d18384e	0.03716307
157	0xbc5cc9c2	-0.013475837
158	0xbc6c5917	-0.014425538
159	0xbc64d90f	-0.013967766
160	0xbd13c7da	-0.036079265
161	0xbb8b7fa3	-0.004257159
162	0x3d9de4f4	0.07709685
163	0x3d195f8f	0.037444647
164	0xbc125170	-0.008930549
165	0xbce8495d	-0.028355295
166	0x3cf259b5	0.029583791
167	0x3d82d6c2	0.06388618
168	0xbd3f4619	-0.04669771
169	0x3ce7760d	0.028254533
170	0xbd4e0d50	-0.050305665
171	0xbce60302	-0.028077606
172	0xbd053c3f	-0.03252816
173	0xbbc41b62	-0.0059847096
174	0xbd13576c	-0.035972044
175	0xbd777f55	-0.060424168
176	0xbb708e3f	-0.003670588
177	0x3bd72b79	0.0065664616
178	0x3d969393	0.07352366
179	0x3c1878d4	0.009306151
180	0xbb65470e	-0.003498498
181	0x3ccae43d	0.024767036
182	0x3d0a99b2	0.03383798
183	0x3b1ca736	0.0023903376
184	0xbd08e871	-0.0334248
185	0x3d1ed457	0.03877672
186	0xbd49b16a	-0.04924146
187	0xbc74581c	-0.014913585
188	0x3d00d40d	0.031452227
189	0xbc50a08a	-0.012733588
190	0xbca63cb8	-0.020292625
191	0xbd12eb57	-0.03586897
192	0xbd3364dd	-0.043797363
193	0x3ccf9795	0.025340835
194	0x3d499f70	0.049224317
195	0x3cb4e2eb	0.02208086
196	0xbbaf3ec6	-0.0053480593
197	0xbcc90d1c	-0.024542384
198	0x3d06c920	0.03290665
199	0xbaeab9fe	-0.0017908213
200	0x3c2278d9	0.009916508
201	0x3b8b78bf	0.0042563374
202	0xbd1ef377	-0.038806405
203	0xbd02e24a	-0.031954087
204	0x3c5877a6	0.01321212
205	0xbbca8a28	-0.0061810203
206	0xbd8329d2	-0.06404461
207	0xbd1dd829	-0.038536225
208	0xbcd43739	-0.025905238
209	0x3c249740	0.010045826
210	0x3d6b2632	0.057409473
211	0x3cdc7863	0.026912874
212	0x3d63e2f6	0.05563637
213	0xbd076ab0	-0.03306073
214	0x3cbf804f	0.023376612
215	0x3d408b25	0.0470077
216	0xbdabafb0	-0.08383119
217	0xbcad2ab0	-0.021138519
218	0xbd370776	-0.04468485
219	0xbbd0cd88	-0.0063721575
220	0xbc0c1e47	-0.008552141
221	0x3d456678	0.048193425
222	0xbd47eec3	-0.048811685
223	0xbd1e8521	-0.03870118
224	0x3bb219a3	0.005435185
225	0x39c7aa7d	0.00038083261
226	0x3b3c1b2a	0.0028702714
227	0xbbf18816	-0.007370959
228	0x3cafe076	0.021469336
229	0x3d294226	0.04132285
230	0xbd6bda49	-0.05758122
231	0x3c741f2c	0.01490001
232	0xbc239df7	-0.009986392
233	0xbad0e7d5	-0.0015938232
234	0xbc67e61b	-0.0141539825
235	0x3c11475d	0.008867112
236	0x3bdc5dd8	0.0067250542
237	0xbb8efa0c	-0.004363304
238	0xbc686eb4	-0.01418655
239	0xbc2f3d93	-0.010695833
240	0x3cc3bb35	0.023892978
241	0x3cc62320	0.02418667
242	0x3c9c47e3	0.019077247
243	0xbcbe0cf2	-0.023199532
244	0xbc720be0	-0.014773339
245	0xbcd80a42	-0.026372079
246	0x3c758777	0.014985911
247	0xbaf2c5d4	-0.0018522092
248	0xbc419b13	-0.011816758
249	0x3c9622b4	0.018327095
250	0x3b36193d	0.002778604
251	0x3ca3ba03	0.019986158
252	0x3d18e9ea	0.037332453
253	0x3d56a67f	0.052404877
254	0x3bded554	0.006800333
255	0x3d595eb4	0.05306883

bias f4 [64]
0	0x3c623ccf	0.013808443
1	0x3c62f5d2	0.013852553
2	0x3cb11fdb	0.021621635
3	0x3c96f94d	0.018429423
4	0x3c5b2a76	0.013376823
5	0xbbcdb827	-0.006278056
6	0x3d08258d	0.033238936
7	0x3c79879b	0.015230085
8	0x3d051b95	0.032497007
9	0xbb7638ac	-0.00375704
10	0x3cfb28f4	0.030659176
11	0x3cf468de	0.02983516
12	0x3cb3e894	0.021961488
13	0x3cd0d765	0.025493333
14	0xbc68ee8b	-0.014217029
15	0x3b04390c	0.0020175604
16	0xbb92aa8b	-0.0044758967
17	0x3d1b20a6	0.037872933
18	0x3cf021fe	0.029313084
19	0x3cc67b6f	0.02422878
20	0x3d2d6b0d	0.04233842
21	0x3cd7223e	0.026261445
22	0xbc4fb844	-0.01267821
23	0x3cb059ea	0.02152725
24	0x3c83e8b8	0.01610218
25	0x3cb1fd05	0.021727094
26	0xbc8f1685	-0.017466793
27	0x3c37ac1b	0.011210467
28	0x3cbe873c	0.023257844
29	0xbc41bc30	-0.011824653
30	0xbbdf3197	-0.0068113315
31	0x3ca9020d	0.02063086
32	0x3bc67d0c	0.006057387
33	0xbbf44e77	-0.007455643
34	0xbb168cc2	-0.0022972082
35	0x3c8b01c2	0.016968612
36	0x3d0eeff0	0.03489679
37	0x3c87097e	0.016484018
38	0x3d09e694	0.033667162
39	0x3cc7bd14	0.024382152
40	0x3c6e8b30	0.014559552
41	0x3cd3f30f	0.025872735
42	0x3ce7eebe	0.028312083
43	0x3c7f341f	0.0155763915
44	0x3be95a5c	0.0071213674
45	0x3b4b6a0a	0.0031038546
46	0x3c172eef	0.009227498
47	0x3c7ba128	0.015358247
48	0x3d1286b4	0.035772994
49	0x3d1a3bf5	0.037654836
50	0x3c64260f	0.0139250895
51	0x3ce76049	0.028244155
52	0x3b64cf26	0.003491351
53	0x3c864ce5	0.016394088
54	0x3baeebf1	0.005338185
55	0x3cf0d32e	0.029397573
56	0x3cb085ba	0.02154814
57	0x3b74073b	0.0037235755
58	0x3d26a94f	0.04068881
59	0x3c9e3c18	0.019315764
60	0x3d3581c8	0.044313222
61	0x3ce6e762	0.028186504
62	0x3d0050f5	0.031327207
63	0x3cb51a1c	0.022107176
